rgz/best_model.pth (torch, 111029 bytes, 8 tensors)

net.0.weight f4 [128, 13]
000000 df 69 1c 3d d4 62 14 3d 22 1d 16 bd c8 1b 43 be
       0.038186904 0.036227062 -0.036648877 -0.19053566
000010 ce 06 41 bd 11 7a b9 bc 81 f8 95 bb 68 82 89 bb
       -0.04712563 -0.022641214 -0.004576743 -0.004196454
000020 66 0d 2a 3d 0a 02 c2 bc 94 3d 46 3c 4c a7 0c bc
       0.041516684 -0.023682613 0.012099642 -0.008584809
000030 ef bb 0a 3d 89 1e dc 39 18 80 eb b9 1b a3 25 be
       0.033870634 0.0004198442 -0.0004491813 -0.16175501
000040 9d 54 a1 3b 3c 41 2c bd 67 4c 13 3d c3 04 3b bd
       0.004923417 -0.0420544 0.035961535 -0.045658838
000050 60 58 ae bc 02 d2 53 3c 69 26 19 3d d8 20 d7 bb
       -0.021282375 0.012928488 0.037390146 -0.0065651946
000060 7c 56 2c bd 4d 98 7c bd b3 0f 0b 3d f6 ec 07 3d
       -0.042074665 -0.061668683 0.03395052 0.033184968
000070 f1 12 4b be 75 19 c8 bc cb 3f 54 bd a2 ee 51 bd
       -0.19831444 -0.024426201 -0.05181865 -0.05125297
000080 8f 39 f9 3c 69 bb 3b 3a e4 61 89 bc ab dd 39 ba
       0.030422954 0.000716141 -0.01677031 -0.0007090221
000090 25 58 35 bd 3c 2e a6 bd 16 6c 8e 3c 92 b4 ef 39
       -0.044273514 -0.08114287 0.017385524 0.00045720168
0000a0 9e 1d ac 39 60 ad 4b ba b5 da 43 ba 9a b1 2a 3a
       0.00032828463 -0.00077696703 -0.00074712496 0.000651145
0000b0 05 59 2a 3a 37 23 90 ba 2c 64 8e b9 1d 89 3b ba
       0.00064982503 -0.0010996823 -0.00027158984 -0.00071539154
0000c0 24 5d 3b ba b4 68 3d ba ce 66 9c ba 01 d2 ba ba
       -0.0007147363 -0.000722538 -0.0011932494 -0.001425326
0000d0 cd 5c fb 3c 02 65 f9 3c 54 0e ba bd 3e 8d d6 bd
       0.0306839 0.030443672 -0.09084764 -0.104761586
0000e0 77 52 62 3c 74 75 6c 3c 65 21 14 bc 3a c5 2f bc
       0.013813606 0.0144323 -0.009041165 -0.010728175
0000f0 f8 62 f1 3c 06 80 b3 bc ba b3 19 3c f0 39 12 bd
       0.029466137 -0.021911632 0.009381229 -0.035699785
000100 59 f1 cc 3b 22 77 68 3d 4f 9b 65 3d 53 b9 46 3c
       0.006254357 0.05675424 0.056056317 0.012129146
000110 9d 88 b3 bd b5 b6 17 be 0d 04 1f bd 91 e1 1e 3d
       -0.08766291 -0.14815791 -0.038822223 0.038789336
000120 c5 f3 48 bd e6 1d cd bb b4 da 18 3d 41 21 d1 39
       -0.0490606 -0.0062596677 0.037317947 0.00039888363
000130 44 53 ba bd 7c 7a 38 3d 0d b0 67 b9 3c d5 2e b9
       -0.09097913 0.045038685 -0.00022095461 -0.00016673369
000140 be 11 a5 b9 6a 32 30 ba 4f 0b b6 39 be f1 23 ba
       -0.0003148447 -0.00067213795 0.0003472217 -0.0006253979
000150 01 e6 4e ba 89 b2 fc ba 11 43 07 bb f2 e7 63 ba
       -0.00078925496 -0.0019279282 -0.002063934 -0.00086939253
000160 ce f2 6a 3a f8 78 46 3a 58 44 7d b9 53 cc ea 3c
       0.00089625723 0.00075711263 -0.0002415342 0.028661883
000170 e9 e2 f0 3c 30 69 88 bd 70 59 2e be 02 50 48 bc
       0.029405074 -0.06660688 -0.17026305 -0.012226107
000180 c1 6f fa ba 79 fb 98 bc cf c5 45 bb 6c 8f 2d 3d
       -0.0019106792 -0.018674599 -0.0030177718 0.042373106
000190 5a 41 c6 bc 23 dd 9c 3c 9f 82 49 bc fc 28 35 3c
       -0.024201084 0.019148415 -0.012299209 0.011057135
0001a0 45 27 ce 3c 75 80 c6 3c 69 2f f4 be 63 58 2e 3b
       0.02516521 0.024231175 -0.4769242 0.0026602976
0001b0 5d 9b b0 3a 71 34 97 3c 22 da 72 3c f3 05 88 3b
       0.0013474036 0.018457623 0.014822515 0.0041511
0001c0 50 e1 03 bd fc 25 f3 bd e2 b8 ef 3b f3 c5 12 3d
       -0.032197297 -0.11872479 0.007315741 0.03583331
0001d0 ea f9 1d bd 00 e0 39 3a 2e 8b b5 3a b8 32 48 3b
       -0.038568415 0.00070905685 0.0013850683 0.003054781
0001e0 23 83 10 bb fa 69 f0 3a b2 53 0c bb 1a 6d 60 ba
       -0.002205082 0.001834213 -0.002141219 -0.0008561179
0001f0 94 b8 0b bb 91 00 31 bb fb 34 b4 3a ed ff 0c 3a
       -0.0021319734 -0.0027008394 0.00137487 0.0005378712
000200 42 b1 27 38 b8 f0 2c 3a fc bc af 3c 18 7d bf 3c
       3.9980987e-05 0.0006597149 0.02145242 0.023375079
000210 55 ae 03 be 81 19 cd bb 61 94 c7 bc a2 69 bb bc
       -0.12859471 -0.006259144 -0.024362745 -0.022877518
000220 1c 1e 06 bd a2 f5 2a 3a 46 92 e6 3c df ce d3 3c
       -0.03274356 0.00065215875 0.02814592 0.02585548
000230 97 fa d4 bc 56 47 27 bd 09 e0 58 bd 5f a2 e1 ba
       -0.025998397 -0.040839516 -0.05294803 -0.0017214528
000240 42 87 a0 3a 0d 88 1b 3a 96 07 86 ba ef 56 a8 39
       0.0012247341 0.0005933054 -0.001022565 0.00032108228
000250 3f 69 cb ba 25 48 45 3a 78 4a 69 ba 7a f8 1a ba
       -0.0015519037 0.0007525704 -0.00088993413 -0.00059116597
000260 c2 23 77 ba 0f a7 d8 38 be 25 a4 3a d7 8c ad ba
       -0.00094276306 0.000103308 0.0012523455 -0.0013240826
000270 a4 b2 85 3d b4 80 86 3d 6e 76 8b be 65 1f 2d be
       0.065282136 0.06567517 -0.27238792 -0.16906507
000280 c9 be 3f bc a6 b1 c5 3c a6 d4 d6 3b 27 60 ce 3c
       -0.011703202 0.024132561 0.0065561114 0.025192333
000290 d3 48 b4 bb 92 04 19 bd b8 d2 05 bd b3 39 17 bd
       -0.0055018454 -0.037357874 -0.03267166 -0.03692026
0002a0 e9 c2 91 3c 30 54 95 3a 5a b8 4b 3a d0 1b 54 b8
       0.017793136 0.0011392888 0.0007771306 -5.057064e-05
0002b0 00 04 e2 b9 5a dd 95 b8 4a 96 38 38 51 c2 6b 3a
       -0.0004310906 -7.1461036e-05 4.4008986e-05 0.0008993494
0002c0 4f de 54 39 9b 10 39 bb d1 1e 97 ba f8 bd 6b 3a
       0.00020300712 -0.0028238657 -0.001152957 0.0008992846
0002d0 78 2a 29 3a 5a 12 19 bb 8c 0e 45 3d 79 57 47 3d
       0.0006453167 -0.0023356886 0.048109576 0.048667405
0002e0 7a a7 4a be c4 9b 29 3e 7d e0 67 3b ac 44 33 bc
       -0.1979045 0.16563326 0.0035381608 -0.010941666
0002f0 89 ae 11 3c a3 d2 0f bd 25 25 02 bc 43 58 e7 3c
       0.00889171 -0.03511299 -0.007943426 0.028240329
000300 8a b1 a3 bc e1 96 0e bd 0c e2 18 3d 32 55 00 bb
       -0.019982118 -0.034811858 0.03732495 -0.001958203
000310 71 0c 1d bb d5 60 32 3b 58 57 b7 bb af d0 a5 b9
       -0.0023963714 0.002721836 -0.005595129 -0.00031626734
000320 95 d4 12 bb 71 de 5d bb a9 db ed ba 75 f9 b4 bb
       -0.002240454 -0.003385451 -0.0018147129 -0.0055229017
000330 e2 94 f6 ba f0 d3 3d 3a dd b4 81 ba 85 d3 1a bb
       -0.0018812681 0.0007241359 -0.000989582 -0.002362461
000340 2f 94 dc 3c 4a fd d2 3c 35 31 4e be ff 4b 98 bd
       0.026926128 0.025755543 -0.20135958 -0.0743637
000350 c9 c8 e7 3c 47 98 07 bc 98 9d 60 bc de c4 d9 bc
       0.028293984 -0.008276052 -0.013709448 -0.026583131
000360 29 a9 8f bc a8 0b 85 3d aa 40 3c 3d 0b da 24 3b
       -0.017536717 0.06496364 0.045960106 0.0025154378
000370 48 ae c2 bc 7f d6 c1 3c ad 57 cf 3c 2e e3 a1 bd
       -0.023764744 0.02366185 0.025310362 -0.07904659
000380 bb a3 f8 bd 0d a2 72 bb db 53 d8 bd 06 d4 1b bd
       -0.12140604 -0.003702286 -0.10562869 -0.038044
000390 01 63 d3 bd 16 c4 3b 3d cd 47 49 bd f4 2d c3 bc
       -0.10321618 0.0458413 -0.04914074 -0.023825623
0003a0 f3 4d 80 bd a0 88 0f 3c ec a1 2d 3d f7 29 32 3d
       -0.06264868 0.008760601 0.04239075 0.043497052
0003b0 8e af 91 bd 69 d0 09 be 6c ed e5 bc ba 04 f6 bc
       -0.071135625 -0.13458408 -0.028067313 -0.03003155
0003c0 e3 69 90 bb 42 5e c5 3b dd 45 e0 3c 35 b9 c0 3a
       -0.004407154 0.0060231993 0.027377063 0.0014703633
0003d0 39 96 47 bd 4d 14 ae bd cb 9b 8d 3c dd ac b2 3d
       -0.048727248 -0.08499966 0.017286202 0.08724377
0003e0 d0 1e b1 3d fd 93 62 be 6e 63 be bd fc 81 af bd
       0.08648455 -0.22126766 -0.092963085 -0.085697144
0003f0 0a 49 59 bc 33 78 04 3d 08 23 26 3d 5b 1f 6e bc
       -0.013262043 0.032341193 0.040560752 -0.014533843

net.0.bias f4 [128]
000000 d9 14 14 3d 77 03 fd 3c af 91 0b 3c 14 5a 99 ba
       0.036152694 0.030885441 0.00851862 -0.0011699819
000010 f7 d1 05 3d 89 95 32 ba 3f f6 22 ba 40 49 0f 3d
       0.03267094 -0.00068124436 -0.0006216503 0.034981966
000020 18 9f 7c bd 61 55 e1 ba c9 07 28 3d fd 48 5a ba
       -0.06167516 -0.0017191583 0.04102305 -0.0008326916
000030 7b 2b d4 bb 12 c7 cc ba da c2 5c bc 3f 45 bb bb
       -0.00647491 -0.0015623292 -0.013474191 -0.005715042
000040 b1 99 84 bc 52 9c 4c 3d be 34 1b 3d 41 e7 6e bc
       -0.016186567 0.049953766 0.037892096 -0.014581502
000050 db 7c 42 3c fc b9 4a bc eb 66 4e 3d 55 17 5f 3c
       0.011870588 -0.012373444 0.05039112 0.013616403
000060 5d b9 72 3c 17 b5 3b 3c a8 1c e9 3a 9e c6 74 3b
       0.014814702 0.011456749 0.001778503 0.003734983
000070 71 d6 74 bc 96 53 15 3d 85 07 74 ba 00 00 00 00
       -0.014943705 0.036456667 -0.0009308982 0.0
000080 8c b5 19 bc 70 da 8b ba f2 95 b2 bb 2a 98 62 3d
       -0.009381663 -0.0010669958 -0.005450004 0.055320896
000090 c6 fd f1 3c e4 45 17 3d 17 11 90 bc 76 e4 aa ba
       0.029539954 0.036931887 -0.017586274 -0.0013038057
0000a0 99 22 22 bb 60 80 ef 3c 1b 27 c3 ba 4d 6a fa bc
       -0.002473986 0.029236019 -0.0014888974 -0.030568266
0000b0 b4 e9 a4 bc 19 99 ee 3c 4d 35 02 ba dd f8 ea bb
       -0.02013097 0.029125737 -0.0004967049 -0.00717078
0000c0 65 1e a4 ba 3b 4a 95 ba 5d d2 dd 3c 12 85 36 bb
       -0.0012521265 -0.001138992 0.027077848 -0.0027850312
0000d0 c9 55 d7 bc 41 8f 4a bb 61 9d e1 bc 1c ff 78 ba
       -0.026286023 -0.003090814 -0.027540864 -0.00094984635
0000e0 9b 0e 08 3d d6 4a 88 bb fa 6c 4a b9 53 1b 2b 3d
       0.033217054 -0.0041593118 -0.00019304818 0.041774105
0000f0 db 5b 5d 3d 56 a9 04 3d 65 60 f2 3c b0 a4 84 3c
       0.05404268 0.032388054 0.02958698 0.01619181
000100 26 89 05 3d 78 22 95 3b 95 d2 10 bb 59 2b 16 bd
       0.032601498 0.004551228 -0.0022098173 -0.036662433
000110 55 f5 4b 3c 21 21 09 3c e4 44 09 3d 6a 3d b5 ba
       0.012448628 0.008369715 0.033512965 -0.0013827507
000120 a0 dc 0d 3d f7 5d e4 3c 94 d0 21 3d 1e 25 93 3b
       0.034634233 0.027876837 0.039505556 0.0044905087
000130 1c 86 19 3d 61 c2 00 3d 52 f9 24 3c 0f 1e 56 3d
       0.037481412 0.031435374 0.010069208 0.05227476
000140 dd e3 1c 3d 58 79 1b 3d c4 96 35 3d c9 5f 30 3d
       0.038303245 0.03795752 0.044333234 0.043060098
000150 5f bf f0 3c 7d b5 a9 bc 0d d9 28 bc d0 1f ef ba
       0.029388128 -0.020716423 -0.010305655 -0.0018243734
000160 4f ab ad bb 70 f2 f8 3c 60 b6 98 3c 06 33 df ba
       -0.0052999626 0.03038904 0.01864165 -0.0017028756
000170 b8 0b fb ba 0e f3 1f 3d 0a 51 30 bb 1a e7 71 ba
       -0.0019153273 0.039050154 -0.0026903772 -0.0009227857
000180 21 01 20 3d 7b 40 42 bb e3 9e 28 3d 23 6e f5 3c
       0.039063577 -0.0029640484 0.04116715 0.029959744
000190 40 ad b2 3c a0 9c 20 3d ec 78 0a bc e6 a2 d8 3c
       0.021811128 0.03921187 -0.008451682 0.026444864
0001a0 4f ac 1d 3d ad 8a 60 bd 10 b4 61 ba af c6 30 3d
       0.038494404 -0.05481975 -0.00086099 0.04315823
0001b0 11 52 28 3d fc cb b2 3b bb 45 7c ba 36 d0 39 3d
       0.04109389 0.0054564457 -0.0009623428 0.04536458
0001c0 cc 63 c5 bb 85 eb 4e bb 88 82 10 3c bd 15 bf 3c
       -0.0060238596 -0.0031573486 0.008820184 0.023325795
0001d0 04 a7 c7 3c 86 36 eb ba e9 1f 41 3c 9d 26 05 bb
       0.024371631 -0.0017945326 0.011787393 -0.0020317205
0001e0 aa 5f 68 3c 00 00 00 00 9d 8d 14 bc 7b f5 e3 3c
       0.014182964 0.0 -0.009066966 0.027827015
0001f0 52 d8 17 bb 8f 0f 17 bb 5e 7c e2 ba 78 a9 0e 3c
       -0.0023169708 -0.0023050045 -0.0017279496 0.008707397

net.2.weight f4 [128, 128]
000000 89 c9 d6 3b 4c 5b 79 3c a5 1e 0f be ba 19 e6 38
       0.0065547866 0.015219521 -0.13976534 0.000109720466
000010 f8 a4 c6 bc df eb 91 3b ae ba d1 39 bc d5 94 bb
       -0.024248585 0.004453167 0.00040002674 -0.0045420807
000020 8f 8c dc be 06 d7 b9 b9 2a ab fc ba e1 7d 1a 3b
       -0.43075988 -0.00035446155 -0.0019277085 0.0023573565
000030 db 84 84 be 8b 72 b4 ba bc 57 ba bb 02 1a 08 b9
       -0.2588261 -0.0013767047 -0.0056867283 -0.0001297966
000040 3d cd 57 bd 06 32 f7 bb e2 17 66 3c a1 22 8a bd
       -0.052685965 -0.007543805 0.01404378 -0.06744886
000050 2c 0a 0e bc a3 44 29 bd a2 fc c1 3c 58 3b b0 bd
       -0.008669417 -0.041325223 0.023680035 -0.08605069
000060 e4 b1 2e 3c f8 07 10 3d ea 3d 97 bd 08 e6 bf 3c
       0.01066253 0.03516385 -0.07384856 0.023425117
000070 ac ba 79 3c c0 53 20 bb 2f bb 28 ba e1 b6 72 38
       0.01524226 -0.0024463981 -0.0006436584 5.7867615e-05
000080 7b 9e b0 bd 0b 9a 96 39 4e ee a6 3d 97 6b dd 3c
       -0.08623978 0.00028725 0.08150922 0.027028842
000090 44 c6 80 3b b1 5c 39 3b b1 e2 83 be f1 ec 78 ba
       0.003929885 0.0028284008 -0.2575889 -0.0009495756
0000a0 6a 93 a3 ba 37 39 ec bd 5d 65 9f b9 7d c7 d3 3c
       -0.0012479846 -0.1153435 -0.00030402365 0.02585196
0000b0 3f 60 52 be a3 f6 0b 3d d9 14 34 3a 02 8c d8 bc
       -0.20544527 0.034170758 0.00068695616 -0.026433948
0000c0 aa 7d 5a 3a 00 c4 53 ba b0 8d 1f 3d 5b 7a 46 3a
       0.00083347654 -0.00080782175 0.038953483 0.0007571333
0000d0 bb 85 64 be c6 ed c8 ba dd c5 5b 3e 24 52 c5 bb
       -0.22316639 -0.0015329651 0.21462198 -0.006021755
0000e0 40 51 8f 3b ae 4c 06 ba 71 a7 0b 3d f1 09 07 3b
       0.0043736994 -0.00051231205 0.03409523 0.002060529
0000f0 2b e8 11 3c 9e 36 1a 3c 76 4d 11 bc 25 b2 c1 bc
       0.008905451 0.009412436 -0.008868566 -0.023644516
000100 53 1d c5 bc e4 db be 3c c1 ce 96 3a 70 48 0b 3d
       -0.024061834 0.023298211 0.0011505709 0.03400463
000110 73 60 df bd 55 5e 5c bc 32 df 13 bd b7 bf 8d ba
       -0.10907068 -0.013450225 -0.036101528 -0.0010814582
000120 3d aa e4 bc be 5e b5 3d 9a d1 62 3d b0 b5 b1 bd
       -0.027913207 0.08855961 0.055375673 -0.08677232
000130 9b 12 a1 3d 57 0a 3e bc 3d c6 22 bd a2 dd 99 3c
       0.07864877 -0.011599145 -0.039739836 0.01878244
000140 5a b4 1e 3d ca 68 17 3d 60 52 58 ba a2 fd 46 3d
       0.038746215 0.03696517 -0.0008252021 0.048581727
000150 ab 22 16 3d e8 d8 f5 3c b4 f8 d0 bb 64 ab a6 b8
       0.036654156 0.030010656 -0.006377304 -7.947421e-05
000160 64 1a 1f 3a 2e e4 2b bd 01 90 44 3d e1 0a 78 39
       0.0006069301 -0.041965656 0.047988895 0.00023655176
000170 c5 40 05 3b ac b9 70 3c 88 ad c1 3a e8 2c a3 b8
       0.0020332795 0.014692705 0.0014776448 -7.78081e-05
000180 6f b3 a1 3d 13 9b 22 bc eb b3 9c 3d 5b 74 24 3c
       0.07895552 -0.009924668 0.07651504 0.010037507
000190 05 ea 99 bd 54 33 92 3b ce 28 16 be 0f 99 3c 3c
       -0.07515339 0.004461685 -0.14664003 0.011511101
0001a0 ae e4 44 bd 86 18 e9 be 8c 93 79 ba 38 28 a7 3c
       -0.04806965 -0.45526522 -0.00095205824 0.02040492
0001b0 53 e5 71 3c 16 d6 1f be 83 0a 6b b7 27 01 59 3d
       0.014764148 -0.15609011 -1.4009539e-05 0.052979615
0001c0 d9 96 15 be 42 3f 10 bb c8 80 36 3e 5f c0 93 bd
       -0.14608325 -0.002201036 0.17822564 -0.07214426
0001d0 55 83 0a bd ef 71 c0 3a 59 d0 c7 bc c3 29 72 3a
       -0.033816654 0.0014682392 -0.02439134 0.00092377904
0001e0 aa b2 ff 39 33 09 ee 39 e6 ac 51 bd 08 9d be bc
       0.00048770505 0.0004540175 -0.05119028 -0.023268238
0001f0 1b 5b c5 b5 c1 82 73 bd 30 0c ef ba 57 ee d5 3c
       -1.4704159e-06 -0.05945087 -0.0018237885 0.026114626
000200 be 1b 6d ba 24 15 4b 3a d3 df 27 ba 4c 4d 8c 3a
       -0.00090449664 0.00077469856 -0.0006403897 0.0010704189
000210 c4 f0 f8 ba 35 06 81 39 b4 78 1d ba f4 69 b9 ba
       -0.0018992652 0.00024609422 -0.0006007061 -0.0014145956
000220 02 59 00 b9 f5 01 1a b9 10 18 1f 39 83 dd da 38
       -0.00012240189 -0.00014687314 0.00015172386 0.0001043631
000230 43 8a 8f 3a 76 30 ad 3a d1 4f a1 3a bb 62 84 b9
       0.0010951239 0.0013213295 0.0012307112 -0.00025250562
000240 0b b9 e5 38 0f 5f a5 b8 ed e8 49 b9 a7 60 b6 ba
       0.00010954038 -7.885519e-05 -0.00019255625 -0.0013914303
000250 4a 3f 5e ba 51 cd 7b ba e1 f6 7b 39 67 6c 3e 39
       -0.0008478059 -0.00096054847 0.00024029195 0.00018160195
000260 ac 5e 4e ba 91 78 09 ba 48 2a 54 3a 5e 12 58 b8
       -0.00078723836 -0.0005244101 0.00080934586 -5.151552e-05
000270 2b a2 a4 ba 6f f5 d7 b9 4d fc 29 ba f4 ad 42 b9
       -0.0012560537 -0.00041190858 -0.0006484434 -0.00018566084
000280 c3 6d 43 3a c9 97 c8 ba 31 5b fb b9 36 f5 82 ba
       0.00074550154 -0.0015304025 -0.00047942394 -0.0009991291
000290 7f 7d 8c ba 0e a2 a7 b7 9c dc 3d 3a 19 be 9f b8
       -0.0010718553 -1.9983414e-05 0.0007242651 -7.617119e-05
0002a0 dd 92 b8 39 2d 1f 95 ba d9 03 08 b7 9c 2b aa 3a
       0.00035204637 -0.0011377089 -8.1071275e-06 0.0012982967
0002b0 43 dd 52 ba 58 ea 1e ba e1 60 e4 38 82 68 03 3a
       -0.0008043835 -0.00060621416 0.00010889932 0.00050128263
0002c0 30 50 5c ba dd 8d 3b 38 39 97 a8 ba b4 58 64 ba
       -0.0008404283 4.4716395e-05 -0.0012862451 -0.00087107276
0002d0 a1 87 04 3a bd 84 a5 b9 bb 9c 8a 3a b4 3d c0 3a
       0.00050556107 -0.0003157015 0.0010575274 0.0014666826
0002e0 7d 75 7a b7 02 bd 78 ba 33 e4 9f ba 08 1e 63 39
       -1.4928516e-05 -0.00094886136 -0.0012198746 0.00021659594
0002f0 9f 1f 92 ba 9f 0d f1 38 93 6d 0b bb 2f be bd ba
       -0.001114834 0.00011494313 -0.0021275028 -0.0014476235
000300 8c 9a 66 b9 be 48 8b ba 3d cf 03 bb 71 9b 78 ba
       -0.00021992082 -0.0010626537 -0.0020112537 -0.0009483612
000310 f9 d3 dc b7 52 8d d7 39 b2 f2 78 39 f1 3d 2f ba
       -2.6324751e-05 0.00041113287 0.00023741534 -0.000668495
000320 d8 c7 9f ba f2 02 69 ba db db b8 ba 7a 1e 6b 3a
       -0.0012190295 -0.00088886835 -0.0014103608 0.000896908
000330 30 c7 d4 ba f9 8d 37 b9 d3 65 40 b9 f5 ff 18 3a
       -0.0016233679 -0.00017505129 -0.0001834848 0.00058364804
000340 7b 23 f6 39 a6 5f 81 ba 69 29 a7 b9 df 52 39 38
       0.0004694721 -0.0009870424 -0.00031883575 4.4184617e-05
000350 64 25 dc ba 78 cf 76 3a d6 bc 7a ba 97 40 0e 3a
       -0.0016795811 0.00094150705 -0.0009564882 0.0005426495
000360 8f 2a 24 3a a7 a0 f6 b9 2e f1 39 3a 94 90 7b 3a
       0.0006262445 -0.00047040472 0.00070931285 0.0009596434
000370 9e 6e 74 b9 80 22 5e ba f0 53 ed 39 f1 98 43 b9
       -0.00023310861 -0.0008473769 0.000452667 -0.00018653624
000380 0b 85 fd b9 fa 2b 19 3b c0 63 00 ba a4 11 7d ba
       -0.00048355045 0.002337216 -0.00048976764 -0.0009653813
000390 78 5c 67 ba 93 69 2e 39 0e 5c 05 3a f3 4c 3d 3a
       -0.00088257296 0.00016633263 0.00050872646 0.0007221244
0003a0 cd ae 47 39 1e e2 73 b9 02 42 1b 3a d1 a2 98 b9
       0.00019043237 -0.00023258521 0.00059226167 -0.00029113007
0003b0 32 91 ef ba 19 f4 9e 39 69 f0 45 b6 c2 b8 01 3a
       -0.0018277525 0.00030317975 -2.9495225e-06 0.00049484905
0003c0 d1 d9 1d bb 1d 52 db 39 30 22 6e ba a7 33 bd ba
       -0.0024086128 0.00041832114 -0.0009084074 -0.0014434949
0003d0 e8 01 01 3a e5 77 ce 39 1e f2 92 39 15 2f 3d b9
       0.00049212435 0.0003938071 0.0002802768 -0.00018041984
0003e0 c9 0a b1 ba 01 62 e9 3a c1 6a a3 ba 4a 74 80 ba
       -0.0013507243 0.0017805697 -0.0012467728 -0.0009800282
0003f0 56 2c 97 ba 04 7e 6a 3a 86 0e 8a ba 08 e0 c0 3a
       -0.0011533599 0.00089451694 -0.0010532893 0.0014715204

net.2.bias f4 [128]
000000 b9 d8 43 3d fa da 4c bb 32 0a 66 3c 31 47 2b bb
       0.047814105 -0.003125845 0.014040517 -0.0026134963
000010 57 56 4d 3c b8 4d 3f 3d 0a 00 6d bb 95 95 5e 3c
       0.012532792 0.046704978 -0.0036163353 0.013585468
000020 df 48 f2 ba 26 4a 1d ba d2 b7 88 3b bc 0a 1d ba
       -0.0018484852 -0.00060001237 0.0041723037 -0.0005990674
000030 ca ea 03 3c 35 f1 55 bb 08 60 76 3c 58 ae 66 3c
       0.008051584 -0.0032644991 0.015037544 0.014079653
000040 4e c4 38 3d fb 29 82 3c ad 2e 97 3c 9c 2d 38 bb
       0.045109086 0.015889158 0.018454874 -0.0028103357
000050 90 b4 2b 3c c3 95 81 3c f0 41 22 bb de 61 94 3c
       0.010480061 0.015818482 -0.002475854 0.018113073
000060 c7 78 44 3d 92 e7 ac 3c e0 fd 72 bb 04 7a 28 bb
       0.047966745 0.021106515 -0.003707759 -0.0025707493
000070 9f e4 1c ba 89 54 ea 3c 1e 59 1c ba 64 be 0f 3c
       -0.0005984995 0.028604763 -0.0005964207 0.00877342
000080 17 34 30 3d 26 02 1d ba aa f3 97 bb 30 d7 e0 3c
       0.043018427 -0.0005989395 -0.0046372013 0.02744636
000090 7d 01 21 bc 34 40 4c bb 1e 33 2d bb e8 2c 8f 3c
       -0.009827015 -0.0031166198 -0.0026428173 0.017477468
0000a0 0a fa 8d 3c b1 98 95 bd d1 4c 3b bb 85 5a 5d bb
       0.017331142 -0.07304514 -0.0028579722 -0.0033775878
0000b0 bd c1 72 3c 33 6e 5f 3c cf 9b 71 bb 4c c2 43 bb
       0.014816699 0.013637113 -0.003686655 -0.0029870449
0000c0 27 95 2f bb 35 49 43 3d 83 86 bf bb df 09 76 3c
       -0.0026791783 0.047677238 -0.0058448925 0.015017002
0000d0 31 58 46 3e 87 ec 36 3d b8 39 1b ba 5d b6 34 3c
       0.1936958 0.044659164 -0.00059213815 0.011029807
0000e0 d8 d5 79 bb 16 7c 5b bb 4d e3 bd ba 89 04 02 3d
       -0.0038121846 -0.003349071 -0.0014487297 0.031742606
0000f0 d5 00 0f bb b9 4a f8 ba 73 02 80 3c 5b 19 3f 3d
       -0.0021820564 -0.0018943168 0.015626168 0.04665504
000100 31 49 02 bb 69 73 5d bb 9e 07 1d ba f0 b8 50 3d
       -0.0019880051 -0.0033790714 -0.000599021 0.05095762
000110 20 b5 ac 3b 5e 69 52 3d ef 92 4e 3d 3c 20 40 bb
       0.005270615 0.051370017 0.050433096 -0.0029316088
000120 a3 a8 5d 3c 2b ae 9a 3c 5d 94 3f bb 4b 14 28 3d
       0.013528976 0.018881878 -0.0029232719 0.041034978
000130 f5 a6 42 3d d3 b7 1b ba f6 4a 1d ba fe 16 52 3d
       0.047522504 -0.00059401727 -0.0006000245 0.05129146
000140 d4 2f 50 bb c2 61 1c ba 7b f7 44 3d 57 59 1c ba
       -0.003176679 -0.0005965495 0.04808758 -0.00059642404
000150 00 b2 80 bb 1a de 80 bb 5d fd 1a bb 43 8d 95 3c
       -0.0039274693 -0.0039327266 -0.0023649551 0.018255835
000160 e7 ba c9 ba 0c bc 92 ba d1 6f 57 3c f2 a5 bf 3c
       -0.0015390784 -0.0011194958 0.013149218 0.023394559
000170 2f 5b 24 bb c0 93 03 3d ec 9b 5e 3c ac 9b bc ba
       -0.0025078764 0.032123327 0.013586979 -0.0014389656
000180 c9 7a 61 bb 97 b3 92 ba e6 e5 e7 3c 78 fc 58 bb
       -0.003440546 -0.0011192438 0.028307866 -0.0033109467
000190 2b 55 a2 3c de 3c 6d bb c7 a5 01 ba f5 c4 63 bb
       0.019816002 -0.003619961 -0.0004945662 -0.0034754847
0001a0 4b 31 3f 3d a7 d5 e3 3c 25 e7 51 bb 50 31 59 bb
       0.04667787 0.027811838 -0.0032028642 -0.0033140965
0001b0 58 ee 0e 3c eb a7 9b ba 80 3a 10 ba 36 df 72 bb
       0.008723818 -0.0011875605 -0.0005501881 -0.0037059314
0001c0 5a 11 1d ba fb 8a 1c ba 1a 78 49 bb e7 4f 46 bb
       -0.00059916603 -0.00059716374 -0.0030741752 -0.0030260028
0001d0 46 35 47 bb 5d fd 3d 3d d1 46 d3 3c f6 68 d9 3c
       -0.0030396744 0.046384204 0.025790604 0.026539307
0001e0 05 d3 80 3d b5 1f 1d ba 2e 0f 49 3d 2f fd 1c ba
       0.06290249 -0.00059937994 0.049086742 -0.0005988655
0001f0 f7 62 63 3c 64 1d 1f bb 6d ca a2 3b 26 a7 2d 3c
       0.0138785755 -0.0024278993 0.0049679787 0.010598933

net.4.weight f4 [64, 128]
000000 b3 b4 85 3c af 9c 0b 3a 79 b9 d7 be 88 a6 d9 38
       0.016321516 0.0005325777 -0.42133692 0.00010378385
000010 21 27 07 bf 5f ce d9 bb fb f9 01 ba d5 26 82 bc
       -0.5279408 -0.006646916 -0.00049582095 -0.015887657
000020 09 0d a8 b9 0d ba 16 3a 1c ee 0e bf 95 d9 ce 39
       -0.0003205317 0.00057497696 -0.55832076 0.00039453493
000030 06 7d 52 bd 1c f5 62 ba 8f 4f b0 bc 5b 48 59 bc
       -0.051388763 -0.000865774 -0.021522311 -0.01326188
000040 70 58 90 bd 00 22 ca bc c4 10 13 bf f0 e2 2d 3a
       -0.07048118 -0.024674416 -0.5744746 0.00066332426
000050 59 41 80 bd 33 01 38 bb 49 20 3d ba 10 1f 27 bf
       -0.06262464 -0.0028076887 -0.00072145887 -0.6528177
000060 b9 04 ca bc 77 28 05 bf 7a 0b eb ba f1 d9 40 3a
       -0.024660455 -0.5201487 -0.0017932497 0.00073566946
000070 ff 83 ba b9 76 45 b0 be 3f 56 8d 39 0e a1 b2 3d
       -0.0003557503 -0.34427994 0.00026957874 0.08722125
000080 61 fe 70 bd d4 f3 65 b9 5f 37 27 3a 68 e1 fe be
       -0.058836345 -0.00021929975 0.00063787954 -0.49781346
000090 db 6e 3c bd 72 14 55 bb 95 8a a3 3a e3 d4 da bc
       -0.046004158 -0.0032513407 0.0012477214 -0.02671284
0000a0 86 5e 09 bf 1f b1 da bb 3a 2a d8 36 34 aa 7c 3b
       -0.53659856 -0.0066739465 6.4422175e-06 0.0038553597
0000b0 96 c8 ca be 5a b1 ac bd dd 50 f9 b9 a7 eb d0 b9
       -0.3960616 -0.084322646 -0.0004755323 -0.00039848426
0000c0 b5 0e fc 37 4f ca 0d 3d 28 8a d7 39 42 9d 9d bc
       3.004759e-05 0.034616765 0.0004111093 -0.019240025
0000d0 1f 32 13 bc 1d 8c 21 be e0 55 8d b9 33 cb 80 be
       -0.008984118 -0.15776105 -0.00026957598 -0.2515503
0000e0 99 09 92 b9 89 9a cb ba 2e 93 49 be b1 b4 f9 be
       -0.0002785444 -0.0015533726 -0.19685051 -0.4877067
0000f0 8e 7d 04 3b b1 47 16 b9 04 57 9c bc dc 91 3e b7
       0.0020216438 -0.00014331822 -0.019084461 -1.1358843e-05
000100 30 64 ae 3a 72 bb 0f ba ec c1 98 ba 89 c4 92 be
       0.0013305005 -0.00054829486 -0.0011654473 -0.2866557
000110 d6 0b 13 bf 79 15 d1 3c 44 de d2 3c 9c d9 27 3a
       -0.57439935 0.025522934 0.02574075 0.0006402971
000120 2b 7b 85 bc f9 ed ca bb 27 11 1e 3b af 7b 52 be
       -0.016294083 -0.0061929193 0.002411911 -0.20554994
000130 0e 30 3e 3d 67 37 0a 3a f2 ac a0 3a 24 80 80 3d
       0.046432547 0.0005272538 0.0012258573 0.06274441
000140 1b f0 08 ba 90 57 3a b9 b3 f3 bc bc 6f 39 9d 38
       -0.0005223767 -0.00017770962 -0.023065424 7.497041e-05
000150 b8 c0 b6 ba cf 54 86 3b 64 b9 a3 ba 3f be 1f bf
       -0.0013942933 0.0040994654 -0.0012491164 -0.6239967
000160 73 88 95 ba 24 17 4d b8 12 d4 e0 be a3 a9 bc be
       -0.0011408463 -4.889736e-05 -0.43911797 -0.36848173
000170 17 81 00 3a 0a ed c6 be 5d 5a 71 bc ec a9 ed ba
       0.00049020484 -0.3885272 -0.014731017 -0.0018132306
000180 f8 ea 7e 3b cf a4 fb b8 40 04 1f bf a1 0d 88 39
       0.0038897377 -0.00011999311 -0.6211586 0.00025950096
000190 ed c1 0c bf cf 13 bf ba 75 49 0f b9 6f 65 e7 38
       -0.5498341 -0.0014578047 -0.00013664908 0.00011033832
0001a0 6a b7 0d bb cc 08 83 be d5 de 32 3a 89 f3 38 3a
       -0.0021624216 -0.2559265 0.00068233657 0.00070553325
0001b0 32 22 18 3c 56 5e 51 3a 50 c5 67 39 a6 13 08 ba
       0.009285497 0.00079867744 0.00022103381 -0.0005190916
0001c0 e7 b1 cd 39 55 a1 27 ba ce a6 02 3e 19 09 1d bb
       0.00039233195 -0.0006394585 0.12758943 -0.0023961721
0001d0 f9 aa f5 38 79 17 a0 bb 1f e2 88 be 6b f0 84 be
       0.000117143565 -0.0048856107 -0.26735017 -0.25964674
0001e0 62 e3 19 be d4 f4 1c 3a b7 55 14 3c 9a e4 9a ba
       -0.15028146 0.000598741 0.009053639 -0.0011817396
0001f0 f8 dd 1c bf f3 4b 00 3a 70 47 a8 bc e2 9a 6a bd
       -0.612762 0.000489413 -0.020541877 -0.057276614
000200 03 24 c2 bd d2 fa 87 39 17 8a 35 bf 30 e7 d1 b9
       -0.09479525 0.00025936082 -0.70913833 -0.00040035835
000210 9f f0 90 bf d2 7c d2 bd 0b 4d c3 39 c4 c3 9f bd
       -1.1323432 -0.10277714 0.000372507 -0.07801011
000220 56 fb 06 3a 14 07 7d ba 0f 11 98 bf 51 fc 04 ba
       0.00051491463 -0.0009652239 -1.1880206 -0.00050729985
000230 e9 a2 99 be c8 86 06 bb 0f 37 a3 bd 64 69 96 bd
       -0.30007103 -0.0020527113 -0.07969486 -0.073443204
000240 de 45 e4 bd 12 9c a8 bd 26 7f 3a bf 07 14 c9 ba
       -0.111461386 -0.08232893 -0.72850263 -0.0015341052
000250 f6 b8 95 be 72 dc 44 be 4a 2c 10 3b 90 73 80 bf
       -0.29242676 -0.19224718 0.0021999055 -1.0035267
000260 cb cd d9 bd 15 5e 30 bf 07 34 27 3a 97 dc d2 3a
       -0.10634955 -0.6889356 0.0006378297 0.0016087469
000270 cd b1 c2 3a 07 4f da be 05 b7 a8 ba 2c 42 47 bd
       0.0014854014 -0.42638418 -0.0012871927 -0.04864709
000280 11 e3 df bd 9b df 1a 39 9e e4 d7 ba 85 9f 71 be
       -0.10931981 0.00014769884 -0.0016471331 -0.23596008
000290 c7 c4 59 be 2f b6 0f bb d3 31 14 3b 96 70 89 be
       -0.21266471 -0.0021928658 0.0022612705 -0.2684371
0002a0 a7 d9 6e bf 3a c2 63 be dc 1a ef 39 8c 15 31 3b
       -0.9330086 -0.2224206 0.00045605644 0.00270209
0002b0 c1 8c 89 be 86 16 ea be b4 9b 1a 3a 40 9e 41 3a
       -0.268652 -0.4572031 0.00058978354 0.0007385947
0002c0 f7 3b 85 3a 46 53 d4 bd 8f 33 9a ba 6b 2a 98 bd
       0.0010164966 -0.10367446 -0.0011764633 -0.074299656
0002d0 9c 28 e2 3d 06 ff 72 be f2 a4 1c 3a 93 39 7e be
       0.11042902 -0.23730096 0.00059755065 -0.2482665
0002e0 48 98 ea 39 29 12 b5 3a 46 d0 06 bf 0a 34 8a be
       0.00044745416 0.0013814616 -0.5266155 -0.26992828
0002f0 65 70 0c bb e1 73 43 37 df e5 9a bd 66 73 d3 bd
       -0.0021429297 1.1649886e-05 -0.07563376 -0.10324745
000300 cd 6b 7f 39 26 df 7e b9 f5 d9 f3 39 b2 9b b0 be
       0.00024358854 -0.00024306457 0.00046510962 -0.34493786
000310 f8 bc 6e bf 09 5f b4 bd dc 30 b8 bd ca 35 7b 3a
       -0.93257093 -0.08807189 -0.08993694 0.00095829053
000320 a1 87 95 bd 77 fa 46 be 06 a0 c1 3a 65 95 a6 be
       -0.0730126 -0.19431482 0.0014772422 -0.32535854
000330 d1 2b a8 bd ec 49 10 3a 20 2a b8 ba e4 8a a2 bd
       -0.08211482 0.0005504179 -0.001405064 -0.079366475
000340 34 fa 16 b9 ca 2c 6d ba 9e 52 dc bd 2d 90 1b ba
       -0.00014398323 -0.00090475066 -0.107579455 -0.00059342646
000350 ec 65 a1 b7 de c0 df 3a c4 68 2f 3a b1 47 80 bf
       -1.9240157e-05 0.0017071029 0.00066913315 -1.0021878
000360 05 4d a7 3a 4a ed 2b 3a 24 7f 38 bf 2c 14 2c bf
       0.0012764042 0.0006558491 -0.72069 -0.6721828
000370 68 f5 a9 ba 4b 22 0d bf 64 8d 9b bd 58 2d a7 ba
       -0.0012966814 -0.5513045 -0.075953275 -0.0012754602
000380 ac fa 06 3b 1b 31 c3 38 dd 13 8d be a0 a7 af 39
       0.002059619 9.307471e-05 -0.27554217 0.0003350349
000390 ff e4 34 bf 0c 2d 34 ba 52 55 34 bb 61 1a e7 39
       -0.7066192 -0.00068731676 -0.0027516675 0.00044079407
0003a0 1d fe d4 bd 0a ea af be ff e8 78 3a 38 c0 e8 3a
       -0.10400031 -0.34358245 0.00094951683 0.0017757481
0003b0 49 86 9e bd 9e 0f 2e ba 3a 97 ea b9 0e 9d ba 39
       -0.077404566 -0.00066399004 -0.0004474463 0.000355937
0003c0 d7 a0 00 3a f4 07 ad 3a d0 7f 2c bd 4d 10 3a bb
       0.00049067795 0.0013201223 -0.04211408 -0.0028391064
0003d0 b9 ce 2a 3a e3 c6 cc bd c5 74 a2 be 51 5e 9d be
       0.00065157894 -0.09998872 -0.31729713 -0.3073602
0003e0 cb 68 74 be c4 ee 80 3a 13 9a cb bd bf fc 72 3a
       -0.238681 0.0009836783 -0.09941497 0.00092692295
0003f0 b3 79 7d bf aa e6 95 39 80 92 90 be 8b a6 74 be
       -0.99013823 0.00028591353 -0.2823677 -0.23891656

net.4.bias f4 [64]
000000 56 2d be bc 7b 94 e7 3d 5d ca 17 3e da c0 d4 bd
       -0.023214977 0.11307617 0.14823289 -0.10388346
000010 a3 8a 3b bb 3d 21 a9 bd 07 72 02 3d e4 91 29 bc
       -0.002861657 -0.08258293 0.031847026 -0.010349724
000020 5f e2 3e be 4a 2e 93 3d ac 3b d3 3d c9 40 b5 bd
       -0.18641041 0.07186563 0.10314116 -0.088502474
000030 77 6e 7b bd fb 0c ad bd b9 a4 73 3d 03 3d 02 3e
       -0.061384644 -0.084497415 0.059483264 0.12718587
000040 25 b7 1c be ea fe fb 3c 20 ec 5f bc 44 76 34 bd
       -0.15304239 0.030761201 -0.013667136 -0.0440581
000050 df 86 0c 3c 8f 64 c5 3c f2 54 dd 3d 29 c6 42 bd
       0.008577078 0.024095802 0.10807218 -0.04755226
000060 5d c0 17 bc ce ac 47 3d 43 b7 ac bc 51 2b 05 3e
       -0.009262172 0.048748784 -0.02108348 0.13004805
000070 ce ce 87 3d ba 8e be bd cc 63 f3 3d a1 40 82 bd
       0.06631242 -0.09304567 0.11884269 -0.06359983
000080 87 7e d8 bc 77 54 aa 3d d3 63 4d 3d 22 03 7d 3e
       -0.02642752 0.08316892 0.050144028 0.24708226
000090 90 ea d8 3d 25 b9 1b bd c1 1b d3 ba dc 90 09 be
       0.10591614 -0.038018364 -0.0016106294 -0.13434166
0000a0 35 4d a9 bd 03 37 e5 3c 47 94 9a bc db 73 f5 3c
       -0.08266679 0.027980333 -0.018869532 0.02996247
0000b0 80 6d 50 bd 07 7b 3b bd c1 5d f5 3d 10 64 d7 3c
       -0.050885677 -0.045771625 0.11980773 0.02629283
0000c0 5c fa 62 3e 83 4d f3 bc ed 3e 22 bc 31 ae 03 3e
       0.22165817 -0.029700046 -0.009902698 0.12859417
0000d0 26 58 76 3d ad 0d 84 3d 26 75 2b be 6c 42 71 3d
       0.06014266 0.06447921 -0.16743907 0.058901235
0000e0 78 f0 95 bd f0 93 c1 bb ef 53 6b 3c b4 92 5c 3d
       -0.073212564 -0.005907528 0.014363273 0.053850845
0000f0 2b 5b 21 3e bf 81 03 be 27 57 9b bd f5 c8 b1 bd
       0.15757434 -0.12842463 -0.07584982 -0.08680908

mean_head.weight f4 [1, 64]
000000 e7 8d 22 3e 8b 25 2f 3f ee aa 98 3a bd 71 2a bf
       0.15874444 0.6841666 0.0011647621 -0.665798
000010 c4 26 4f 3e c7 bd 0c bf d1 63 9b 3e bf 00 3e 3e
       0.20229632 -0.5497708 0.3034959 0.18554972
000020 3a d9 07 bd 73 d9 a5 bd 8d a4 2a 3f 9b 80 16 bf
       -0.033166148 -0.08098116 0.66657335 -0.58789986
000030 7a 85 db be d1 f6 11 bf 87 24 c8 bd 2d 17 29 3f
       -0.42875272 -0.57017237 -0.09772592 0.6605099
000040 02 cf a9 bb 8d ad 97 3e 53 90 79 be 7c db b1 be
       -0.005182148 0.29624596 -0.24371462 -0.34737766
000050 46 d2 6c 3e d6 78 8c 3e 3f 1b 2e 3f ff d9 bb be
       0.23127088 0.2743594 0.68010324 -0.36689755
000060 bc 11 6f be 3b 30 ea bd 23 4a 88 be b6 a6 7e bc
       -0.23346609 -0.114349805 -0.26619062 -0.015542677
000070 44 f5 e7 3e ca 81 62 3d d6 39 2e 3f cb 9c e1 be
       0.4530431 0.055299558 0.68057 -0.44064936
000080 c0 7d 1c 3e 12 e9 0f 3f cc 82 c1 3e b4 e6 a6 3d
       0.15282345 0.5621501 0.37795103 0.08149472
000090 99 3f 22 bd ac f2 a5 be 6c 32 52 3e bd b5 2a 3c
       -0.039611433 -0.32411706 0.20527047 0.010419306
0000a0 7a 75 0d bf 47 b6 19 be 2c f6 84 be 59 1c 97 3e
       -0.5525738 -0.1501094 -0.25969064 0.29513815
0000b0 99 ea e3 3d ca 6b b6 be 33 3a d3 bc 8f 5b 1c be
       0.1112873 -0.35629112 -0.025784587 -0.15269302
0000c0 80 93 7a 3d 45 fb 16 3e fe b4 6f be ca e4 89 bc
       0.061175823 0.14744289 -0.23408887 -0.016832728
0000d0 8d 8e d7 3e b4 e3 b9 bd 45 9d 91 bc 35 83 cb bd
       0.42100945 -0.09076634 -0.017775187 -0.09937135
0000e0 ed df 9f 3d 80 85 67 be 41 83 7d 3e 42 f9 d9 bd
       0.07806382 -0.2260952 0.247571 -0.10643245
0000f0 b9 e4 19 3c fc 2b 28 bf 0d 91 04 bf cf 21 7c 3d
       0.009392911 -0.65692115 -0.5178383 0.06155568

log_std_head.weight f4 [1, 64]
000000 4f af cf 3d ca 9f b3 bd 56 b3 37 be d0 a9 9f 3d
       0.10140859 -0.08770712 -0.17939505 0.07796061
000010 3d ce 9c 3d 53 93 2f 3d 63 69 ff 3c 63 33 b1 3d
       0.07656524 0.04286511 0.031178182 0.08652379
000020 cb 1b 3e 3e 86 09 1c be 59 58 95 bd 80 2d 52 3d
       0.1856529 -0.15238008 -0.072922416 0.051312923
000030 e4 0d 31 3c 09 29 35 3d e5 02 10 be 56 78 e4 bd
       0.010806534 0.044228587 -0.14063604 -0.11155765
000040 d1 24 39 3e 89 9a ff 3c 9f 22 5a bd 77 02 68 bc
       0.1808045 0.031201618 -0.053255673 -0.014160744
000050 0b c8 75 3d 8c c6 28 3d 85 d0 a7 bd d7 50 11 bc
       0.06000523 0.041204974 -0.08194069 -0.008869371
000060 f1 70 7c bd c4 55 06 be 76 18 37 bd b1 61 34 be
       -0.061631147 -0.13118654 -0.044701062 -0.17615391
000070 e1 48 8e bc 32 be 28 3e 4d 85 c7 bd b2 e6 50 3c
       -0.017368736 0.16478804 -0.09742222 0.012750315
000080 9c 46 db 3d 33 f2 2f bd bf 0d c9 3b 12 f5 4b be
       0.10706827 -0.04295559 0.006135672 -0.19917706
000090 d5 e1 2c be fd 03 b3 bc 5d c4 96 3d af 2b 36 3e
       -0.16883023 -0.021852488 0.07361672 0.17790101
0000a0 15 23 35 3d 20 a6 dc bd ad e8 40 bd 9f 24 08 3d
       0.04422291 -0.10773873 -0.047096897 0.03323805
0000b0 da 6b 09 3e 48 43 44 bc 6f 1c 34 be a5 ed d8 bd
       0.13420048 -0.011978932 -0.17588972 -0.10592202
0000c0 ca 6a 45 be 08 1b e1 3d 2d 79 7c bd ec 9e 33 be
       -0.19279018 0.10991484 -0.061639 -0.17541093
0000d0 b5 8d 25 bc 47 6c 16 be a6 3e 3b 3e 37 80 10 be
       -0.010104586 -0.14689742 0.18285617 -0.1411141
0000e0 f9 65 1b 3e 6e fc 85 bd 86 2e 58 3d 67 54 0c be
       0.15175618 -0.06542288 0.052778743 -0.13704072
0000f0 ab f5 38 be 58 55 e4 3d da a0 0c 3d 43 32 25 3e
       -0.18062465 0.111490905 0.034333088 0.16132455
