rgz/checkpoint_100.pth (torch, 329845 bytes, 22 tensors)

net.0.weight f4 [128, 13]
0	0x3b05fc7b	0.002044468
1	0x38b1dc4c	8.481051e-05
2	0xbd1231ea	-0.035692133
3	0xbdaa7fe7	-0.08325177
4	0x3c73d755	0.014882882
5	0xbcaed339	-0.021340953
6	0xbc3e6ec7	-0.011623091
7	0x3c33dfbb	0.0109786345
8	0x3d169198	0.036759943
9	0x3bb1d1e4	0.0054266322
10	0x3c852508	0.01625301
11	0x3b4078f9	0.002936898
12	0x3cc0d552	0.023539219
13	0x3c88a7bb	0.016681543
14	0x3c81892f	0.015812485
15	0xbd68caae	-0.056833915
16	0xbd3bb800	-0.045829773
17	0x3cef102d	0.029182518
18	0xbc5479d9	-0.012968504
19	0xbccc2b33	-0.024922943
20	0x3b66aa27	0.0035196634
21	0x3ce3a83f	0.027790187
22	0x3c40eaab	0.011774699
23	0xbc06da15	-0.008230706
24	0xbd337141	-0.04380918
25	0x3ac271ce	0.0014834942
26	0x3c96dfad	0.018417204
27	0x3c909a46	0.017651688
28	0xbcdcf77a	-0.026973475
29	0xbd21a767	-0.039466288
30	0xbbcde571	-0.006283455
31	0xbc4cba73	-0.012495625
32	0xbc8c3525	-0.017115185
33	0x3bcae805	0.0061922097
34	0x3ce888aa	0.028385479
35	0x3c29af98	0.010356806
36	0x3c1c20c0	0.009529293
37	0xbd203bee	-0.039119653
38	0x3bb85ccf	0.005626298
39	0x39efb492	0.00045720168
40	0x39ac1d9e	0.00032828463
41	0xba4bad60	-0.00077696703
42	0xba43dab5	-0.00074712496
43	0x3a2ab19a	0.000651145
44	0x3a2a5905	0.00064982503
45	0xba902337	-0.0010996823
46	0xb98e642c	-0.00027158984
47	0xba3b891d	-0.00071539154
48	0xba3b5d24	-0.0007147363
49	0xba3d68b4	-0.000722538
50	0xba9c66ce	-0.0011932494
51	0xbabad201	-0.001425326
52	0x3c668e24	0.014071975
53	0x3c629e7a	0.013831729
54	0xbce58dab	-0.028021654
55	0xbd43fb34	-0.047846988
56	0xbb93f723	-0.004515545
57	0xbc83f0ea	-0.016106088
58	0xbcad2138	-0.021134004
59	0x3b766064	0.0037594074
60	0x3d07ae61	0.033125285
61	0x3b848606	0.004044297
62	0x3c2d3f21	0.010574133
63	0xbcb4de89	-0.02207877
64	0x3c09bc1a	0.008406663
65	0x3c960c89	0.018316524
66	0x3c9054c4	0.017618544
67	0xbd0a2948	-0.033730775
68	0xbceb19b7	-0.028698785
69	0xba81e98e	-0.0009911524
70	0xbc519a51	-0.01279314
71	0xbc716a67	-0.014734841
72	0x3bf5e841	0.0075044935
73	0x3ccb57e3	0.024822181
74	0x3be2d36f	0.0069221775
75	0xbaa9f008	-0.0012965212
76	0xbd38b85d	-0.045097698
77	0x3b1cd270	0.0023929141
78	0xb967b00d	-0.00022095461
79	0xb92ed53c	-0.00016673369
80	0xb9a511be	-0.0003148447
81	0xba30326a	-0.00067213795
82	0x39b60b4f	0.0003472217
83	0xba23f1be	-0.0006253979
84	0xba4ee601	-0.00078925496
85	0xbafcb289	-0.0019279282
86	0xbb074311	-0.002063934
87	0xba63e7f2	-0.00086939253
88	0x3a6af2ce	0.00089625723
89	0x3a4678f8	0.00075711263
90	0xb97d4458	-0.0002415342
91	0xb9861b21	-0.00025578684
92	0x39ff8318	0.00048735063
93	0xbd09144c	-0.033466622
94	0xbda2e46a	-0.07953723
95	0x3c629948	0.01383049
96	0xbcc32495	-0.023821155
97	0xbc467c81	-0.012114645
98	0x3c1f8703	0.009736779
99	0x3d19be49	0.037534986
100	0x3b9aa65b	0.004719538
101	0x3c8db7a8	0.017299488
102	0x3b134329	0.002247045
103	0x3cb46fde	0.022025999
104	0x3d4ee11f	0.05050766
105	0x3d4b0dc8	0.04957369
106	0xbedef548	-0.4354651
107	0xbd9511e6	-0.072788045
108	0x3af17a27	0.0018423245
109	0xbd04083e	-0.032234423
110	0xbc84c9ab	-0.016209444
111	0xbc33fb36	-0.010985186
112	0x3d1d71c4	0.038438573
113	0xbe2050df	-0.1565585
114	0x3c9039b9	0.01760565
115	0xbb3b592c	-0.0028587086
116	0xbd12c5af	-0.035833057
117	0x3a39e000	0.00070905685
118	0x3ab58b2e	0.0013850683
119	0x3b4832b8	0.003054781
120	0xbb108323	-0.002205082
121	0x3af069fa	0.001834213
122	0xbb0c53b2	-0.002141219
123	0xba606d1a	-0.0008561179
124	0xbb0bb894	-0.0021319734
125	0xbb310091	-0.0027008394
126	0x3ab434fb	0.00137487
127	0x3a0cffed	0.0005378712
128	0x3827b142	3.9980987e-05
129	0x3a2cf0b8	0.0006597149
130	0x3c590e26	0.013248002
131	0x3c788e66	0.015170669
132	0xbd5e16e2	-0.05422104
133	0xbd517c26	-0.051143788
134	0x3cdfb51f	0.027308045
135	0xbc437846	-0.011930531
136	0xbcdced0f	-0.026968507
137	0x3b16b2e0	0.0022994801
138	0x3ce45c6d	0.027876103
139	0x3c4fcbb3	0.012682843
140	0xbb7139fb	-0.003680824
141	0xbcdb53e0	-0.026773393
142	0x3b0c6795	0.0021424044
143	0xbae1a25f	-0.0017214528
144	0x3aa08742	0.0012247341
145	0x3a1b880d	0.0005933054
146	0xba860796	-0.001022565
147	0x39a856ef	0.00032108228
148	0xbacb693f	-0.0015519037
149	0x3a454825	0.0007525704
150	0xba694a78	-0.00088993413
151	0xba1af87a	-0.00059116597
152	0xba7723c2	-0.00094276306
153	0x38d8a70f	0.000103308
154	0x3aa425be	0.0012523455
155	0xbaad8cd7	-0.0013240826
156	0x3d47c1ac	0.048768684
157	0x3d495daf	0.04916161
158	0xbdf69618	-0.12040347
159	0xbc4f5372	-0.012654172
160	0x39f5f23a	0.00046910514
161	0xbcaf9da1	-0.021437468
162	0xbc522e50	-0.012828425
163	0xbc095e5b	-0.0083843125
164	0x3c4d7917	0.012541077
165	0xbd044d2e	-0.032300167
166	0x3c6385aa	0.013886848
167	0xbd0e982f	-0.034813102
168	0x3bad3d09	0.005286817
169	0x3a955430	0.0011392888
170	0x3a4bb85a	0.0007771306
171	0xb8541bd0	-5.057064e-05
172	0xb9e20400	-0.0004310906
173	0xb895dd5a	-7.1461036e-05
174	0x3838964a	4.4008986e-05
175	0x3a6bc251	0.0008993494
176	0x3954de4f	0.00020300712
177	0xbb39109b	-0.0028238657
178	0xba971ed1	-0.001152957
179	0x3a6bbdf8	0.0008992846
180	0x3a292a78	0.0006453167
181	0xbb19125a	-0.0023356886
182	0x3d015cbf	0.03158259
183	0x3d03a5be	0.032140486
184	0xbd3b1323	-0.045672547
185	0x3d55d738	0.0522072
186	0xbc9df6b2	-0.019282673
187	0x3cc3ae70	0.02388689
188	0x3bbefe22	0.005828635
189	0xbc279b6a	-0.010229925
190	0x3c53e5e9	0.012933233
191	0x3d178369	0.036990557
192	0x3c9058ab	0.017620405
193	0xbd02fb0e	-0.031977706
194	0x3c8c2601	0.017107965
195	0xbb005532	-0.001958203
196	0xbb1d0c71	-0.0023963714
197	0x3b3260d5	0.002721836
198	0xbbb75758	-0.005595129
199	0xb9a5d0af	-0.00031626734
200	0xbb12d495	-0.002240454
201	0xbb5dde71	-0.003385451
202	0xbaeddba9	-0.0018147129
203	0xbbb4f975	-0.0055229017
204	0xbaf694e2	-0.0018812681
205	0x3a3dd3f0	0.0007241359
206	0xba81b4dd	-0.000989582
207	0xbb1ad385	-0.002362461
208	0x3c56435e	0.013077585
209	0x3c431588	0.011906989
210	0xbd43b46e	-0.047779493
211	0xbd7a2af2	-0.061076112
212	0x3cfd8f65	0.030952165
213	0xbc84bd0b	-0.016203424
214	0xbcbab653	-0.022792017
215	0x3b4916f0	0.0030683838
216	0x3ce14981	0.02750087
217	0x3c27c249	0.010239192
218	0x3c1ae66e	0.009454353
219	0x3bc1fe18	0.005920183
220	0x3be90895	0.0071116188
221	0x3ceaf560	0.028681457
222	0x3cf87658	0.030329868
223	0xbd68ce5e	-0.056837432
224	0xbdc4795e	-0.095934615
225	0xbd38b292	-0.045092173
226	0xbd55ed8b	-0.05222849
227	0xbc932787	-0.017963184
228	0xbd1e76e4	-0.0386876
229	0x3d14c038	0.036316127
230	0xbb798ae9	-0.0038077182
231	0x3ae92d5f	0.0017790011
232	0xbcfad1b3	-0.03061757
233	0x3ba23e67	0.0049512866
234	0x3c85a0cb	0.016312024
235	0x3c8eb05c	0.01741808
236	0xbcd15a9e	-0.025555905
237	0xbd24f6af	-0.04027432
238	0xbbb2ded8	-0.005458694
239	0xbc470592	-0.012147324
240	0xbc972cbf	-0.018453954
241	0x3bb64ea9	0.0055635762
242	0x3cf25be8	0.02958484
243	0x3c21b3e1	0.009869547
244	0x3c108577	0.008820883
245	0xbd2ca291	-0.042147223
246	0x3b883abb	0.004157392
247	0x3d85798d	0.065173246
248	0x3d83eb87	0.06441408
249	0xbe206c65	-0.15666349
250	0xbc26c99b	-0.010179902
251	0x3b84048b	0.004028862
252	0xbcc00fed	-0.023445094
253	0xbc926919	-0.01787238
254	0xbc9d985f	-0.019237695
255	0x3c900a72	0.017583106

net.0.bias f4 [128]
0	0x3d165f8f	0.036712226
1	0x3ce96502	0.028490547
2	0x3ce7ac04	0.028280266
3	0xba995a14	-0.0011699819
4	0x3d03b75d	0.03215729
5	0x3cc945f8	0.024569497
6	0xba22f63f	-0.0006216503
7	0x3d18a8e4	0.03727044
8	0x3d20b0bb	0.039231043
9	0xbae15561	-0.0017191583
10	0x3ce56e88	0.028006807
11	0xba5a48fd	-0.0008326916
12	0x3c5bf940	0.013426125
13	0xbaccc712	-0.0015623292
14	0x3c56cde5	0.0131106125
15	0xbbbb453f	-0.005715042
16	0x3ce00377	0.027345402
17	0x3d166bda	0.03672395
18	0x3cf031e0	0.029320657
19	0x3c935df6	0.01798914
20	0x3cf4e4d4	0.02989427
21	0x3c6137cc	0.013746213
22	0x3cf7cef7	0.030250056
23	0x3d0c745c	0.034290656
24	0x3cce41e6	0.025177907
25	0x3c4e9f86	0.012611276
26	0x3ce9516f	0.028481213
27	0x3ce5fbbc	0.028074138
28	0x3c9a19da	0.018811155
29	0x3cfd1053	0.030891573
30	0xba740785	-0.0009308982
31	0x00000000	0.0
32	0x3cd6f2d0	0.026238829
33	0xba8bda70	-0.0010669958
34	0x3ca1ba5c	0.019742183
35	0x3cd5e18b	0.026108524
36	0x3d0e8f40	0.034804583
37	0x3c92c8f5	0.01791809
38	0x3d1a7e96	0.037718378
39	0xbaaae476	-0.0013038057
40	0xbb222299	-0.002473986
41	0x3ca6e4bc	0.02037274
42	0xbac3271b	-0.0014888974
43	0x3cf7dfab	0.03025802
44	0x3c367685	0.011136656
45	0x3cb98ff4	0.02265165
46	0xba02354d	-0.0004967049
47	0x3c47ad46	0.012187308
48	0xbaa41e65	-0.0012521265
49	0xba954a3b	-0.001138992
50	0x3c94af11	0.018149884
51	0xbb368512	-0.0027850312
52	0x3cd321c4	0.025772937
53	0xbb4a8f41	-0.003090814
54	0x3c87cb74	0.016576506
55	0x3c9c9f25	0.019118855
56	0x3d14a95f	0.036294337
57	0xbb884ad6	-0.0041593118
58	0x3c6baab8	0.014383964
59	0x3cf1e4f1	0.029528113
60	0x3ca37a2a	0.019955713
61	0x3cf7ac5d	0.030233556
62	0x3caa30b6	0.02077518
63	0x3d01cde8	0.031690508
64	0x3ce72aa4	0.028218575
65	0x3cde55cd	0.027140522
66	0xbb10d295	-0.0022098173
67	0x3c451a36	0.012030175
68	0x3ce58687	0.02801825
69	0x3c8d2bfd	0.01723289
70	0x3cdc4d52	0.026892338
71	0xbab53d6a	-0.0013827507
72	0x3cfbf9f0	0.030758828
73	0x3cc072a9	0.023492174
74	0x3cf019d4	0.02930919
75	0x3cc7f6f7	0.024409754
76	0x3d38d7b3	0.04512758
77	0x3cfe108f	0.031013755
78	0x3ca0bc54	0.019621052
79	0x3cc68ac0	0.024236083
80	0x3ce42eee	0.02785441
81	0x3ce73de2	0.02822775
82	0x3cea6727	0.02861364
83	0x3cdc2726	0.026874136
84	0x3c91cd8c	0.017798208
85	0x3cc74498	0.0243247
86	0x3c5d2cfc	0.013499495
87	0xbaef1fd0	-0.0018243734
88	0xbb0c2fa6	-0.0021390705
89	0x3cc4e82b	0.024036488
90	0x3c8d4eb2	0.017249439
91	0xbadf3306	-0.0017028756
92	0xbafb0bb8	-0.0019153273
93	0x3cc41af9	0.023938643
94	0xbb30510a	-0.0026903772
95	0xba71e71a	-0.0009227857
96	0x3d38807a	0.0450444
97	0x3ce276b6	0.027644496
98	0x3d3e9676	0.04653021
99	0x3cddf6af	0.027095167
100	0x3d05309c	0.03251706
101	0x3ce3e93e	0.02782118
102	0x3c890084	0.016723879
103	0x3cbfed5f	0.023428617
104	0x3d0155a9	0.031575833
105	0x3c91bd73	0.017790532
106	0xba61b410	-0.00086099
107	0x3cd8d7d6	0.026470106
108	0x3cf0297c	0.029316656
109	0x3c759ba0	0.014990717
110	0xba7c45bb	-0.0009623428
111	0x3d094120	0.033509374
112	0x3cca9442	0.024728898
113	0xbb4eeb85	-0.0031573486
114	0x3cb85dbe	0.022505637
115	0x3d21249e	0.03934156
116	0x3cf43e1c	0.029814772
117	0xbaeb3686	-0.0017945326
118	0x3cfe24ac	0.031023346
119	0xbb05269d	-0.0020317205
120	0x3d16e884	0.036842838
121	0x00000000	0.0
122	0x3cd90d14	0.026495494
123	0x3cd5a8c8	0.026081458
124	0xbb17d852	-0.0023169708
125	0x3ca532d0	0.02016583
126	0xbae27c5e	-0.0017279496
127	0x3c93162c	0.017954908

net.2.weight f4 [128, 128]
0	0x39e3633f	0.00043370758
1	0x3b9e410a	0.0048295306
2	0xb942eb33	-0.000185889
3	0x38e619ba	0.000109720466
4	0x3b935bde	0.0044970354
5	0xbb0eff9d	-0.0021819838
6	0x39d1baae	0.00040002674
7	0x3adf419b	0.0017033102
8	0xbee4b198	-0.44666743
9	0xb9b9d706	-0.00035446155
10	0x3bbaf4ce	0.0057054525
11	0x3b1a7de1	0.0023573565
12	0xbbf43717	-0.0074528563
13	0xbab4728b	-0.0013767047
14	0x3b6f325a	0.0036498518
15	0xb9081a02	-0.0001297966
16	0x3b4507b0	0.0030064397
17	0xbd0814f2	-0.0332231
18	0x3af33715	0.0018555844
19	0xbb780a52	-0.0037847948
20	0xb954307b	-0.00020235956
21	0x39c03e23	0.0003666739
22	0xbb047758	-0.0020212736
23	0xbcc2c96a	-0.023777682
24	0xbc25bcfa	-0.010115856
25	0xbb044b7f	-0.00201866
26	0x3a6a14a0	0.0008929465
27	0x3a193269	0.00058439985
28	0x3caaf61e	0.020869311
29	0x3b9b7f26	0.004745382
30	0xba28bb2f	-0.0006436584
31	0x3872b6e1	5.7867615e-05
32	0xbb89afa4	-0.004201846
33	0x39969a0b	0.00028725
34	0x3a4e9213	0.0007880043
35	0xbae9eb22	-0.0017846564
36	0x3ba2f102	0.004972578
37	0xb84a48ea	-4.822846e-05
38	0xbcd77b64	-0.026303954
39	0xba78ecf1	-0.0009495756
40	0xbaa3936a	-0.0012479846
41	0xbe188856	-0.14895758
42	0xb99f655d	-0.00030402365
43	0x3b847630	0.0040424094
44	0xbb583f8f	-0.0032996868
45	0x3c3cfbbe	0.011534629
46	0x3a3414d9	0.00068695616
47	0xba8f76f5	-0.0010945486
48	0x3a5a7daa	0.00083347654
49	0xba53c400	-0.00080782175
50	0x3c122155	0.00891908
51	0x3a467a5b	0.0007571333
52	0x39dd0884	0.0004215875
53	0xbac8edc6	-0.0015329651
54	0x396e3648	0.0002271767
55	0x3a2f3932	0.0006684243
56	0x3b811067	0.003938723
57	0xba064cae	-0.00051231205
58	0x3baacff3	0.0052127778
59	0x3b97479e	0.0046166917
60	0x3bb46b2f	0.0055059413
61	0x3b577689	0.003287705
62	0xbadef45c	-0.0017010081
63	0x3b98e0e7	0.0046654823
64	0x3b328cc4	0.0027244547
65	0xb9b774a7	-0.00034991393
66	0x3a96cec1	0.0011505709
67	0xb9dbf601	-0.00041954222
68	0x3aaabaf7	0.001302569
69	0xbaab662e	-0.0013076717
70	0x3b110968	0.002213085
71	0xba8dbfb7	-0.0010814582
72	0xbcf8e511	-0.030382665
73	0xb98a4cf0	-0.00026378734
74	0x3b7f4af1	0.003895458
75	0x3abbeb44	0.0014337082
76	0x3de43500	0.111429214
77	0x3b9f27c8	0.004857037
78	0xbb90dc48	-0.004420791
79	0x3b85b6b7	0.004080619
80	0x3b89c45b	0.0042043156
81	0x3b5a4c4d	0.003330964
82	0x3bde45cd	0.0067832232
83	0x3b08fb40	0.002090171
84	0x3be1fd9c	0.0068966877
85	0xbb09fec8	-0.0021056402
86	0x3b0e64d3	0.0021727576
87	0xb8a6ab64	-7.947421e-05
88	0x3ab8589b	0.0014064492
89	0xbac71b94	-0.0015190714
90	0xb8f35326	-0.000116026305
91	0x39780ae1	0.00023655176
92	0x3b0540c5	0.0020332795
93	0x3b569c45	0.0032746952
94	0x3ac1ad88	0.0014776448
95	0xb8a32ce8	-7.78081e-05
96	0x3de3534d	0.11099873
97	0xbb587f86	-0.0033034994
98	0x3de20023	0.11035182
99	0xba4b141d	-0.00077468326
100	0xbcd9550b	-0.02652981
101	0x3ba31909	0.0049773497
102	0xb998af2e	-0.00029122218
103	0xbb0e2020	-0.0021686628
104	0x3b9d28a1	0.004796103
105	0xbb9a679f	-0.0047120596
106	0xba79938c	-0.00095205824
107	0x3b7d78aa	0.0038676658
108	0xbc9b665c	-0.018969707
109	0xbc2263e5	-0.009911512
110	0xb76b0a83	-1.4009539e-05
111	0x3b99ffe1	0.0046996926
112	0xbbc2ce73	-0.005945021
113	0xbb103f42	-0.002201036
114	0xbb5e0226	-0.0033875792
115	0xbcc9d054	-0.024635471
116	0x3a9879c2	0.0011632966
117	0x3ac071ef	0.0014682392
118	0x3a826469	0.0009948137
119	0x3a7229c3	0.00092377904
120	0xbd17eeda	-0.03709302
121	0x39ee0933	0.0004540175
122	0xbb34aed4	-0.0027570026
123	0x3b420be6	0.0029609143
124	0xb5c55b1b	-1.4704159e-06
125	0xb88f4de6	-6.833281e-05
126	0xbaef0c30	-0.0018237885
127	0x3cf624c8	0.030046836
128	0xba6d1bbe	-0.00090449664
129	0x3a4b1524	0.00077469856
130	0xba27dfd3	-0.0006403897
131	0x3a8c4d4c	0.0010704189
132	0xbaf8f0c4	-0.0018992652
133	0x39810635	0.00024609422
134	0xba1d78b4	-0.0006007061
135	0xbab969f4	-0.0014145956
136	0xb9005902	-0.00012240189
137	0xb91a01f5	-0.00014687314
138	0x391f1810	0.00015172386
139	0x38dadd83	0.0001043631
140	0x3a8f8a43	0.0010951239
141	0x3aad3076	0.0013213295
142	0x3aa14fd1	0.0012307112
143	0xb98462bb	-0.00025250562
144	0x38e5b90b	0.00010954038
145	0xb8a55f0f	-7.885519e-05
146	0xb949e8ed	-0.00019255625
147	0xbab660a7	-0.0013914303
148	0xba5e3f4a	-0.0008478059
149	0xba7bcd51	-0.00096054847
150	0x397bf6e1	0.00024029195
151	0x393e6c67	0.00018160195
152	0xba4e5eac	-0.00078723836
153	0xba097891	-0.0005244101
154	0x3a542a48	0.00080934586
155	0xb858125e	-5.151552e-05
156	0xbaa4a22b	-0.0012560537
157	0xb9d7f56f	-0.00041190858
158	0xba29fc4d	-0.0006484434
159	0xb942adf4	-0.00018566084
160	0x3a436dc3	0.00074550154
161	0xbac897c9	-0.0015304025
162	0xb9fb5b31	-0.00047942394
163	0xba82f536	-0.0009991291
164	0xba8c7d7f	-0.0010718553
165	0xb7a7a20e	-1.9983414e-05
166	0x3a3ddc9c	0.0007242651
167	0xb89fbe19	-7.617119e-05
168	0x39b892dd	0.00035204637
169	0xba951f2d	-0.0011377089
170	0xb70803d9	-8.1071275e-06
171	0x3aaa2b9c	0.0012982967
172	0xba52dd43	-0.0008043835
173	0xba1eea58	-0.00060621416
174	0x38e460e1	0.00010889932
175	0x3a036882	0.00050128263
176	0xba5c5030	-0.0008404283
177	0x383b8ddd	4.4716395e-05
178	0xbaa89739	-0.0012862451
179	0xba6458b4	-0.00087107276
180	0x3a0487a1	0.00050556107
181	0xb9a584bd	-0.0003157015
182	0x3a8a9cbb	0.0010575274
183	0x3ac03db4	0.0014666826
184	0xb77a757d	-1.4928516e-05
185	0xba78bd02	-0.00094886136
186	0xba9fe433	-0.0012198746
187	0x39631e08	0.00021659594
188	0xba921f9f	-0.001114834
189	0x38f10d9f	0.00011494313
190	0xbb0b6d93	-0.0021275028
191	0xbabdbe2f	-0.0014476235
192	0xb9669a8c	-0.00021992082
193	0xba8b48be	-0.0010626537
194	0xbb03cf3d	-0.0020112537
195	0xba789b71	-0.0009483612
196	0xb7dcd3f9	-2.6324751e-05
197	0x39d78d52	0.00041113287
198	0x3978f2b2	0.00023741534
199	0xba2f3df1	-0.000668495
200	0xba9fc7d8	-0.0012190295
201	0xba6902f2	-0.00088886835
202	0xbab8dbdb	-0.0014103608
203	0x3a6b1e7a	0.000896908
204	0xbad4c730	-0.0016233679
205	0xb9378df9	-0.00017505129
206	0xb94065d3	-0.0001834848
207	0x3a18fff5	0.00058364804
208	0x39f6237b	0.0004694721
209	0xba815fa6	-0.0009870424
210	0xb9a72969	-0.00031883575
211	0x383952df	4.4184617e-05
212	0xbadc2564	-0.0016795811
213	0x3a76cf78	0.00094150705
214	0xba7abcd6	-0.0009564882
215	0x3a0e4097	0.0005426495
216	0x3a242a8f	0.0006262445
217	0xb9f6a0a7	-0.00047040472
218	0x3a39f12e	0.00070931285
219	0x3a7b9094	0.0009596434
220	0xb9746e9e	-0.00023310861
221	0xba5e2280	-0.0008473769
222	0x39ed53f0	0.000452667
223	0xb94398f1	-0.00018653624
224	0xb9fd850b	-0.00048355045
225	0x3b192bfa	0.002337216
226	0xba0063c0	-0.00048976764
227	0xba7d11a4	-0.0009653813
228	0xba675c78	-0.00088257296
229	0x392e6993	0.00016633263
230	0x3a055c0e	0.00050872646
231	0x3a3d4cf3	0.0007221244
232	0x3947aecd	0.00019043237
233	0xb973e21e	-0.00023258521
234	0x3a1b4202	0.00059226167
235	0xb998a2d1	-0.00029113007
236	0xbaef9132	-0.0018277525
237	0x399ef419	0.00030317975
238	0xb645f069	-2.9495225e-06
239	0x3a01b8c2	0.00049484905
240	0xbb1dd9d1	-0.0024086128
241	0x39db521d	0.00041832114
242	0xba6e2230	-0.0009084074
243	0xbabd33a7	-0.0014434949
244	0x3a0101e8	0.00049212435
245	0x39ce77e5	0.0003938071
246	0x3992f21e	0.0002802768
247	0xb93d2f15	-0.00018041984
248	0xbab10ac9	-0.0013507243
249	0x3ae96201	0.0017805697
250	0xbaa36ac1	-0.0012467728
251	0xba80744a	-0.0009800282
252	0xba972c56	-0.0011533599
253	0x3a6a7e04	0.00089451694
254	0xba8a0e86	-0.0010532893
255	0x3ac0e008	0.0014715204

net.2.bias f4 [128]
0	0x3d036e6e	0.032087736
1	0xbb4cdafa	-0.003125845
2	0x3c7f29c0	0.015573919
3	0xbb2b4731	-0.0026134963
4	0x3cab7d90	0.020933896
5	0x3d090371	0.033450548
6	0xbb6d000a	-0.0036163353
7	0x3ca4739f	0.020074664
8	0xbaf248df	-0.0018484852
9	0xba1d4a26	-0.00060001237
10	0x3c8c9f9f	0.017165957
11	0xba1d0abc	-0.0005990674
12	0x3ca092af	0.019601194
13	0xbb55f135	-0.0032644991
14	0x3ca5042c	0.02014359
15	0x3ca80e5b	0.020514658
16	0x3d0a8e73	0.033827256
17	0x3ca6503c	0.02030193
18	0x3c865b07	0.016400827
19	0xbb382d9c	-0.0028103357
20	0x3ca0d61f	0.01963335
21	0x3c9fb00e	0.01949313
22	0xbb2241f0	-0.002475854
23	0x3caad5f4	0.020853974
24	0x3d09cb74	0.033641294
25	0x3ca2d53e	0.019877072
26	0xba1b69b6	-0.0005928533
27	0xbb287a04	-0.0025707493
28	0xba1ce49f	-0.0005984995
29	0x3c8b73ea	0.017023046
30	0xba1c591e	-0.0005964207
31	0x3cb36fe3	0.021903938
32	0x3d0a0fc9	0.03370646
33	0xba1d0226	-0.0005989395
34	0xba1caac4	-0.0005976374
35	0x3cebc5f5	0.028780917
36	0xbc9cc722	-0.019137923
37	0xbb4c4034	-0.0031166198
38	0xbb2d331e	-0.0026428173
39	0x3c81c281	0.015839817
40	0x3cad86d5	0.021182457
41	0xbd5ad301	-0.053423885
42	0x00000000	0.0
43	0xba1b51bd	-0.0005924961
44	0x3c770a30	0.0150781125
45	0x3ca0fbe0	0.019651353
46	0xbb719bcf	-0.003686655
47	0xbb43c24c	-0.0029870449
48	0x00000000	0.0
49	0x3cebd887	0.028789772
50	0xba5f149a	-0.0008509845
51	0x3ca86c40	0.02055943
52	0x3e54ec95	0.20793374
53	0x3d0e355c	0.034718856
54	0xba1b39b8	-0.00059213815
55	0x00000000	0.0
56	0xba35add4	-0.00069305045
57	0xbb5b7c16	-0.003349071
58	0x3ca25457	0.019815607
59	0x3c83229f	0.01600772
60	0xbb0f00d5	-0.0021820564
61	0xbaf84ab9	-0.0018943168
62	0x3ca8aefa	0.020591248
63	0x3d080735	0.03321
64	0xbb024931	-0.0019880051
65	0xba1bc036	-0.00059414224
66	0xba1d079e	-0.000599021
67	0x3d342210	0.043977797
68	0x3c793179	0.015209549
69	0x3d01fa59	0.03173289
70	0x3cff6a04	0.031178482
71	0xbb40203c	-0.0029316088
72	0x3ca60bc1	0.020269277
73	0x3c9ee298	0.019395158
74	0xba1d1c3e	-0.0005993283
75	0x3d047337	0.03233644
76	0x3cff84cf	0.031191258
77	0xba1bb7d3	-0.00059401727
78	0xba1d4af6	-0.0006000245
79	0x3cf60fb3	0.030036783
80	0xba1d0bdd	-0.00059908425
81	0xba1c61c2	-0.0005965495
82	0x3d0991c0	0.033586264
83	0xba1c5957	-0.00059642404
84	0xbb80b200	-0.0039274693
85	0xbb80de1a	-0.0039327266
86	0xbb1afd5d	-0.0023649551
87	0x3ca2cfac	0.019874416
88	0xbac9bae7	-0.0015390784
89	0xba92bc0c	-0.0011194958
90	0x3c8514e1	0.016245307
91	0x3c8505f0	0.016238183
92	0xbb245b2f	-0.0025078764
93	0x3cb2b89d	0.021816546
94	0x3ca699cf	0.020337014
95	0xbabc9bac	-0.0014389656
96	0xba1cfe63	-0.00059888343
97	0xba92b397	-0.0011192438
98	0x3cd5100b	0.026008626
99	0xbb58fc78	-0.0033109467
100	0x3ca0fd6e	0.019652095
101	0xba1d1919	-0.00059928145
102	0xba01a5c7	-0.0004945662
103	0xbb63c4f5	-0.0034754847
104	0x3d074c91	0.033032004
105	0x3ce8e873	0.028431153
106	0xb9fbb455	-0.00048008809
107	0xbb593150	-0.0033140965
108	0x3caa5cdd	0.020796234
109	0xba9ba7eb	-0.0011875605
110	0xba103a80	-0.0005501881
111	0xba1c975e	-0.0005973483
112	0xba1d115a	-0.00059916603
113	0xba1c8afb	-0.00059716374
114	0x3cb2a437	0.02180682
115	0xba1b90ac	-0.00059343386
116	0xb9c20b8f	-0.00037011175
117	0x3d0659d6	0.032800518
118	0x3cee8a47	0.02911867
119	0x3cf73ccf	0.030180363
120	0x3d6fe21a	0.058565237
121	0xba1d1fb5	-0.00059937994
122	0x3d02c967	0.031930353
123	0xba1cfd2f	-0.0005988655
124	0x3ca8bc32	0.020597551
125	0xbb1f1d64	-0.0024278993
126	0x3c9b0edc	0.018927984
127	0x3c9d5076	0.019203406

net.4.weight f4 [64, 128]
0	0xbd03c740	-0.03217244
1	0x3a0b9caf	0.0005325777
2	0xbe60ac4f	-0.2194073
3	0x38d9a688	0.00010378385
4	0xbe5f94cc	-0.21834105
5	0xbd1db69e	-0.038504235
6	0xba01f9fb	-0.00049582095
7	0xbc203f46	-0.009780711
8	0xb9a80d09	-0.0003205317
9	0x3a16ba0d	0.00057497696
10	0xbe63aaec	-0.2223317
11	0x39ced995	0.00039453493
12	0xbe401aa5	-0.18760164
13	0xba62f51c	-0.000865774
14	0xbc397ce4	-0.01132128
15	0xbc3369df	-0.010950535
16	0xbd2dad9e	-0.042401902
17	0xbc2be8fb	-0.010492559
18	0xbe66ef7b	-0.22552292
19	0x3a2de2f0	0.00066332426
20	0xbe40e8c1	-0.18838789
21	0xbe3b47a6	-0.1828905
22	0xba3d2049	-0.00072145887
23	0xbe58729f	-0.21137474
24	0xbd25b029	-0.040451203
25	0xbe5656b8	-0.20931518
26	0xbaead41c	-0.0017915997
27	0x3a40d9f1	0.00073566946
28	0xb9ba83ff	-0.0003557503
29	0xbe617890	-0.22018647
30	0x398d563f	0.00026957874
31	0xbc1e2559	-0.009652459
32	0xbd2649d1	-0.04059774
33	0xb965f3d4	-0.00021929975
34	0xb8a573f4	-7.889411e-05
35	0xbe4f976f	-0.20272611
36	0xbd5c9450	-0.05385238
37	0xbb551472	-0.0032513407
38	0x3aa38a95	0.0012477214
39	0xbe25ce92	-0.16192082
40	0xbe5f44a5	-0.2180353
41	0xbd19e12d	-0.03756826
42	0x36e3d277	6.7896285e-06
43	0x3aaa858a	0.0013009768
44	0xbe4d9876	-0.2007769
45	0xbe3f34a4	-0.18672425
46	0xb9f950dd	-0.0004755323
47	0xb9d0eba7	-0.00039848426
48	0x375eaf7e	1.3273091e-05
49	0xbc9aaf4b	-0.018882414
50	0xba386a8c	-0.00070349197
51	0xbc4b680b	-0.0124149425
52	0xbcf224ba	-0.029558528
53	0xbd3dba2a	-0.046320118
54	0xb98d55e0	-0.00026957598
55	0x3a3251d5	0.0006802355
56	0xb9a76e4b	-0.00031934897
57	0xbacb9a89	-0.0015533726
58	0xbe3cbda6	-0.1843172
59	0xbe59023e	-0.21192262
60	0x3b047d8e	0.0020216438
61	0xb91647b1	-0.00014331822
62	0xbc1d5b96	-0.009604355
63	0xbd115d39	-0.035489295
64	0x3aae6430	0.0013305005
65	0xba0ed612	-0.0005448769
66	0xba98c1ec	-0.0011654473
67	0xbe3dc684	-0.18532759
68	0xbe63316e	-0.22186825
69	0xbcd2b91f	-0.025723038
70	0xbce4d509	-0.027933614
71	0x3a27d99c	0.0006402971
72	0xbc4e3426	-0.012585675
73	0xbe3ca2ff	-0.18421553
74	0xb8570dbe	-5.1272793e-05
75	0xbe4f376f	-0.2023599
76	0xbcd9b37c	-0.026574843
77	0x3a0a3767	0.0005272538
78	0x3aa0acf2	0.0012258573
79	0xbcb7bb3f	-0.022428153
80	0xba10472f	-0.0005503771
81	0xb93a5790	-0.00017770962
82	0xbd216a8b	-0.039408248
83	0x389d396f	7.497041e-05
84	0xbab6c0b8	-0.0013942933
85	0x3b8654cf	0.0040994654
86	0xbaa3b964	-0.0012491164
87	0xbe54ab12	-0.20768383
88	0xba958873	-0.0011408463
89	0xb84d1724	-4.889736e-05
90	0xbe6579a4	-0.22409683
91	0xbe64ea30	-0.2235496
92	0x3a008117	0.00049020484
93	0xbe506f9d	-0.20355077
94	0xbc1a5047	-0.009418554
95	0xbaeda9ec	-0.0018132306
96	0x39a8a32d	0.00032165032
97	0xb8fba4cf	-0.00011999311
98	0xbe4f4775	-0.20242102
99	0x39880da1	0.00025950096
100	0xbe4a1c78	-0.19737422
101	0xbab81315	-0.0014043773
102	0xb90f4975	-0.00013664908
103	0x38e7656f	0.00011033832
104	0xbd1bcda4	-0.03803791
105	0xbe4ee97d	-0.20206256
106	0x3a306c94	0.00067300466
107	0x3a38f389	0.00070553325
108	0xbc270319	-0.01019361
109	0x3a515e56	0.00079867744
110	0x3967c550	0.00022103381
111	0xb9e552dc	-0.0004374002
112	0x39cdb1e7	0.00039233195
113	0xba27a155	-0.0006394585
114	0xbbec8199	-0.0072175977
115	0xb78aeafe	-1.6560309e-05
116	0x39017e7f	0.00012349522
117	0xbd15c7d6	-0.03656753
118	0xbe4f71ef	-0.20258306
119	0xbe4cda16	-0.20005068
120	0xbdf2ce79	-0.11855788
121	0x3a1cf4d4	0.000598741
122	0xbce1ad3f	-0.02754843
123	0xba9ae49a	-0.0011817396
124	0xbe5a4471	-0.21315171
125	0x3a004bf3	0.000489413
126	0xbe3dbd09	-0.18529142
127	0xbe403575	-0.18770392
128	0xbdc84382	-0.09778501
129	0x3987fad2	0.00025936082
130	0xbe84612f	-0.25855395
131	0xb9d1e730	-0.00040035835
132	0xbea895be	-0.32926744
133	0xbdd2ddfc	-0.102962464
134	0x39c34d0b	0.000372507
135	0xbd9f4d7b	-0.0777845
136	0x3a06fb56	0.00051491463
137	0xba7d0714	-0.0009652239
138	0xbe8e4c4e	-0.2779259
139	0xba04fc51	-0.00050729985
140	0xbe95659a	-0.29179078
141	0xbb0686c8	-0.0020527113
142	0xbda0ebb5	-0.078574575
143	0xbd9a6a91	-0.07539857
144	0xbdd2e4a3	-0.10297515
145	0xbda321a1	-0.079653986
146	0xbe897508	-0.268471
147	0xbac91407	-0.0015341052
148	0xbe914f30	-0.28380728
149	0xbe9241c5	-0.28565803
150	0x3b102c4a	0.0021999055
151	0xbea46ba4	-0.32113373
152	0xbdd3c18a	-0.10339649
153	0xbea1c7d5	-0.31597772
154	0x3a2a0b88	0.00064867036
155	0x3ad2dc97	0.0016087469
156	0x3ac2b1cd	0.0014854014
157	0xbe873b85	-0.26412597
158	0xbaa8b705	-0.0012871927
159	0xbd97808e	-0.07397567
160	0xbdd53f71	-0.10412491
161	0x391adf9b	0.00014769884
162	0xba424b99	-0.00074117776
163	0xbe6c6371	-0.23084809
164	0xbdca4129	-0.098757096
165	0xbb0fb62f	-0.0021928658
166	0x3b1431d3	0.0022612705
167	0xbe9df447	-0.3085043
168	0xbea939f5	-0.3305203
169	0xbe276aa8	-0.1634928
170	0x39f6137c	0.00046935293
171	0xb8a760bd	-7.9811995e-05
172	0xbe547df2	-0.2075117
173	0xbe93eedf	-0.28893182
174	0x3a1a9bb4	0.00058978354
175	0x3a419e40	0.0007385947
176	0x3a841aad	0.0010078751
177	0xbdad5835	-0.0846409
178	0x377a81d3	1.4931388e-05
179	0xbd9bd265	-0.07608489
180	0x3daed3ce	0.08536492
181	0xbdd24d75	-0.1026868
182	0x3a1ca4f2	0.00059755065
183	0x38e2aa10	0.000108081964
184	0x39b45c05	0.00034400835
185	0x3ab51229	0.0013814616
186	0xbe913379	-0.28359583
187	0xbe7739f8	-0.24143207
188	0xbb0c7065	-0.0021429297
189	0x374373e1	1.1649886e-05
190	0xbd9c38e8	-0.076280415
191	0xbdd3cb27	-0.103414826
192	0x397f6bcd	0.00024358854
193	0xb93ef6cf	-0.00018211755
194	0x39f3d9f5	0.00046510962
195	0xbe42dd47	-0.19029723
196	0xbe8534a3	-0.2601672
197	0xbdc17f0a	-0.09448059
198	0xbdbed6b6	-0.093182966
199	0x3a7b35ca	0.00095829053
200	0xbd9910b1	-0.07473887
201	0xbe91b7c5	-0.28460518
202	0xba339ebc	-0.00068519614
203	0xbe6bd225	-0.23029383
204	0xbdbdd679	-0.09269423
205	0x3a1049ec	0.0005504179
206	0xbab82a20	-0.001405064
207	0xbdb5d55c	-0.08878586
208	0xb922b91b	-0.00015518481
209	0xba6d2cca	-0.00090475066
210	0xbdd6afd0	-0.10482752
211	0xba1b902d	-0.00059342646
212	0xb7a165ec	-1.9240157e-05
213	0x3adfc0de	0.0017071029
214	0x3a2f68c4	0.00066913315
215	0xbea0f398	-0.31435847
216	0x3aa74d05	0.0012764042
217	0x3a2bed4a	0.0006558491
218	0xbe8aa9b6	-0.27082604
219	0xbe892db8	-0.26792693
220	0xbaa9f568	-0.0012966814
221	0xbe6c1b63	-0.23057322
222	0xbd9bca12	-0.07606901
223	0xbaa72d58	-0.0012754602
224	0x3946ae41	0.00018947666
225	0x38c3311b	9.307471e-05
226	0xbe6e1a3c	-0.23252195
227	0x39afa7a0	0.0003350349
228	0xbe991984	-0.2990228
229	0xb9ffb77b	-0.00048774094
230	0xbb345552	-0.0027516675
231	0x39e71a61	0.00044079407
232	0xbdd2535f	-0.10269808
233	0xbe624e04	-0.22100073
234	0x3a761370	0.00093870517
235	0x3ae8c038	0.0017757481
236	0xbd9ab7d9	-0.075545974
237	0xba2e0f9e	-0.00066399004
238	0xb9ea973a	-0.0004474463
239	0x3a0cbdc9	0.00053688564
240	0x3a00a0d7	0.00049067795
241	0x3aad07f4	0.0013201223
242	0xbd9132c6	-0.070897624
243	0x39334ebf	0.00017100105
244	0x3a33da14	0.0006860804
245	0xbdcd6f13	-0.10030951
246	0xbe638a5d	-0.2222075
247	0xbe6b8d2f	-0.23003076
248	0xbe60baf7	-0.21946321
249	0x3a80eec4	0.0009836783
250	0xbdc58255	-0.096439995
251	0x3a72fcbf	0.00092692295
252	0xbea4d3d0	-0.3219285
253	0x3995e6aa	0.00028591353
254	0xbe905473	-0.2818943
255	0xbe9200d5	-0.2851626

net.4.bias f4 [64]
0	0xbd2be742	-0.04196859
1	0x3dda257f	0.10651683
2	0x3e29c843	0.165803
3	0xbdc5da72	-0.09660806
4	0xbc9f3c48	-0.019437924
5	0xbd96b1d4	-0.07358137
6	0x3c9a387a	0.018825758
7	0xbce35159	-0.02774875
8	0xbe4e0584	-0.20119292
9	0x3dbe83a8	0.09302455
10	0x3dc42d63	0.09578969
11	0xbda3b69a	-0.07993813
12	0xbd5025eb	-0.05081741
13	0xbd9b02fe	-0.0756893
14	0x3da53791	0.08067239
15	0x3df934f5	0.12168304
16	0xbe2e514b	-0.17023198
17	0x3c8fecc3	0.017568951
18	0x3a9bafea	0.0011877988
19	0xbd036b9c	-0.032085046
20	0xbbddc73d	-0.006768136
21	0x3c2838e6	0.010267472
22	0x3dcf333e	0.101171955
23	0xbd1336f2	-0.03594107
24	0x3bc45800	0.0059919357
25	0x3d8e41a1	0.069461115
26	0xbbe4fc2f	-0.0069880704
27	0x3e186626	0.14882717
28	0x3d65c6f6	0.056097947
29	0xbde8feb4	-0.11376706
30	0x3de6cce2	0.11269547
31	0xbd59e0e2	-0.05319298
32	0xbd3a31b1	-0.045457546
33	0x3d982081	0.07428075
34	0x3d1ea574	0.038732007
35	0x3e83f47e	0.2577247
36	0x3e0136a7	0.12618504
37	0xbcd1203c	-0.025528066
38	0xbc93fe70	-0.018065661
39	0xbe1c6b13	-0.1527522
40	0xbd96efd1	-0.0736996
41	0x3d413657	0.047170963
42	0xbb95f250	-0.004576005
43	0x3c8912b0	0.016732544
44	0xbd92c3fe	-0.07166289
45	0xbd0b1a24	-0.033960477
46	0x3e0e64bd	0.13905616
47	0x3d39da6f	0.04537433
48	0x3e6f915d	0.23395295
49	0xbd48c970	-0.04902023
50	0x3baec21d	0.0053331987
51	0x3e171011	0.14752223
52	0x3d4aaae5	0.049479384
53	0x3daf733c	0.08566901
54	0xbe3bfcf2	-0.1835821
55	0x3da3cdad	0.07998214
56	0xbdc1a742	-0.0945573
57	0x3c1df47f	0.009640812
58	0xb9c1137b	-0.00036826343
59	0x3d99110a	0.07473953
60	0x3e32ab34	0.17448121
61	0xbdfc0d4b	-0.12307223
62	0xbd881aef	-0.06645762
63	0xbddcb32b	-0.10776361

mean_head.weight f4 [1, 64]
0	0x3d9f1894	0.0776836
1	0x3e8f584b	0.2799705
2	0x3bdeec60	0.0068030804
3	0xbe86a397	-0.26296684
4	0x3dca29e1	0.09871269
5	0xbe6420c3	-0.22278123
6	0x3e10bae9	0.141338
7	0x3db960cd	0.090516664
8	0xbcee8c99	-0.029119777
9	0xbd229376	-0.03969141
10	0x3e86c784	0.26324093
11	0xbe6f282b	-0.23355167
12	0xbe3e129e	-0.1856179
13	0xbe69d4b0	-0.2283504
14	0xbd42f814	-0.047599867
15	0x3e97cdae	0.2964911
16	0xbc1b4cd5	-0.009478767
17	0x3e0d9141	0.13824941
18	0xbdef18e0	-0.116746664
19	0xbe223101	-0.15839006
20	0x3de3a410	0.11115277
21	0x3e050c18	0.12992895
22	0x3e8b69e6	0.27229232
23	0xbe289ae0	-0.1646533
24	0xbde7224b	-0.11285838
25	0xbd65718e	-0.056016497
26	0xbe014e7b	-0.12627594
27	0xbb7f254b	-0.003893214
28	0x3e4695c0	0.19393063
29	0x3cd6bbf9	0.02621268
30	0x3e9314bf	0.28726766
31	0xbe420111	-0.1894572
32	0x3d997920	0.07493806
33	0x3e675d9c	0.22594303
34	0x3e2d04c1	0.16896345
35	0x3d8b8693	0.06812777
36	0xbc90cd0f	-0.017675905
37	0xbe18f2b6	-0.14936337
38	0x3dcbf8e0	0.099595785
39	0x39b22b64	0.00033983134
40	0xbe64a501	-0.22328569
41	0xbd964af2	-0.073385134
42	0xbdfd89b0	-0.123797774
43	0x3e0d738e	0.13813612
44	0x3d5f00fa	0.05444429
45	0xbe250fc3	-0.16119294
46	0xbc236a69	-0.009974101
47	0xbd98a0da	-0.07452555
48	0x3d511c35	0.05105229
49	0x3d93467a	0.07191177
50	0xbde7f3a6	-0.11325769
51	0xbb928abd	-0.0044721053
52	0x3e3ba770	0.18325591
53	0xbd33d3af	-0.04390305
54	0xbc93d721	-0.018046917
55	0xbd45f898	-0.04833278
56	0x3d1b3733	0.03789444
57	0xbde00afd	-0.10939596
58	0x3df1f46f	0.118142
59	0xbd5606c5	-0.05225255
60	0x3c476fe8	0.012172677
61	0xbe998150	-0.2998147
62	0xbe59f368	-0.21284258
63	0x3cf36bb8	0.02971445

log_std_head.weight f4 [1, 64]
0	0x3d68df37	0.0568535
1	0xbd09d853	-0.03365357
2	0xbdd456c5	-0.103681125
3	0x3ce1d064	0.027565189
4	0x3d410440	0.047123194
5	0x3c1b3004	0.009471897
6	0x3cda6125	0.02665765
7	0x3d50c4b5	0.050968844
8	0x3df04018	0.11730975
9	0xbda1bc77	-0.07897275
10	0xbcce9dfb	-0.025221815
11	0x3c64b7a3	0.013959798
12	0xbbc988de	-0.006150349
13	0x3c29c4fa	0.010361904
14	0xbd94abac	-0.07259306
15	0xbd3ec274	-0.046572164
16	0x3dd9030e	0.10596286
17	0x3cd8f251	0.026482733
18	0xbd166549	-0.036717687
19	0xbc98cb4a	-0.018651623
20	0x3d228d8a	0.039685763
21	0x3d00602a	0.03134171
22	0xbcf59dbf	-0.029982446
23	0xbc83488e	-0.016025808
24	0xbd27dc80	-0.04098177
25	0xbd8c9ee7	-0.06866246
26	0xbd077774	-0.033072904
27	0xbdca4699	-0.09876747
28	0x3b405d8d	0.0029352636
29	0x3db16247	0.08661323
30	0xbd1eec8a	-0.0387998
31	0xbba6c3e3	-0.0050892695
32	0x3d71df0d	0.05905061
33	0xbc1d8c0d	-0.00961591
34	0x3c7403af	0.014893456
35	0xbe119c3a	-0.14219752
36	0xbdb81b65	-0.089896
37	0xbcb61a44	-0.022229321
38	0x3d3ab357	0.045581188
39	0x3dcb456c	0.099253505
40	0x3c228953	0.009920436
41	0xbd725ed2	-0.05917246
42	0xbd0c0575	-0.03418489
43	0x3ce2389a	0.02761488
44	0x3d8f096c	0.06984219
45	0xbc8fbaf1	-0.017545195
46	0xbdc6c532	-0.09705581
47	0xbd6ec3e1	-0.058292273
48	0xbe066d97	-0.13127743
49	0x3d75ce09	0.060010944
50	0xbd26fb18	-0.040766805
51	0xbdc7139f	-0.09720539
52	0x3bdb204c	0.0066871997
53	0xbd99d047	-0.07510429
54	0x3de22c75	0.11043636
55	0xbd951e96	-0.072812244
56	0x3d9fa20f	0.07794582
57	0xbd2eb169	-0.04264966
58	0x3d157fc4	0.0364988
59	0xbd92596b	-0.071459614
60	0xbddb0eec	-0.106962055
61	0x3d403f3c	0.046935305
62	0x3ba1b315	0.0049346783
63	0x3dacb2c9	0.08432538

q1.0.weight f4 [128, 14]
0	0xbdf4c1ea	-0.11951049
1	0xbe171d38	-0.1475724
2	0xbed55d26	-0.4167263
3	0x3e9bd56c	0.30436265
4	0xbc755a55	-0.01497515
5	0xbe6219b2	-0.22080114
6	0x3dc1690b	0.094438635
7	0x3e5298ac	0.20566052
8	0x3e91daf6	0.28487366
9	0xbe98161b	-0.29704365
10	0xbc66e167	-0.014091826
11	0x3d96d9ce	0.07365762
12	0x3e617305	0.22016533
13	0xbc13f4e7	-0.009030557
14	0x3e33a490	0.17543244
15	0xbe633e26	-0.22191676
16	0x3e511367	0.20417558
17	0x3eaceb82	0.33773428
18	0x3e864f8f	0.26232573
19	0xbc5a59a4	-0.013327036
20	0x3c478747	0.012178249
21	0x3e8af3b8	0.27139068
22	0xbe676ccc	-0.22600096
23	0xbe1a3960	-0.1506095
24	0xbe6be2d4	-0.23035747
25	0x3e92ec5a	0.28695947
26	0x3e9b092a	0.3028043
27	0xbe2cde7c	-0.16881746
28	0xbe3c83e5	-0.18409689
29	0xbdb20eea	-0.08694251
30	0x3ec6c51c	0.38822258
31	0x3e3923d5	0.18080075
32	0xbf1ebcd3	-0.6200687
33	0xbe120196	-0.14258417
34	0xbcfe30d6	-0.031029146
35	0xbd94a5c9	-0.072581835
36	0xbdbd4935	-0.09242479
37	0xbe87ce2a	-0.26524478
38	0x3cce4ec4	0.025184043
39	0x3e93928d	0.28822747
40	0xbe0725b5	-0.13197978
41	0xbdbd666c	-0.09248051
42	0xbe202f36	-0.1564301
43	0xbdbb7412	-0.09152998
44	0xbf1bfc1b	-0.6093156
45	0x3e39b509	0.18135466
46	0xbe395c85	-0.181017
47	0x3e96ab9d	0.29427806
48	0xbda23d54	-0.07921854
49	0x3e9f9ef1	0.3117595
50	0x3d886123	0.06659152
51	0xbdc7d028	-0.097564995
52	0x3e07787c	0.13229555
53	0xbe448ad4	-0.19193584
54	0xbe390fa6	-0.18072376
55	0xbdec0112	-0.11523642
56	0x3d8d1dfb	0.06890484
57	0xbe24e186	-0.16101655
58	0x3daf5e3d	0.085628964
59	0xbc9be077	-0.019027932
60	0x3cb917f3	0.022594428
61	0xbe3f0044	-0.18652445
62	0xbe434c54	-0.19072086
63	0x3de86ede	0.11349271
64	0x3dc6d5e1	0.09708763
65	0xbdfb7442	-0.12278034
66	0xbe503a4e	-0.20334741
67	0xbd644dd4	-0.055738285
68	0x3d95eaf6	0.07320206
69	0x3bd4b650	0.00649146
70	0xbd83647a	-0.06415649
71	0xbd6cd999	-0.057824705
72	0x3e0e8579	0.13918103
73	0x3e15b5d2	0.1462014
74	0x3eb44404	0.35208142
75	0xbe878b46	-0.26473445
76	0x3e250f48	0.1611911
77	0x3d8626df	0.06550383
78	0x3d9fb107	0.07797437
79	0xbe4a836e	-0.19776699
80	0xbf143a02	-0.5790101
81	0xbe324ef5	-0.17412932
82	0xbe6e6b0c	-0.23283023
83	0xbdc09f1e	-0.09405349
84	0xbe4ea926	-0.20181713
85	0x3e1e2a82	0.15445903
86	0xbd9d9e07	-0.07696157
87	0x3ee92682	0.45537192
88	0xbe2a83a1	-0.16651775
89	0xbee5ca09	-0.44880703
90	0xbe2d5f7a	-0.16930953
91	0xbe981088	-0.29700112
92	0x3e5f6689	0.21816458
93	0xbe8e5c81	-0.2780495
94	0x3df39eb4	0.118955046
95	0x3b46a91a	0.0030313195
96	0xbe3e52fa	-0.1858634
97	0xbc053081	-0.00812924
98	0x3e64ee3c	0.22356504
99	0xbc9ca61e	-0.01912218
100	0xbe13c494	-0.14430457
101	0xbe4a869f	-0.19777916
102	0xbddd0bd1	-0.107932694
103	0x3e8871de	0.26649374
104	0xbe8279fd	-0.25483695
105	0x3d037293	0.03209169
106	0x3e840a99	0.25789335
107	0xbdb4de2b	-0.08831438
108	0xbcb548cb	-0.022129437
109	0xbe6a8f2c	-0.22906178
110	0x3df4f557	0.11960857
111	0xbe76e722	-0.24111608
112	0xbe6cfa50	-0.23142362
113	0xbd68297a	-0.05668018
114	0xbe6425b2	-0.22280005
115	0x3e0ff51e	0.14058349
116	0x3e90ff1a	0.28319627
117	0x3e852cf9	0.26010874
118	0xbe8f5ddc	-0.28001297
119	0xbde070d6	-0.10959022
120	0x3e64822b	0.2231528
121	0xbe52c80f	-0.20584129
122	0x3e56fa94	0.20994025
123	0xbcc846fb	-0.024447909
124	0xbeaab531	-0.33341363
125	0xbd57db40	-0.052699327
126	0xbe05976a	-0.13046041
127	0xbc380ba8	-0.011233248
128	0x3eb7b254	0.3587824
129	0x3eb80b9a	0.3594635
130	0xbdecaebc	-0.115567654
131	0x3e9eae83	0.30992517
132	0x3e7e0a5f	0.24808644
133	0xbe49e1a6	-0.19714984
134	0x3e11d8e6	0.14242896
135	0xbe333049	-0.17498888
136	0xbe43f66c	-0.19136971
137	0x3e4e85cf	0.20168231
138	0xbd8f18f7	-0.069871835
139	0x3e0dabff	0.13835143
140	0x3d5bccc9	0.053662095
141	0x3d88bc03	0.066764854
142	0x3d235c9b	0.039883237
143	0x3d2443bb	0.040103655
144	0x3e2d27f5	0.16909774
145	0xbc9ea476	-0.01936553
146	0x3c4b3c78	0.012404554
147	0xbdc0c9ff	-0.09413528
148	0xbe2e33cf	-0.17011951
149	0xbdf8d004	-0.12149051
150	0x3e427177	0.18988596
151	0xbd7f6550	-0.06235248
152	0x3d929a34	0.07158318
153	0x3d91f44b	0.07126673
154	0x3df0b746	0.11753707
155	0x3e055661	0.13021232
156	0x3e896bfd	0.268402
157	0x3cc8df77	0.024520619
158	0x3d6e1210	0.058122694
159	0xbd556e21	-0.05210698
160	0x3e47c227	0.19507657
161	0xbe961a74	-0.29317057
162	0x3e659434	0.22419816
163	0xbd99247a	-0.074776605
164	0xbe05539f	-0.1302018
165	0xbe23f596	-0.16011652
166	0x3e809b39	0.25118425
167	0xbe27862a	-0.16359773
168	0xbe6b8cf4	-0.23002988
169	0x3d704718	0.05866155
170	0x3d2b4de4	0.04182233
171	0xbe08d62a	-0.13362947
172	0xbeb682f5	-0.35646787
173	0x3e639d52	0.22227982
174	0xbe0d6a83	-0.13810162
175	0xbe53fd38	-0.20702064
176	0xbd31864a	-0.04334096
177	0xbdf59bc2	-0.11992599
178	0xbeda831f	-0.42678162
179	0xbe7d80f5	-0.24756224
180	0xbd51fdcd	-0.051267434
181	0x3e72febb	0.23729984
182	0xbb5510ff	-0.0032511351
183	0x3dc70693	0.09718051
184	0xbea5d882	-0.32391745
185	0x3e143e7c	0.14476961
186	0xbe78ea8b	-0.24308221
187	0xbf2de0cf	-0.67921156
188	0xbe11f7a5	-0.14254625
189	0x3ecd8084	0.40137112
190	0xbd874825	-0.06605557
191	0x3e51973b	0.20467846
192	0xbebc2a48	-0.36751008
193	0x3e0f81af	0.14014314
194	0x3e84d4e7	0.25943682
195	0xbe0e33f9	-0.13887013
196	0x3db78632	0.089611426
197	0xbda6ee7d	-0.08150957
198	0xbe041b2a	-0.12900987
199	0x3d2ac686	0.041693233
200	0xbe0ef19a	-0.13959351
201	0x3e97b91c	0.29633415
202	0x3dd26bb5	0.1027445
203	0xbe312757	-0.17300163
204	0x3e9a2eae	0.3011374
205	0xbe8f1f16	-0.27953404
206	0xbded7bb3	-0.115958594
207	0x3df6de89	0.12054164
208	0x3e56ab6f	0.20963834
209	0xbe299d15	-0.16563828
210	0xbdc37f6d	-0.09545789
211	0x3e40c967	0.18826829
212	0xbe5f2204	-0.2179032
213	0xbd659c83	-0.056057464
214	0x3e1a24ce	0.15053102
215	0xbe785592	-0.24251392
216	0x3a93bddc	0.0011271792
217	0x3d2ecdb4	0.042676643
218	0x3e6981ac	0.22803372
219	0xbdfbda14	-0.122974545
220	0x3e2ae967	0.16690598
221	0x3e0a5d1a	0.13512078
222	0xb6f89e00	-7.4093696e-06
223	0x3bdfc1e2	0.0068285326
224	0x3e67fd1c	0.22655147
225	0x3e1df2e1	0.15424682
226	0xbf507fa8	-0.8144479
227	0xbe9edb70	-0.31026793
228	0xbcaa3c5d	-0.020780737
229	0xbd65ed05	-0.056134243
230	0x3cc43058	0.023948833
231	0xbd22b834	-0.03972645
232	0x3e0897ff	0.13339232
233	0xbd7af092	-0.061264582
234	0xbdbc1812	-0.091842785
235	0x3dce62b8	0.10077423
236	0x3dc105f2	0.09424962
237	0x3d30c293	0.04315431
238	0xbc44ca08	-0.012011059
239	0xbe17f2a0	-0.14838648
240	0x3e8a8aea	0.27059108
241	0xbd19897a	-0.037484623
242	0x3db5a0b2	0.08868541
243	0x3bdace1e	0.006677403
244	0xbde4976f	-0.11161696
245	0xbcf41a2f	-0.029797642
246	0xbe734150	-0.23755383
247	0xbc9be0e9	-0.019028144
248	0xbf0010e3	-0.5002577
249	0xbc4ab6a0	-0.012372643
250	0x3e83eae9	0.2576516
251	0x3e3f93c4	0.18708712
252	0xbdadc083	-0.08483984
253	0xbcfdadf8	-0.030966744
254	0xbb18c753	-0.0023312166
255	0x3e856547	0.2605383

q1.0.bias f4 [128]
0	0xbe0663c3	-0.13123994
1	0x3e289706	0.16463861
2	0x3e423cbb	0.1896848
3	0xbe0e1313	-0.13874464
4	0x3e9b825f	0.30372903
5	0x3e7591e5	0.23981436
6	0x3cb7741e	0.022394236
7	0xbe701440	-0.23445225
8	0x3e5b23a9	0.21400322
9	0x3e006ba9	0.12541069
10	0xbe388abb	-0.18021671
11	0x3e40e502	0.1883736
12	0x3e8105f6	0.2519986
13	0xbdd53b14	-0.10411659
14	0x3e9c1f12	0.30492455
15	0x3e937c0d	0.2880558
16	0xbe2cbaa9	-0.1686808
17	0xbc3679c1	-0.011137427
18	0xbe97a423	-0.29617414
19	0x3e9ea40b	0.3098453
20	0x3e4857ac	0.19564694
21	0x3d9a7bc9	0.075431414
22	0xbdf79a8a	-0.12090023
23	0x3e8127eb	0.25225767
24	0x3e943437	0.28946087
25	0xbe98a16a	-0.2981065
26	0x3c7893ed	0.015171987
27	0x3ea4fe5a	0.32225305
28	0x3d24d2ac	0.040239975
29	0xbdd7e9b6	-0.10542624
30	0x3cd9202e	0.026504602
31	0x3b0714a9	0.002061168
32	0xbdb115e8	-0.086467564
33	0xbd78025a	-0.060549118
34	0x3eaab59a	0.33341676
35	0x3e927df6	0.28611726
36	0x3e9c034f	0.30471274
37	0x3e71334d	0.23554726
38	0x3e7ae964	0.24503094
39	0xbe62cd58	-0.22148645
40	0xbdea278a	-0.11433323
41	0xbe22523e	-0.15851685
42	0xbe45e7ca	-0.19326702
43	0x3df817a6	0.121138856
44	0xbd9081ba	-0.070559934
45	0xbc8476f3	-0.01617
46	0xbd9cd65e	-0.07658075
47	0x3d1e2fe7	0.038619902
48	0x3d6974ab	0.05699603
49	0xbe02ea3c	-0.12784666
50	0xbe192395	-0.1495498
51	0x3e11a3a2	0.14222577
52	0x3d809798	0.06278914
53	0x3e668cb8	0.22514617
54	0x3e1bf6ab	0.15230815
55	0x3e52546b	0.20540015
56	0x3de7795a	0.11302443
57	0x3e7364b3	0.23768882
58	0xbe1e1970	-0.15439391
59	0xbca8d2dd	-0.02060836
60	0x3e0d62af	0.13807176
61	0xbdd4fe86	-0.10400109
62	0xbe467ba1	-0.19383098
63	0x3cf450df	0.029823719
64	0x3d9e0e04	0.07717517
65	0xbe303651	-0.1720822
66	0x3db47506	0.08811383
67	0xbc5dc4c5	-0.013535683
68	0x3df98670	0.12183845
69	0xbcdda3d1	-0.027055653
70	0x3e610d35	0.21977694
71	0x3d3eb343	0.046557676
72	0x3d00441b	0.03131495
73	0xbd106ad7	-0.03525814
74	0xbe0087c1	-0.12551786
75	0xbe97f94e	-0.29682392
76	0x3d194e42	0.037428148
77	0x3d5c6970	0.05381149
78	0xbdb862d9	-0.09003229
79	0x3d9fc787	0.07801729
80	0x3e53d786	0.20687684
81	0x3ded8eed	0.115995266
82	0xbe8830d2	-0.26599747
83	0x3dc3b32c	0.09555659
84	0xbe0ee070	-0.13952804
85	0x3dd881b6	0.105716154
86	0x3e1313a2	0.14362958
87	0xbe703176	-0.23456368
88	0x3e1a69f1	0.15079476
89	0x3c938817	0.018009229
90	0x3dd25e6e	0.10271917
91	0x3dee8607	0.116466574
92	0x3d853a8e	0.06505309
93	0x3e70172b	0.23446338
94	0x3e3b3a8c	0.18284053
95	0x3d848be8	0.064719975
96	0xbd95cc4b	-0.073143564
97	0x3eb0ce77	0.3453252
98	0x3e1ffc7e	0.15623662
99	0xbe758e8e	-0.23980162
100	0xbe3dedfa	-0.18547812
101	0xbe7eecae	-0.24894974
102	0x3e5993a0	0.2124772
103	0xbe3350c0	-0.17511272
104	0xbe4519b3	-0.19248085
105	0xbceb1cac	-0.028700195
106	0xbcef6ba7	-0.029226137
107	0x3e0a86ba	0.13527957
108	0x3e17727a	0.14789763
109	0xbe914a74	-0.28377116
110	0x3e849aec	0.25899446
111	0x3cf53465	0.02993221
112	0x3e290c85	0.16508682
113	0xbdeffef7	-0.117185526
114	0x3e169396	0.14704737
115	0xbc733c75	-0.014845957
116	0x3e0d31ce	0.1378853
117	0x3dc6de4d	0.09710369
118	0xbcab92a4	-0.020943947
119	0xbe41f9ea	-0.18942991
120	0xbe3d49f6	-0.18485245
121	0x3d94cd8b	0.07265767
122	0xbe2ab8a8	-0.16672003
123	0x3e62c699	0.22146071
124	0xbde2857f	-0.110606186
125	0x3ea5e536	0.32401437
126	0xbe45dfa5	-0.19323595
127	0x3e63d1cb	0.22247998

q1.2.weight f4 [128, 128]
0	0x3aa79b44	0.0012787362
1	0x3df59cfd	0.11992834
2	0x3da2e23e	0.079533085
3	0xbdb5c63b	-0.088757
4	0x3c10bd48	0.008834191
5	0x3bba9d1a	0.0056949975
6	0x3e4c26bd	0.19936652
7	0xbd3e264d	-0.046423245
8	0x3db224c6	0.0869842
9	0x3d91fceb	0.071283184
10	0x3d17bc69	0.037044916
11	0x3dc81c6c	0.09771046
12	0x3ddf54b9	0.109048314
13	0x3c0dc82c	0.008653682
14	0x3de6a38e	0.11261664
15	0x3dc82728	0.097730935
16	0x3d75bad9	0.059992645
17	0x3dc88095	0.0979015
18	0xbd5604fd	-0.05225085
19	0x3de91bfc	0.11382291
20	0x3d369a09	0.044580493
21	0x3e01f758	0.1269201
22	0x3c4834f9	0.012219661
23	0xbca5e506	-0.020250808
24	0x3e03dc8a	0.12877098
25	0xbbae592a	-0.005320688
26	0xbd9b6558	-0.07587689
27	0x3dbbe495	0.09174458
28	0x3d6f72dc	0.058459148
29	0x3b046436	0.0020201332
30	0x3d9296bd	0.07157657
31	0xbd830ff0	-0.06399524
32	0xbe043de0	-0.12914228
33	0xbe1d4df6	-0.15361771
34	0x3d99578a	0.074874
35	0x3a6d0dab	0.0009042869
36	0x3c17d7ff	0.009267806
37	0x3db6a29f	0.08917736
38	0xbd240c45	-0.040050764
39	0x3d63e48f	0.055637892
40	0xbc223259	-0.009899699
41	0xbe110947	-0.14163695
42	0xbe01a398	-0.12660062
43	0xbdc4a227	-0.096012406
44	0x3d95b645	0.07310156
45	0x3e07c022	0.13256887
46	0x3dce7e5d	0.10082696
47	0x3e11577a	0.14193526
48	0xbdb35b05	-0.08757595
49	0x3f0ed386	0.5579151
50	0x3d913248	0.070896685
51	0x3dd68b1d	0.104757525
52	0x3d5e02da	0.05420194
53	0x3d57417d	0.05255269
54	0x3d05502e	0.03254717
55	0x3d93ec3b	0.07222792
56	0x3d65439b	0.055972677
57	0xbb0c058a	-0.0021365606
58	0xbc6e6550	-0.014550522
59	0x3e091c97	0.13389812
60	0x3d6bc848	0.05756405
61	0x3d0409df	0.032235976
62	0xbcf546be	-0.029940959
63	0x3e5a07a6	0.2129198
64	0x3e053c83	0.13011365
65	0xbd81ccf3	-0.06337919
66	0x3dab8dbd	0.08376644
67	0x3e188c51	0.14897276
68	0xbb963243	-0.0045836284
69	0xbcf02f79	-0.029319512
70	0xbb6e6ffc	-0.0036382666
71	0x3d34923a	0.044084765
72	0xbe197aac	-0.14988202
73	0x3d99c159	0.07507581
74	0xbd70ecaf	-0.05881947
75	0xbe4e355b	-0.20137541
76	0x3da740a5	0.08166627
77	0xbd16ab65	-0.03678455
78	0xbd1f5150	-0.038895905
79	0x3cce26f5	0.02516506
80	0x3d0691ca	0.03285388
81	0x3dad7e5f	0.08471369
82	0xbd6d922d	-0.058000732
83	0x3dd1b5d8	0.10239762
84	0xbb0505ca	-0.002029764
85	0xbd209a7a	-0.03920982
86	0x3dcdbb90	0.1004554
87	0x3d91f01b	0.071258746
88	0x3cde3653	0.027125513
89	0x3e353d18	0.17699087
90	0x3e294469	0.16530003
91	0x3db878de	0.090074286
92	0xbcee51a6	-0.029091667
93	0x3cee882a	0.029117662
94	0xbbc7fa19	-0.006102812
95	0x3c896d7e	0.016775843
96	0xbd004703	-0.031317722
97	0x3e6435ba	0.2228612
98	0x3be57bad	0.0070032687
99	0xbd8b586d	-0.06803975
100	0xbbdf403e	-0.006813078
101	0xbd4a9fca	-0.049468793
102	0x3c91978b	0.017772457
103	0xbc07fceb	-0.008300046
104	0xbd90bc47	-0.07067161
105	0x3dd601b7	0.10449546
106	0xbe48149b	-0.1953911
107	0x3dafeabb	0.08589693
108	0x3d399238	0.04530546
109	0xbd09df9e	-0.033660524
110	0x3d8a13d7	0.067420654
111	0x3d074ad8	0.03303036
112	0x3de4d58f	0.111735456
113	0x3dbb2fdc	0.09139988
114	0x3bfdae46	0.0077417223
115	0xbdb2f7fe	-0.08738707
116	0x3e11f3f3	0.14253215
117	0x3dce7e9d	0.10082743
118	0x3d4010c2	0.04689098
119	0xb73a0f9c	-1.1090098e-05
120	0x3d9028d0	0.07039034
121	0x3e049120	0.12945986
122	0xbc740ea0	-0.014896065
123	0x3dbc4919	0.0919363
124	0x3d34605d	0.04403721
125	0xba87e34c	-0.0010367422
126	0xbd61f31f	-0.0551635
127	0xbd59c9ac	-0.053170845
128	0xbda599f0	-0.08086002
129	0x3d2656a8	0.040609986
130	0xbd4fdc65	-0.050747294
131	0xbe286bdd	-0.16447397
132	0x3d001b76	0.03127619
133	0x3dccd0fd	0.10000799
134	0x3e2a479d	0.16628881
135	0xbe20cc73	-0.15702991
136	0xbde85833	-0.11344948
137	0x3da201a5	0.0791047
138	0xbd7c76c5	-0.061636705
139	0xbc491dc6	-0.012275165
140	0x3d59e047	0.053192403
141	0x3d9383e4	0.072028905
142	0x3c588565	0.0132153975
143	0xbde06019	-0.10955829
144	0xbec2ebea	-0.38070613
145	0x3e5a9cce	0.21348879
146	0xbe2a4d7c	-0.1663112
147	0xbe06ca32	-0.13163069
148	0x3dba3d1e	0.090936884
149	0xbde12e08	-0.10995108
150	0x3e046cad	0.12932082
151	0x3d53bdc7	0.051694658
152	0x3decf447	0.1157003
153	0xbe0a57a0	-0.13509989
154	0x3e1d9abe	0.1539106
155	0x3d1e6e01	0.038679127
156	0xbb235f65	-0.0024928686
157	0xbe28d3ec	-0.16487092
158	0x3da7c1f1	0.08191288
159	0xbd2b9db0	-0.04189843
160	0x3c8771e4	0.0165338
161	0xbdea9bea	-0.114555195
162	0x3e1715c8	0.14754403
163	0xbd55e128	-0.05221668
164	0xbd009637	-0.031393256
165	0xbc985596	-0.018595498
166	0x3db0d53c	0.08634421
167	0xbd6065cc	-0.05478458
168	0xbeb22505	-0.3479387
169	0xbee91a15	-0.45527712
170	0x3c622a46	0.013804024
171	0xbefce990	-0.49396944
172	0x3d78de33	0.06075878
173	0x3e390f1a	0.18072167
174	0xbe4c4228	-0.19947112
175	0x3e4187dd	0.18899484
176	0xbde73e29	-0.11291153
177	0x3d9f7f4a	0.0778795
178	0xbe0b3def	-0.13597845
179	0x3d41577c	0.047202572
180	0xbeb4e882	-0.3533364
181	0x3e055f49	0.1302463
182	0x3b8b8110	0.004257329
183	0x3d3080e6	0.043091677
184	0x3d6a4f4c	0.05720453
185	0x3c9352e5	0.017983863
186	0xbd87fcef	-0.0664004
187	0x3e806583	0.25077447
188	0xbecf05f6	-0.40434235
189	0xbea258ce	-0.31708378
190	0x3d31ebf8	0.043437928
191	0x3e2327c3	0.15933137
192	0x3c946831	0.018116089
193	0xbecf93d1	-0.40542462
194	0xbe10be28	-0.14135039
195	0xbe692de0	-0.22771406
196	0x3df3378b	0.11875828
197	0x3de82713	0.11335578
198	0xbe84f3b9	-0.25967196
199	0xbc9e351b	-0.019312432
200	0xbf05539d	-0.5208071
201	0x3e2febbe	0.17179772
202	0x3e61e4ca	0.22059932
203	0xbeb73f0b	-0.35790285
204	0x3d905364	0.070471555
205	0xbd4981b2	-0.049195953
206	0x3e9fe572	0.3122974
207	0xbdf80f86	-0.12112336
208	0xbe07a6b1	-0.13247181
209	0x3db7522b	0.08951219
210	0x3d18fa89	0.037348304
211	0xb9eac641	-0.0004477967
212	0x3e125281	0.14289285
213	0x3c85500b	0.016273519
214	0xbdf17f83	-0.11791899
215	0x3d43b47a	0.047779538
216	0x3dc8d3b1	0.09806002
217	0x3d42ca85	0.04755642
218	0x3e6e4da4	0.23271805
219	0xbce18e0a	-0.02753355
220	0x3e9c23ed	0.3049616
221	0xbf581fee	-0.8442372
222	0x3dce8747	0.10084396
223	0x3d67ab80	0.05656004
224	0xbe208147	-0.15674315
225	0x3e18675c	0.14883178
226	0x3c98c712	0.018649612
227	0x3d4459d8	0.047937244
228	0x3c901c55	0.017591635
229	0x3e1f20ac	0.15539807
230	0x3cc4a36a	0.024003703
231	0xbe67c381	-0.22633173
232	0x3e339b1e	0.17539641
233	0xbe0c63ea	-0.13709989
234	0xbea251e1	-0.31703094
235	0x3d19187c	0.037376866
236	0x3c9c29a2	0.01906282
237	0xbe8989b9	-0.26862887
238	0xbd9725d7	-0.07380264
239	0x3ea7064c	0.32621992
240	0x3de8db1b	0.11369916
241	0x3e888df1	0.26670793
242	0x3d1fd932	0.039025493
243	0xbe0a2dbd	-0.1349401
244	0x3f1d65e0	0.61483574
245	0xbdeb5f86	-0.11492829
246	0x3e07141c	0.13191265
247	0x3e91e664	0.28496087
248	0x3c899413	0.01679424
249	0x3e109c93	0.14122228
250	0xbe0e1f9e	-0.13879248
251	0x3b58aa8d	0.003306064
252	0xbc627c27	-0.013823546
253	0xbe64f06a	-0.22357336
254	0x3e8f4fc1	0.27990535
255	0xbde9011e	-0.11377166
