rgz/checkpoint_150.pth (torch, 329845 bytes, 22 tensors)

net.0.weight f4 [128, 13]
0	0x3cad0d20	0.021124423
1	0x3c9cff5e	0.019164737
2	0xbd6f9818	-0.058494657
3	0xbdb96757	-0.09052914
4	0xba8a7393	-0.0010563008
5	0xbce04548	-0.027376786
6	0xbc084f23	-0.008319649
7	0xbcfab099	-0.030601786
8	0x3d1229f5	0.035684545
9	0xbc97ac15	-0.018514672
10	0x3c2fd597	0.010732076
11	0x3bcde231	0.0062830676
12	0x3c1c0613	0.009522933
13	0x3cc3f6a2	0.023921315
14	0x3cbcd822	0.023052279
15	0xbdd68e1f	-0.10476326
16	0xbd7dcb4d	-0.06196146
17	0xbc157304	-0.00912166
18	0x3c73e5eb	0.01488636
19	0xbcda52e9	-0.026650863
20	0xba05835d	-0.0005093122
21	0x3d05a6b4	0.032629684
22	0x3c65f5f4	0.014035691
23	0xbc048842	-0.008089127
24	0xbd9117b1	-0.07084597
25	0xbcecdb9d	-0.028913314
26	0x3cb6ec54	0.022329487
27	0x3cb0a70d	0.021564031
28	0xbdb4945d	-0.088173606
29	0xbd17a365	-0.03702106
30	0xbcd320ff	-0.02577257
31	0xbd0eca07	-0.034860637
32	0x3982d415	0.00024953546
33	0x3adba7e0	0.0016758405
34	0x3c966549	0.018358843
35	0x3c1581e6	0.0091252085
36	0x3c77126d	0.015080077
37	0xbd511c2a	-0.05105225
38	0x3af7da59	0.0018909677
39	0x39efb492	0.00045720168
40	0x39ac1d9e	0.00032828463
41	0xba4bad60	-0.00077696703
42	0xba43dab5	-0.00074712496
43	0x3a2ab19a	0.000651145
44	0x3a2a5905	0.00064982503
45	0xba902337	-0.0010996823
46	0xb98e642c	-0.00027158984
47	0xba3b891d	-0.00071539154
48	0xba3b5d24	-0.0007147363
49	0xba3d68b4	-0.000722538
50	0xba9c66ce	-0.0011932494
51	0xbabad201	-0.001425326
52	0x3cb26d6a	0.021780688
53	0x3cb07594	0.02154044
54	0xbd6745e6	-0.056463145
55	0xbd818d16	-0.06325738
56	0xbb9b1408	-0.0047326125
57	0xbc5fe536	-0.013665488
58	0xbc514503	-0.012772801
59	0xbc8c9299	-0.017159747
60	0x3d18d439	0.037311766
61	0xbc0e0af6	-0.0086696055
62	0x3c855930	0.01627788
63	0xbca0c169	-0.019623475
64	0xbb9ec8c2	-0.0048457095
65	0x3d0ecd42	0.034863718
66	0x3d0bf159	0.034165714
67	0xbb6e172e	-0.0036329734
68	0xbdc4264d	-0.09577618
69	0xbd7903e9	-0.060794745
70	0xbcfb593c	-0.030682199
71	0x3cf13349	0.0294434
72	0x3ba2ba4e	0.004966057
73	0x3b82b313	0.0039886325
74	0x3c3fa2f5	0.011696567
75	0xbd4a8f61	-0.049453143
76	0xbd99d3da	-0.075111106
77	0x3d364ef5	0.044508893
78	0xb967b00d	-0.00022095461
79	0xb92ed53c	-0.00016673369
80	0xb9a511be	-0.0003148447
81	0xba30326a	-0.00067213795
82	0x39b60b4f	0.0003472217
83	0xba23f1be	-0.0006253979
84	0xba4ee601	-0.00078925496
85	0xbafcb289	-0.0019279282
86	0xbb074311	-0.002063934
87	0xba63e7f2	-0.00086939253
88	0x3a6af2ce	0.00089625723
89	0x3a4678f8	0.00075711263
90	0xb97d4458	-0.0002415342
91	0x3c9b3a60	0.018948734
92	0x3ca150d6	0.019691866
93	0xbd5d3b84	-0.054011837
94	0xbda4e481	-0.08051396
95	0xbae1df0a	-0.0017232609
96	0xbc8b283b	-0.016986957
97	0xbc4feb76	-0.012690416
98	0xbce56417	-0.028001828
99	0x3d2270bd	0.039658297
100	0xbca6566a	-0.020304877
101	0x3c4e19f0	0.012579426
102	0x3bd219ff	0.0064117904
103	0x3b5e634e	0.0033933702
104	0x3d126c51	0.03574783
105	0x3d0e98ff	0.034813877
106	0xbee912f9	-0.45522287
107	0xbd616b00	-0.055033684
108	0x3b5a8453	0.0033343032
109	0xbbbd4309	-0.0057758135
110	0xbb4aa836	-0.0030923015
111	0x3c453dbd	0.012038645
112	0x3bccef37	0.0062541026
113	0xbe03b0b3	-0.12860374
114	0x3b949f32	0.004535579
115	0xbb2eda15	-0.002668028
116	0xbd43ff49	-0.04785088
117	0x3a39e000	0.00070905685
118	0x3ab58b2e	0.0013850683
119	0x3b4832b8	0.003054781
120	0xbb108323	-0.002205082
121	0x3af069fa	0.001834213
122	0xbb0c53b2	-0.002141219
123	0xba606d1a	-0.0008561179
124	0xbb0bb894	-0.0021319734
125	0xbb310091	-0.0027008394
126	0x3ab434fb	0.00137487
127	0x3a0cffed	0.0005378712
128	0x3827b142	3.9980987e-05
129	0x3a2cf0b8	0.0006597149
130	0x3cc16fc9	0.023612874
131	0x3cd12fec	0.025535546
132	0xbdc0fb41	-0.09422923
133	0xbd84e48b	-0.064889036
134	0xbb0f1f0b	-0.0021838571
135	0x3c1d0568	0.0095838085
136	0xbcc96291	-0.024583133
137	0xbb9cdcdc	-0.0047870707
138	0x3d152c0c	0.03641896
139	0x3c36219f	0.011116414
140	0xbbeef5fa	-0.0072925063
141	0xbcd9c097	-0.026581092
142	0xbcc9b77f	-0.02462363
143	0xbae1a25f	-0.0017214528
144	0x3aa08742	0.0012247341
145	0x3a1b880d	0.0005933054
146	0xba860796	-0.001022565
147	0x39a856ef	0.00032108228
148	0xbacb693f	-0.0015519037
149	0x3a454825	0.0007525704
150	0xba694a78	-0.00088993413
151	0xba1af87a	-0.00059116597
152	0xba7723c2	-0.00094276306
153	0x38d8a70f	0.000103308
154	0x3aa425be	0.0012523455
155	0xbaad8cd7	-0.0013240826
156	0x3d763649	0.060110364
157	0x3d77d253	0.060503315
158	0xbe38b1b6	-0.18036541
159	0xbe31a6e3	-0.17348818
160	0x3cd3a0c4	0.025833495
161	0xb9bd7de8	-0.00036142697
162	0x3b451fd7	0.0030078792
163	0x3d2fa6c4	0.04288365
164	0x3ba629eb	0.005070915
165	0xbdb5cada	-0.088765815
166	0x3c93e6ba	0.018054355
167	0xbd23e150	-0.040009797
168	0x3ce7bdb1	0.028288694
169	0x3a955430	0.0011392888
170	0x3a4bb85a	0.0007771306
171	0xb8541bd0	-5.057064e-05
172	0xb9e20400	-0.0004310906
173	0xb895dd5a	-7.1461036e-05
174	0x3838964a	4.4008986e-05
175	0x3a6bc251	0.0008993494
176	0x3954de4f	0.00020300712
177	0xbb39109b	-0.0028238657
178	0xba971ed1	-0.001152957
179	0x3a6bbdf8	0.0008992846
180	0x3a292a78	0.0006453167
181	0xbb19125a	-0.0023356886
182	0x3d1b85c4	0.037969366
183	0x3d1dceb1	0.038527194
184	0xbdcb8bd4	-0.099387795
185	0x3e1ad81b	0.151215
186	0x3c87d7bb	0.01658236
187	0x3c39e393	0.011345762
188	0x3b56fa67	0.003280306
189	0xbc01f4c9	-0.0079318965
190	0xbc79d8b5	-0.015249421
191	0x3d0af95f	0.033929225
192	0xbc3b073d	-0.0114153
193	0xbd43a41c	-0.04776393
194	0x3cc81653	0.024424708
195	0xbb005532	-0.001958203
196	0xbb1d0c71	-0.0023963714
197	0x3b3260d5	0.002721836
198	0xbbb75758	-0.005595129
199	0xb9a5d0af	-0.00031626734
200	0xbb12d495	-0.002240454
201	0xbb5dde71	-0.003385451
202	0xbaeddba9	-0.0018147129
203	0xbbb4f975	-0.0055229017
204	0xbaf694e2	-0.0018812681
205	0x3a3dd3f0	0.0007241359
206	0xba81b4dd	-0.000989582
207	0xbb1ad385	-0.002362461
208	0x3c1d9932	0.009619044
209	0x3c0a6b78	0.008448474
210	0xbdd1a0ee	-0.10235773
211	0xbda241e9	-0.079227276
212	0x3cdafa0d	0.026730562
213	0xbc699925	-0.014257704
214	0xbca72c33	-0.020406818
215	0xbbdbec12	-0.0067114914
216	0x3cf74d36	0.030188184
217	0x3cc017a5	0.023448775
218	0x3be9262a	0.007115145
219	0x3c105610	0.008809581
220	0xbca6c31c	-0.020356707
221	0x3cb1a867	0.021686746
222	0x3cbf296b	0.02333518
223	0xbda97a98	-0.08275336
224	0xbdd9a073	-0.106263064
225	0xbd8eb8f2	-0.06968869
226	0xbda61b6f	-0.08110701
227	0xbc9f48f2	-0.019443963
228	0xbda7ea4b	-0.08198985
229	0x3d167d3b	0.036740523
230	0xbcc0394e	-0.023464825
231	0xbc8d1708	-0.017222896
232	0xbcbbd6cb	-0.02292957
233	0x3c6dd474	0.014515985
234	0x3cd6fccf	0.026243595
235	0x3ce00c5a	0.02734964
236	0xbd672eb0	-0.05644101
237	0xbd95b123	-0.07309177
238	0xbc3a5635	-0.011373092
239	0xbc487b93	-0.012236494
240	0x3947a676	0.0001904013
241	0xbc36445d	-0.0111246975
242	0x3cff8503	0.031191355
243	0xbbb845e8	-0.005623568
244	0xbc85e00a	-0.016342182
245	0xbd5727e3	-0.052528273
246	0x3ba39444	0.00499204
247	0x3daee34c	0.08539447
248	0x3dad5540	0.08463526
249	0xbe458f26	-0.19292888
250	0xbdc0b587	-0.094096236
251	0xbce6c891	-0.02817181
252	0x39a46c28	0.000313611
253	0x3a93ea58	0.001128505
254	0x3d4a6ddb	0.049421173
255	0x39cc62a8	0.00038983417

net.0.bias f4 [128]
0	0x3d0ad239	0.03389189
1	0x3d07449c	0.033024415
2	0x3ca484d7	0.020082874
3	0xba995a14	-0.0011699819
4	0x3d0df36f	0.034655984
5	0x3c4ab3b6	0.012371948
6	0xba22f63f	-0.0006216503
7	0x3d198e5e	0.037489288
8	0x3a000521	0.0004883577
9	0xbae15561	-0.0017191583
10	0x3d16fdc8	0.03686312
11	0xba5a48fd	-0.0008326916
12	0x3b9dceda	0.0048159184
13	0xbaccc712	-0.0015623292
14	0xbc8d1f03	-0.017226702
15	0xbbbb453f	-0.005715042
16	0x3cde2e4a	0.027121682
17	0x3d1fafae	0.0389859
18	0x3cfc1352	0.030770931
19	0xba1fcbb3	-0.0006095722
20	0x3c9aab47	0.0188805
21	0x3b84b720	0.0040501505
22	0x3cc42f2e	0.023948278
23	0x3c86f95e	0.01647633
24	0x3cde769f	0.027156172
25	0x3bc8cfa3	0.006128268
26	0x3c9b0036	0.018920999
27	0x3c0fb852	0.008771973
28	0x3b9ae519	0.0047270176
29	0x3d0e9758	0.0348123
30	0xba740785	-0.0009308982
31	0x00000000	0.0
32	0x3bd8e0d8	0.0066186003
33	0xba8bda70	-0.0010669958
34	0x3c25b759	0.010114514
35	0x3d5565b1	0.052098934
36	0x3d0e8c1a	0.03480158
37	0x3d19ec03	0.037578594
38	0x3cc4d52e	0.024027433
39	0xbaaae476	-0.0013038057
40	0xbb222299	-0.002473986
41	0x3d0ec6df	0.034857627
42	0xbac3271b	-0.0014888974
43	0x3cf34717	0.029696984
44	0x3b72485d	0.0036969401
45	0x3cd8017d	0.026367897
46	0xba02354d	-0.0004967049
47	0x3c29dd1c	0.010367658
48	0xbaa41e65	-0.0012521265
49	0xba954a3b	-0.001138992
50	0x3cef2f53	0.02919737
51	0xbb368512	-0.0027850312
52	0xbb572d15	-0.0032833267
53	0xbb4a8f41	-0.003090814
54	0x3c0a1006	0.008426672
55	0x3ccb715c	0.024834327
56	0x3d15a604	0.036535278
57	0xbb884ad6	-0.0041593118
58	0xbb0c5d49	-0.0021417907
59	0x3d13c881	0.036079887
60	0x3d2ee71a	0.042700864
61	0x3d0d448e	0.034489207
62	0x3cf31a7d	0.029675717
63	0x3cfda659	0.03096311
64	0x3d02849c	0.031864747
65	0x3cc4baee	0.024014916
66	0xbb10d295	-0.0022098173
67	0xbcf46076	-0.029831152
68	0x3cabcc30	0.020971388
69	0x3ccd0bb0	0.025029987
70	0x3cffd486	0.031229269
71	0xbab53d6a	-0.0013827507
72	0x3cd54e45	0.026038298
73	0x3c8d55e9	0.01725288
74	0x3d1178e2	0.035515673
75	0x3c4ae2d9	0.012383186
76	0x3d23f593	0.04002912
77	0x3cfba92f	0.030720321
78	0x3ca2ab90	0.019857198
79	0x3d44038a	0.047854938
80	0x3d03f098	0.03221187
81	0x3d108c63	0.035290133
82	0x3d1ff1b5	0.03904887
83	0x3d006671	0.031347696
84	0x3d0b7e8d	0.034056235
85	0x3a861f70	0.0010232758
86	0x3b763af3	0.0037571758
87	0xbaef1fd0	-0.0018243734
88	0xbb0c2fa6	-0.0021390705
89	0x3d2d8613	0.04236419
90	0x3c9f70fc	0.019463055
91	0xbadf3306	-0.0017028756
92	0xbafb0bb8	-0.0019153273
93	0x3d216ec7	0.039412286
94	0xbb30510a	-0.0026903772
95	0xba71e71a	-0.0009227857
96	0x3d260707	0.040534046
97	0x3b6c8837	0.0036091933
98	0x3d346be6	0.044048212
99	0x3ce73de4	0.028227754
100	0x3cec9526	0.028879713
101	0x3d13d12e	0.03608816
102	0xbc82d78c	-0.015971921
103	0x3d071f9f	0.03298914
104	0x3d1391cc	0.036027715
105	0xbd02ac51	-0.031902615
106	0xba61b410	-0.00086099
107	0x3c991407	0.018686308
108	0x3d1e4606	0.038641
109	0x3a080a80	0.0005189553
110	0xba7c45bb	-0.0009623428
111	0x3cfb751c	0.03069549
112	0x3b07ad34	0.0020702602
113	0xbb4eeb85	-0.0031573486
114	0x3c6db1ca	0.01450772
115	0x3cb17211	0.021660836
116	0x3cce7245	0.025200972
117	0xbaeb3686	-0.0017945326
118	0x3ce6e940	0.028187394
119	0xbb05269d	-0.0020317205
120	0x3d25a347	0.040438917
121	0x00000000	0.0
122	0x3c0bf463	0.008542153
123	0x3cefbd1e	0.029264983
124	0xbb17d852	-0.0023169708
125	0x3c20d14b	0.009815524
126	0xbae27c5e	-0.0017279496
127	0x3c708b28	0.014681615

net.2.weight f4 [128, 128]
0	0x394db512	0.00019617777
1	0x3cf07978	0.029354796
2	0xbc924ec7	-0.01785983
3	0x38e619ba	0.000109720466
4	0x3b4a6dcd	0.00308882
5	0xbcdc8bfd	-0.02692222
6	0x39d1baae	0.00040002674
7	0x3c021770	0.007940158
8	0xbed4c611	-0.41557363
9	0xb9b9d706	-0.00035446155
10	0x3cfb7f9f	0.030700503
11	0x3b1a7de1	0.0023573565
12	0xbe0a0fdd	-0.13482614
13	0xbab4728b	-0.0013767047
14	0xbcc0c7b9	-0.023532735
15	0xb9081a02	-0.0001297966
16	0xbc5b5ee8	-0.013389327
17	0xbd0b81d9	-0.03405938
18	0x3c5f5e88	0.013633378
19	0xbcd7de49	-0.026351111
20	0xbc6067dc	-0.013696637
21	0xbc70a75d	-0.01468834
22	0x3be93a23	0.007117526
23	0xbd9ecf4b	-0.07754382
24	0x3c8b0e3f	0.016974567
25	0xbb698289	-0.0035630784
26	0xbcab2cd2	-0.020895395
27	0xbd1b73f5	-0.037952382
28	0x3cc5d05e	0.024147209
29	0x3bd9727a	0.006635961
30	0xba28bb2f	-0.0006436584
31	0x3872b6e1	5.7867615e-05
32	0xbd2de646	-0.042455934
33	0x39969a0b	0.00028725
34	0xbd0339b7	-0.032037463
35	0x3d1812a6	0.03712716
36	0x3c478e54	0.01217993
37	0xbbe832b4	-0.0070861224
38	0xbd810e6d	-0.063015796
39	0xba78ecf1	-0.0009495756
40	0xbaa3936a	-0.0012479846
41	0xbe12b7e3	-0.1432796
42	0xb99f655d	-0.00030402365
43	0xbbd552e7	-0.006510127
44	0xbd727f6d	-0.059203554
45	0x3d22ed29	0.039776955
46	0x3a3414d9	0.00068695616
47	0xbc8e2fe2	-0.017356817
48	0x3a5a7daa	0.00083347654
49	0xba53c400	-0.00080782175
50	0x3d56d123	0.052445542
51	0x3a467a5b	0.0007571333
52	0xbe00fffb	-0.12597649
53	0xbac8edc6	-0.0015329651
54	0xbb70bb5a	-0.0036732764
55	0xbc21c20a	-0.009872923
56	0x3c3d5e67	0.011558152
57	0xba064cae	-0.00051231205
58	0x3baef740	0.005339533
59	0xbc33e507	-0.010979897
60	0x3bd7c236	0.006584431
61	0x3ca68b29	0.020330029
62	0xbc86f8df	-0.016476093
63	0xbc0ef23d	-0.008724746
64	0x3a80ccce	0.0009826662
65	0xbcfa679b	-0.030566981
66	0x3a96cec1	0.0011505709
67	0x3d059801	0.032615665
68	0xbcb59de6	-0.022170018
69	0xb9e3c9c7	-0.0004344715
70	0x3b56e492	0.0032790047
71	0xba8dbfb7	-0.0010814582
72	0xbd2c950a	-0.042134322
73	0x3cd6b8ec	0.026211224
74	0x3c5cb293	0.01347031
75	0xbda7791a	-0.08177395
76	0x3dd86bfb	0.10567471
77	0xbb8e407e	-0.004341184
78	0xbd266bcd	-0.04063015
79	0x3d04aa50	0.032388985
80	0xbc0ddefa	-0.008659119
81	0x3ce1d09f	0.027565299
82	0x3d1465f6	0.03623005
83	0x3d0f3984	0.03496696
84	0x3bbc0cfa	0.0057388516
85	0xbd8fccfd	-0.0702152
86	0xbb8a6154	-0.004223028
87	0xb8a6ab64	-7.947421e-05
88	0x3ab8589b	0.0014064492
89	0xbc9af5cb	-0.018916031
90	0xbce81c36	-0.028333765
91	0x39780ae1	0.00023655176
92	0x3b0540c5	0.0020332795
93	0x3d06ee1b	0.03294192
94	0x3ac1ad88	0.0014776448
95	0xb8a32ce8	-7.78081e-05
96	0x3dd84390	0.105597615
97	0xbd84eb6c	-0.06490216
98	0x3dd72596	0.10505216
99	0x3c221bd1	0.009894327
100	0xbd750fbb	-0.059829455
101	0x3ce5f146	0.02806915
102	0xbd3762a5	-0.04477181
103	0xbc45c612	-0.012071149
104	0xbc2b2740	-0.01044637
105	0xbe5fa92f	-0.21841882
106	0xba79938c	-0.00095205824
107	0x3d0ffaab	0.035151165
108	0xbc54b17d	-0.01298177
109	0xbddadd46	-0.10686736
110	0xb76b0a83	-1.4009539e-05
111	0x3b913811	0.0044317325
112	0xbd483cbc	-0.048886046
113	0xbb103f42	-0.002201036
114	0x3c118d66	0.00888381
115	0xbd997c10	-0.07494366
116	0xbc0779f0	-0.008268818
117	0x3ac071ef	0.0014682392
118	0xbbb40ad9	-0.005494457
119	0x3a7229c3	0.00092377904
120	0xbd20b66a	-0.039236464
121	0x39ee0933	0.0004540175
122	0xbd0fb3bd	-0.03508352
123	0x3b7531a4	0.0037413621
124	0xb5c55b1b	-1.4704159e-06
125	0xba60c85c	-0.0008574778
126	0xbaef0c30	-0.0018237885
127	0x3e1789ba	0.14798632
128	0xba6d1bbe	-0.00090449664
129	0x3a4b1524	0.00077469856
130	0xba27dfd3	-0.0006403897
131	0x3a8c4d4c	0.0010704189
132	0xbaf8f0c4	-0.0018992652
133	0x39810635	0.00024609422
134	0xba1d78b4	-0.0006007061
135	0xbab969f4	-0.0014145956
136	0xb9005902	-0.00012240189
137	0xb91a01f5	-0.00014687314
138	0x391f1810	0.00015172386
139	0x38dadd83	0.0001043631
140	0x3a8f8a43	0.0010951239
141	0x3aad3076	0.0013213295
142	0x3aa14fd1	0.0012307112
143	0xb98462bb	-0.00025250562
144	0x38e5b90b	0.00010954038
145	0xb8a55f0f	-7.885519e-05
146	0xb949e8ed	-0.00019255625
147	0xbab660a7	-0.0013914303
148	0xba5e3f4a	-0.0008478059
149	0xba7bcd51	-0.00096054847
150	0x397bf6e1	0.00024029195
151	0x393e6c67	0.00018160195
152	0xba4e5eac	-0.00078723836
153	0xba097891	-0.0005244101
154	0x3a542a48	0.00080934586
155	0xb858125e	-5.151552e-05
156	0xbaa4a22b	-0.0012560537
157	0xb9d7f56f	-0.00041190858
158	0xba29fc4d	-0.0006484434
159	0xb942adf4	-0.00018566084
160	0x3a436dc3	0.00074550154
161	0xbac897c9	-0.0015304025
162	0xb9fb5b31	-0.00047942394
163	0xba82f536	-0.0009991291
164	0xba8c7d7f	-0.0010718553
165	0xb7a7a20e	-1.9983414e-05
166	0x3a3ddc9c	0.0007242651
167	0xb89fbe19	-7.617119e-05
168	0x39b892dd	0.00035204637
169	0xba951f2d	-0.0011377089
170	0xb70803d9	-8.1071275e-06
171	0x3aaa2b9c	0.0012982967
172	0xba52dd43	-0.0008043835
173	0xba1eea58	-0.00060621416
174	0x38e460e1	0.00010889932
175	0x3a036882	0.00050128263
176	0xba5c5030	-0.0008404283
177	0x383b8ddd	4.4716395e-05
178	0xbaa89739	-0.0012862451
179	0xba6458b4	-0.00087107276
180	0x3a0487a1	0.00050556107
181	0xb9a584bd	-0.0003157015
182	0x3a8a9cbb	0.0010575274
183	0x3ac03db4	0.0014666826
184	0xb77a757d	-1.4928516e-05
185	0xba78bd02	-0.00094886136
186	0xba9fe433	-0.0012198746
187	0x39631e08	0.00021659594
188	0xba921f9f	-0.001114834
189	0x38f10d9f	0.00011494313
190	0xbb0b6d93	-0.0021275028
191	0xbabdbe2f	-0.0014476235
192	0xb9669a8c	-0.00021992082
193	0xba8b48be	-0.0010626537
194	0xbb03cf3d	-0.0020112537
195	0xba789b71	-0.0009483612
196	0xb7dcd3f9	-2.6324751e-05
197	0x39d78d52	0.00041113287
198	0x3978f2b2	0.00023741534
199	0xba2f3df1	-0.000668495
200	0xba9fc7d8	-0.0012190295
201	0xba6902f2	-0.00088886835
202	0xbab8dbdb	-0.0014103608
203	0x3a6b1e7a	0.000896908
204	0xbad4c730	-0.0016233679
205	0xb9378df9	-0.00017505129
206	0xb94065d3	-0.0001834848
207	0x3a18fff5	0.00058364804
208	0x39f6237b	0.0004694721
209	0xba815fa6	-0.0009870424
210	0xb9a72969	-0.00031883575
211	0x383952df	4.4184617e-05
212	0xbadc2564	-0.0016795811
213	0x3a76cf78	0.00094150705
214	0xba7abcd6	-0.0009564882
215	0x3a0e4097	0.0005426495
216	0x3a242a8f	0.0006262445
217	0xb9f6a0a7	-0.00047040472
218	0x3a39f12e	0.00070931285
219	0x3a7b9094	0.0009596434
220	0xb9746e9e	-0.00023310861
221	0xba5e2280	-0.0008473769
222	0x39ed53f0	0.000452667
223	0xb94398f1	-0.00018653624
224	0xb9fd850b	-0.00048355045
225	0x3b192bfa	0.002337216
226	0xba0063c0	-0.00048976764
227	0xba7d11a4	-0.0009653813
228	0xba675c78	-0.00088257296
229	0x392e6993	0.00016633263
230	0x3a055c0e	0.00050872646
231	0x3a3d4cf3	0.0007221244
232	0x3947aecd	0.00019043237
233	0xb973e21e	-0.00023258521
234	0x3a1b4202	0.00059226167
235	0xb998a2d1	-0.00029113007
236	0xbaef9132	-0.0018277525
237	0x399ef419	0.00030317975
238	0xb645f069	-2.9495225e-06
239	0x3a01b8c2	0.00049484905
240	0xbb1dd9d1	-0.0024086128
241	0x39db521d	0.00041832114
242	0xba6e2230	-0.0009084074
243	0xbabd33a7	-0.0014434949
244	0x3a0101e8	0.00049212435
245	0x39ce77e5	0.0003938071
246	0x3992f21e	0.0002802768
247	0xb93d2f15	-0.00018041984
248	0xbab10ac9	-0.0013507243
249	0x3ae96201	0.0017805697
250	0xbaa36ac1	-0.0012467728
251	0xba80744a	-0.0009800282
252	0xba972c56	-0.0011533599
253	0x3a6a7e04	0.00089451694
254	0xba8a0e86	-0.0010532893
255	0x3ac0e008	0.0014715204

net.2.bias f4 [128]
0	0x3d3c6465	0.04599418
1	0xbb4cdafa	-0.003125845
2	0x3cc96795	0.024585525
3	0xbb2b4731	-0.0026134963
4	0x3c807848	0.015682355
5	0x3d3d047b	0.04614685
6	0xbb6d000a	-0.0036163353
7	0x3c8656f1	0.016398879
8	0xbaf248df	-0.0018484852
9	0xba1d4a26	-0.00060001237
10	0x3c72ac95	0.014811655
11	0xba1d0abc	-0.0005990674
12	0x3c6f87de	0.014619796
13	0xbb55f135	-0.0032644991
14	0x3c8615f7	0.016367896
15	0x3c8b0287	0.016968979
16	0x3d413041	0.04716516
17	0x3c844ef4	0.016150929
18	0x3c809276	0.015694838
19	0xbb382d9c	-0.0028103357
20	0x3c771c51	0.015082435
21	0x3c83204a	0.016006608
22	0xbb2241f0	-0.002475854
23	0x3c94fcaf	0.018186895
24	0x3d3d6a33	0.046243858
25	0x3cc4d7b0	0.024028629
26	0xba1b69b6	-0.0005928533
27	0xbb287a04	-0.0025707493
28	0xba1ce49f	-0.0005984995
29	0x3cf66cc2	0.030081157
30	0xba1c591e	-0.0005964207
31	0x3ca9104d	0.020637656
32	0x3d41582f	0.04720324
33	0xba1d0226	-0.0005989395
34	0xba1caac4	-0.0005976374
35	0x3cfa8099	0.030578898
36	0xbcb7184f	-0.022350458
37	0xbb4c4034	-0.0031166198
38	0xbb2d331e	-0.0026428173
39	0x3c8a06bf	0.01684892
40	0x3c8f2d5c	0.017477684
41	0xbd8b6538	-0.06806415
42	0xbb3b4cd1	-0.0028579722
43	0xba1b51bd	-0.0005924961
44	0x3cca2a24	0.024678297
45	0x3c137c2e	0.009001775
46	0xbb719bcf	-0.003686655
47	0xbb43c24c	-0.0029870449
48	0xbb2f9527	-0.0026791783
49	0x3d474669	0.048651133
50	0xbbbf8683	-0.0058448925
51	0x3c8bbeaa	0.01705869
52	0x3e5440ee	0.20727894
53	0x3d430fe4	0.047622576
54	0xba1b39b8	-0.00059213815
55	0x00000000	0.0
56	0xba35add4	-0.00069305045
57	0xbb5b7c16	-0.003349071
58	0x3c01781a	0.00790217
59	0x3cec3f3f	0.028838752
60	0xbb0f00d5	-0.0021820564
61	0xbaf84ab9	-0.0018943168
62	0x3c8a4013	0.016876256
63	0x3d3d234f	0.04617625
64	0xbb024931	-0.0019880051
65	0xbb5d7369	-0.0033790714
66	0xba1d079e	-0.000599021
67	0x3d60b524	0.05486025
68	0x3c55ea0c	0.013056289
69	0x3d3fa41e	0.046787374
70	0x3d3d970b	0.046286624
71	0xbb40203c	-0.0029316088
72	0x3c87e2e1	0.016587676
73	0x3c8a55cb	0.016886612
74	0xba1d1c3e	-0.0005993283
75	0x3d46504f	0.048416432
76	0x3d3f1485	0.04665043
77	0xba1bb7d3	-0.00059401727
78	0xba1d4af6	-0.0006000245
79	0x3d3de335	0.04635926
80	0xba1d0bdd	-0.00059908425
81	0xba1c61c2	-0.0005965495
82	0x3d3d0b65	0.046153445
83	0xba1c5957	-0.00059642404
84	0xbb80b200	-0.0039274693
85	0xbb80de1a	-0.0039327266
86	0xbb1afd5d	-0.0023649551
87	0x3c93657d	0.01799273
88	0xbac9bae7	-0.0015390784
89	0xba92bc0c	-0.0011194958
90	0x3c9f7c13	0.019468343
91	0x3ce4ad95	0.027914802
92	0xbb245b2f	-0.0025078764
93	0x3cf4f03e	0.029899713
94	0x3c86d127	0.016457153
95	0xbabc9bac	-0.0014389656
96	0xbb617ac9	-0.003440546
97	0xba92b397	-0.0011192438
98	0x3cdba85d	0.02681368
99	0xbb58fc78	-0.0033109467
100	0x3cc1adba	0.02364241
101	0xba1d1919	-0.00059928145
102	0xba01a5c7	-0.0004945662
103	0xbb63c4f5	-0.0034754847
104	0x3d3c7891	0.04601342
105	0x3d138822	0.0360185
106	0xbb51e725	-0.0032028642
107	0xbb593150	-0.0033140965
108	0x3c8ee9c6	0.017445456
109	0xba9ba7eb	-0.0011875605
110	0xba103a80	-0.0005501881
111	0xba1c975e	-0.0005973483
112	0xba1d115a	-0.00059916603
113	0xba1c8afb	-0.00059716374
114	0x3ca74935	0.02042065
115	0xba1b90ac	-0.00059343386
116	0xbb473546	-0.0030396744
117	0x3d3af718	0.045645803
118	0x3d168ed9	0.036757324
119	0x3d185086	0.037186168
120	0x3d8d302e	0.06893955
121	0xba1d1fb5	-0.00059937994
122	0x3d3d323c	0.046190485
123	0xba1cfd2f	-0.0005988655
124	0x3c9439d4	0.01809398
125	0xbb1f1d64	-0.0024278993
126	0x3c639781	0.013891102
127	0x3c9ef03e	0.019401666

net.4.weight f4 [64, 128]
0	0xbc0f788f	-0.008756771
1	0x3a0b9caf	0.0005325777
2	0xbea9a99f	-0.33137223
3	0x38d9a688	0.00010378385
4	0xbebad58e	-0.36491054
5	0xbca6c572	-0.020357821
6	0xba01f9fb	-0.00049582095
7	0xb7c95cce	-2.4004283e-05
8	0xb9a80d09	-0.0003205317
9	0x3a16ba0d	0.00057497696
10	0xbec11417	-0.3771064
11	0x39ced995	0.00039453493
12	0xbdbde17a	-0.09271522
13	0xba62f51c	-0.000865774
14	0xbb057e83	-0.0020369596
15	0xb9484d6a	-0.00019102325
16	0xbd48b427	-0.04899993
17	0xbb141cd4	-0.002260019
18	0xbebd9e5b	-0.37034878
19	0x3a2de2f0	0.00066332426
20	0xbdb86e96	-0.090054676
21	0xbdb8eacc	-0.09029159
22	0xba3d2049	-0.00072145887
23	0xbec2e72e	-0.38067
24	0xbcba66c5	-0.022754082
25	0xbec56a15	-0.38557497
26	0xbaead41c	-0.0017915997
27	0x3a40d9f1	0.00073566946
28	0xb9ba83ff	-0.0003557503
29	0xbea7c145	-0.3276464
30	0x398d563f	0.00026957874
31	0x3c30fa87	0.010801918
32	0xbd3db0f8	-0.04631135
33	0xb965f3d4	-0.00021929975
34	0xb8a573f4	-7.889411e-05
35	0xbe8cfe19	-0.2753761
36	0xbd87888a	-0.0661784
37	0xbb551472	-0.0032513407
38	0x3aa38a95	0.0012477214
39	0xbd937ada	-0.072011665
40	0xbebbba84	-0.36665738
41	0xbd6353ea	-0.05549995
42	0x36d82a3a	6.4422175e-06
43	0x3aaa858a	0.0013009768
44	0xbea4d3fe	-0.32192987
45	0xbdd352ea	-0.10318549
46	0xb9f950dd	-0.0004755323
47	0xb9d0eba7	-0.00039848426
48	0x37fc0eb5	3.004759e-05
49	0x3c9e9852	0.019359741
50	0x39d78a28	0.0004111093
51	0xbb18285a	-0.002321741
52	0xbcb83c5d	-0.022489721
53	0xbd730825	-0.05933394
54	0xb98d55e0	-0.00026957598
55	0x3a3251d5	0.0006802355
56	0xb9a76e4b	-0.00031934897
57	0xbacb9a89	-0.0015533726
58	0xbdd29c6f	-0.102837436
59	0xbea3e7f5	-0.32012907
60	0x3b047d8e	0.0020216438
61	0xb91647b1	-0.00014331822
62	0xb939de66	-0.00017725825
63	0xbc8469b0	-0.016163677
64	0x3aae6430	0.0013305005
65	0xba0fbb72	-0.00054829486
66	0xba98c1ec	-0.0011654473
67	0xbe586e73	-0.21135883
68	0xbec36225	-0.38160816
69	0x3a9c1df4	0.0011910782
70	0xb819dbf5	-3.6682894e-05
71	0x3a27d99c	0.0006402971
72	0xbb0ae6de	-0.0021194736
73	0xbdba0bc7	-0.090842776
74	0xb8570dbe	-5.1272793e-05
75	0xbe558da2	-0.2085481
76	0x3b0f4612	0.0021861834
77	0x3a0a3767	0.0005272538
78	0x3aa0acf2	0.0012258573
79	0x3c26a889	0.010172018
80	0xba10472f	-0.0005503771
81	0xb93a5790	-0.00017770962
82	0xbcb02dc7	-0.021506203
83	0x389d396f	7.497041e-05
84	0xbab6c0b8	-0.0013942933
85	0x3b8654cf	0.0040994654
86	0xbaa3b964	-0.0012491164
87	0xbec1a890	-0.37823915
88	0xba958873	-0.0011408463
89	0xb84d1724	-4.889736e-05
90	0xbeaee07b	-0.3415564
91	0xbea9a5de	-0.3313436
92	0x3a008117	0.00049020484
93	0xbe987447	-0.29776213
94	0x3a14b5ce	0.0005672843
95	0xbaeda9ec	-0.0018132306
96	0x3b7eeaf8	0.0038897377
97	0xb8fba4cf	-0.00011999311
98	0xbe97dff8	-0.29663062
99	0x39880da1	0.00025950096
100	0xbec34b76	-0.3814351
101	0xbab81315	-0.0014043773
102	0xb90f4975	-0.00013664908
103	0x38e7656f	0.00011033832
104	0xbc96aede	-0.01839393
105	0xbe6923a3	-0.227675
106	0x3a32ded5	0.00068233657
107	0x3a38f389	0.00070553325
108	0x3b38ac96	0.002817904
109	0x3a515e56	0.00079867744
110	0x3967c550	0.00022103381
111	0xb9e552dc	-0.0004374002
112	0x39cdb1e7	0.00039233195
113	0xba27a155	-0.0006394585
114	0x3c59d429	0.013295212
115	0xb78aeafe	-1.6560309e-05
116	0x38f5aaf9	0.000117143565
117	0xbc802cc0	-0.015646338
118	0xbe6b9bbd	-0.23008628
119	0xbe66c94e	-0.22537729
120	0xbe0cbcd7	-0.13743912
121	0x3a1cf4d4	0.000598741
122	0xbb086cfb	-0.002081691
123	0xba9ae49a	-0.0011817396
124	0xbebff6b4	-0.37492907
125	0x3a004bf3	0.000489413
126	0xbdb0f49f	-0.08640408
127	0xbdbc822b	-0.09204515
128	0xbdd7918a	-0.10525806
129	0x3987fad2	0.00025936082
130	0xbeb069bb	-0.34455666
131	0xb9d1e730	-0.00040035835
132	0xbf2ad756	-0.66734827
133	0xbde1c208	-0.11023337
134	0x39c34d0b	0.000372507
135	0xbd9a5d6f	-0.07537352
136	0x3a06fb56	0.00051491463
137	0xba7d0714	-0.0009652239
138	0xbf138894	-0.57630277
139	0xba04fc51	-0.00050729985
140	0xbe803e37	-0.25047466
141	0xbb0686c8	-0.0020527113
142	0xbd9bc8eb	-0.076066814
143	0xbd93d6d4	-0.072187096
144	0xbdf91814	-0.12162796
145	0xbd9ee554	-0.077585846
146	0xbee4ec9d	-0.44711772
147	0xbac91407	-0.0015341052
148	0xbe6fed96	-0.23430476
149	0xbe7f73f7	-0.24946581
150	0x3b102c4a	0.0021999055
151	0xbf248fbb	-0.64281815
152	0xbde2ea9b	-0.11079904
153	0xbf1991fe	-0.5998839
154	0x3a2a0b88	0.00064867036
155	0x3ad2dc97	0.0016087469
156	0x3ac2b1cd	0.0014854014
157	0xbeb199e8	-0.34687734
158	0xbaa8b705	-0.0012871927
159	0xbd873765	-0.066023625
160	0xbdfbc86d	-0.122940876
161	0x391adf9b	0.00014769884
162	0xba424b99	-0.00074117776
163	0xbe73ffba	-0.2382802
164	0xbe1e3701	-0.1545067
165	0xbb0fb62f	-0.0021928658
166	0x3b1431d3	0.0022612705
167	0xbe9046d0	-0.28179026
168	0xbf2980b2	-0.66212
169	0xbe530711	-0.20608164
170	0x39ef1adc	0.00045605644
171	0xb8a760bd	-7.9811995e-05
172	0xbe58d422	-0.21174672
173	0xbe7fbfc0	-0.2497549
174	0x3a1a9bb4	0.00058978354
175	0x3a419e40	0.0007385947
176	0x3a853bf7	0.0010164966
177	0xbdbc8001	-0.09204102
178	0xba9a338f	-0.0011764633
179	0xbd959d22	-0.07305361
180	0x3dce44b6	0.10071699
181	0xbdfe03a9	-0.12403042
182	0x3a1ca4f2	0.00059755065
183	0x38e2aa10	0.000108081964
184	0x39b45c05	0.00034400835
185	0x3ab51229	0.0013814616
186	0xbe7cb793	-0.24679403
187	0xbe98ade7	-0.29820177
188	0xbb0c7065	-0.0021429297
189	0x374373e1	1.1649886e-05
190	0xbd96fa70	-0.07371986
191	0xbde393dd	-0.11112187
192	0x397f6bcd	0.00024358854
193	0xb97edf26	-0.00024306457
194	0x39f3d9f5	0.00046510962
195	0xbe8494f7	-0.258949
196	0xbf05d91f	-0.52284425
197	0xbdd0e599	-0.10200042
198	0xbdcd72e0	-0.10031676
199	0x3a7b35ca	0.00095829053
200	0xbd93001e	-0.07177757
201	0xbe7cfe8c	-0.24706477
202	0xba339ebc	-0.00068519614
203	0xbe9b92f2	-0.30385548
204	0xbdccd344	-0.10001233
205	0x3a1049ec	0.0005504179
206	0xbab82a20	-0.001405064
207	0xbdc4cf88	-0.09609896
208	0xb922b91b	-0.00015518481
209	0xba6d2cca	-0.00090475066
210	0xbde5b461	-0.11216045
211	0xba1b902d	-0.00059342646
212	0xb7a165ec	-1.9240157e-05
213	0x3adfc0de	0.0017071029
214	0x3a2f68c4	0.00066913315
215	0xbf1ee3b2	-0.62066185
216	0x3aa74d05	0.0012764042
217	0x3a2bed4a	0.0006558491
218	0xbeb82742	-0.3596745
219	0xbeb6bb0c	-0.3568958
220	0xbaa9f568	-0.0012966814
221	0xbe8ed487	-0.2789652
222	0xbd968043	-0.07348683
223	0xbaa72d58	-0.0012754602
224	0x3b06faac	0.002059619
225	0x38c3311b	9.307471e-05
226	0xbe78d502	-0.24300006
227	0x39afa7a0	0.0003350349
228	0xbf09c338	-0.53813505
229	0xb9ffb77b	-0.00048774094
230	0xbb345552	-0.0027516675
231	0x39e71a61	0.00044079407
232	0xbde1ecd0	-0.110314965
233	0xbe8cf378	-0.27529502
234	0x3a78e8ff	0.00094951683
235	0x3ae8c038	0.0017757481
236	0xbd91cfc1	-0.07119704
237	0xba2e0f9e	-0.00066399004
238	0xb9ea973a	-0.0004474463
239	0x3a0cbdc9	0.00053688564
240	0x3a00a0d7	0.00049067795
241	0x3aad07f4	0.0013201223
242	0xbd80e280	-0.062932014
243	0x39334ebf	0.00017100105
244	0x3a2aceb9	0.00065157894
245	0xbddbcaed	-0.107320644
246	0xbe8cda59	-0.27510336
247	0xbe912229	-0.28346375
248	0xbe7814b0	-0.24226642
249	0x3a80eec4	0.0009836783
250	0xbdd483e4	-0.10376719
251	0x3a72fcbf	0.00092692295
252	0xbf2334d2	-0.6375247
253	0x3995e6aa	0.00028591353
254	0xbe6d6c6c	-0.23185891
255	0xbe7d31be	-0.24726006

net.4.bias f4 [64]
0	0xbd0ec2d4	-0.03485377
1	0x3de630cc	0.11239776
2	0x3e27e8d4	0.1639741
3	0xbdd2524c	-0.10269603
4	0xbc487c72	-0.012236701
5	0xbda3f0fe	-0.0800495
6	0x3cd3d6db	0.025859287
7	0xbca86aac	-0.020558678
8	0xbe4dcc77	-0.20097528
9	0x3db30676	0.08741467
10	0x3dd0a3f9	0.10187525
11	0xbdb0c6b1	-0.086316474
12	0xbd6bc6de	-0.0575627
13	0xbda8258a	-0.08210285
14	0x3d987f07	0.074461035
15	0x3e0257de	0.12728831
16	0xbe2caecc	-0.16863555
17	0x3cc9f018	0.024650618
18	0xbbc5107e	-0.006013929
19	0xbd1fcd3d	-0.03901409
20	0x39ea5dca	0.00044701836
21	0x3c8e67f9	0.017383562
22	0x3ddb6eb1	0.10714472
23	0xbd2f6479	-0.042820428
24	0xba98c243	-0.0011654574
25	0x3d80d240	0.06290102
26	0xbc675ccf	-0.014121248
27	0x3e15a497	0.14613567
28	0x3d80942d	0.06278262
29	0xbddf9645	-0.109173335
30	0x3df2a05f	0.118469946
31	0xbd755d9c	-0.059903726
32	0xbd1d5cca	-0.03841857
33	0x3da54c68	0.08071214
34	0x3d3aad31	0.045575324
35	0x3e84cdc0	0.25938225
36	0x3dfa55af	0.12223374
37	0xbd053759	-0.032523487
38	0xbc317d11	-0.010833041
39	0xbe19ef40	-0.15032673
40	0xbda42d16	-0.08016412
41	0x3d245945	0.040124197
42	0xbc401e64	-0.011725996
43	0x3cc2ef0b	0.023795625
44	0xbd858201	-0.06518937
45	0xbd27636f	-0.04086631
46	0x3e0b2eb5	0.13592036
47	0x3d1cdb53	0.0382951
48	0x3e708e86	0.23491868
49	0xbd2c0ec2	-0.04200626
50	0xbaef7181	-0.001826808
51	0x3e143616	0.14473757
52	0x3d666244	0.056246057
53	0x3da33fd2	0.07971157
54	0xbe3b0081	-0.18261911
55	0x3d9719ae	0.07377945
56	0xbdb624e6	-0.088937566
57	0x3b225858	0.0024771895
58	0x3bdf3552	0.006811776
59	0x3d8c0dd9	0.06838579
60	0x3e313a90	0.17307496
61	0xbe03b485	-0.12861831
62	0xbd957e76	-0.07299511
63	0xbdd2aba5	-0.10286645

mean_head.weight f4 [1, 64]
0	0x3dcb5f1e	0.099302515
1	0x3ed9cc5b	0.42538723
2	0x3c438f3d	0.011936006
3	0xbecc6495	-0.39920488
4	0x3e03c45d	0.12867875
5	0xbea6d243	-0.32582292
6	0x3e43feb5	0.19140132
7	0x3deff25b	0.117161475
8	0xbd19cb62	-0.037547477
9	0xbd3f4694	-0.046698168
10	0x3ecc1409	0.39859036
11	0xbeb0f1b6	-0.3455941
12	0xbe8603a1	-0.26174644
13	0xbeabefc1	-0.33581355
14	0xbd6c8e36	-0.05775281
15	0x3ee25417	0.4420478
16	0xbc76ddaf	-0.015067502
17	0x3e3f8597	0.18703304
18	0xbe1ecfd2	-0.15508965
19	0xbe5ea90d	-0.21744175
20	0x3e16974b	0.14706151
21	0x3e32621a	0.17420235
22	0x3ed42ff6	0.4144284
23	0xbe695036	-0.22784504
24	0xbe18732d	-0.14887686
25	0xbd8d82be	-0.06909703
26	0xbe2cfcde	-0.16893336
27	0xba5b6fae	-0.00083708286
28	0x3e8cf01f	0.27526948
29	0x3ceda10a	0.029007453
30	0x3ede8c98	0.4346664
31	0xbe8936d1	-0.26799634
32	0x3dc3132a	0.0952514
33	0x3ea9d25c	0.33168304
34	0x3e6fdb20	0.23423433
35	0x3da38cd2	0.07985844
36	0xbc93ddfa	-0.018050183
37	0xbe509143	-0.20367913
38	0x3e057489	0.13032736
39	0xbb5d5c81	-0.003377706
40	0xbea76ffa	-0.3270262
41	0xbdbf01f7	-0.09326547
42	0xbe2927df	-0.16519116
43	0x3e3f101c	0.18658489
44	0x3d88ff0b	0.066892706
45	0xbe635fc7	-0.22204505
46	0xbc073df3	-0.008254516
47	0xbdc245b0	-0.09485948
48	0x3d7c6c65	0.06162681
49	0x3dbafe4b	0.09130534
50	0xbe18e576	-0.14931282
51	0xbad344fb	-0.001611858
52	0x3e840594	0.25785506
53	0xbd57f8a1	-0.052727345
54	0xbcccf740	-0.025020242
55	0xbd70b240	-0.058763742
56	0x3d3657e2	0.044517405
57	0xbe13874c	-0.1440708
58	0x3e210717	0.15725361
59	0xbd82a046	-0.06378226
60	0x3c954d0c	0.018225215
61	0xbee39400	-0.44448853
62	0xbe9e2144	-0.30884755
63	0x3d092bfa	0.033489205

log_std_head.weight f4 [1, 64]
0	0x3d91f4b3	0.07126751
1	0xbd8b096e	-0.06788908
2	0xbe0b2cd1	-0.13591315
3	0x3d6f298c	0.05838923
4	0x3d64f57e	0.055898182
5	0x3cf73ce3	0.0301804
6	0x3ccc16a3	0.024913138
7	0x3d7e1187	0.062028434
8	0x3e18b541	0.14912893
9	0xbdd6874a	-0.10475023
10	0xbd610037	-0.054931846
11	0x3d179520	0.03700745
12	0x3bc516fc	0.006014703
13	0x3d01a1e1	0.03164852
14	0xbdc48537	-0.09595721
15	0xbdb40cda	-0.08791514
16	0x3e0d7e46	0.138177
17	0x3ccd2230	0.025040716
18	0xbd254ee0	-0.040358424
19	0xbc4ff1a5	-0.01269189
20	0x3d37fa65	0.04491653
21	0x3d03d1dc	0.03218256
22	0xbd7fc312	-0.062441893
23	0xbc110b03	-0.008852723
24	0xbd3dc416	-0.04632958
25	0xbdb7b804	-0.08970645
26	0xbd0eb4ce	-0.034840398
27	0xbe056b40	-0.13029194
28	0xbc337016	-0.010952016
29	0x3dec4ff4	0.11538687
30	0xbd9b63d3	-0.07587399
31	0x3bf9bbac	0.007621249
32	0x3d98ff60	0.07470584
33	0xbcfaaed9	-0.030600952
34	0x3be3af69	0.0069484008
35	0xbe305af5	-0.17222197
36	0xbdf5d9a4	-0.12004402
37	0xbc9601a2	-0.018311325
38	0x3d5cb1a1	0.053880338
39	0x3e06d40a	0.13166824
40	0x3cfdd512	0.030985389
41	0xbd999d19	-0.07500667
42	0xbd147813	-0.036247324
43	0x3cd91458	0.026498958
44	0x3dbb66be	0.09150456
45	0xbc378db0	-0.0112032145
46	0xbe0363a8	-0.12830985
47	0xbd971058	-0.07376164
48	0xbe260572	-0.16213015
49	0x3d9c4ba3	0.07631614
50	0xbd3cf84e	-0.04613524
51	0xbe03fe6e	-0.12890026
52	0xbba94eec	-0.005166879
53	0xbdccb652	-0.09995712
54	0x3e122450	0.14271665
55	0xbdc508f7	-0.096208505
56	0x3dd4ebbd	0.10396526
57	0xbd47d62d	-0.04878824
58	0x3d240d66	0.04005184
59	0xbdbfeced	-0.09371362
60	0xbe0e595e	-0.13901278
61	0x3db52d95	0.08846585
62	0x3cc04790	0.023471624
63	0x3de621ac	0.11236891

q1.0.weight f4 [128, 14]
0	0xbdc75a71	-0.09734047
1	0xbe006951	-0.12540175
2	0xbed0d324	-0.40786088
3	0x3ea1ef7e	0.3162803
4	0x3d19b053	0.03752167
5	0xbe7ed7bd	-0.24886985
6	0x3d91953e	0.07108544
7	0x3e6d4605	0.23171242
8	0x3e9cad4f	0.30600974
9	0xbe9d02f7	-0.30666324
10	0xbc90b824	-0.01766593
11	0x3da27efb	0.07934376
12	0x3e62fa36	0.2216576
13	0xbc2a9eea	-0.010413865
14	0x3e377aad	0.17917891
15	0xbe5f6803	-0.21817021
16	0x3e809ccd	0.2511963
17	0x3edcee98	0.43150783
18	0x3eb5aa1e	0.35481352
19	0xbd871e1e	-0.06597541
20	0xbc7d7782	-0.015470387
21	0x3e854ecd	0.26036683
22	0xbe7bc1f1	-0.24585702
23	0xbe316ab6	-0.17325863
24	0xbe7f2728	-0.2491728
25	0x3ed0856d	0.40726796
26	0x3e91567d	0.28386298
27	0xbe2bfc71	-0.16795518
28	0xbe53dbdd	-0.2068934
29	0xbde0be7e	-0.109738335
30	0x3eb19df5	0.34690824
31	0x3e970c6e	0.2950167
32	0xbf3a4535	-0.7276185
33	0xbe876215	-0.26442018
34	0xbd88e91f	-0.06685089
35	0xbe022bea	-0.12712064
36	0xbdbc2095	-0.09185902
37	0xbe75f3b8	-0.24018753
38	0x3cd0dbe9	0.025495486
39	0x3ea3154e	0.31852192
40	0xbe0a0c7e	-0.13481328
41	0xbd3ad946	-0.045617364
42	0xbe00dcc8	-0.12584221
43	0xbd799e26	-0.060941838
44	0xbf35d450	-0.7102709
45	0x3e8b376e	0.27190727
46	0xbe4b509f	-0.19854973
47	0x3e8dc6b8	0.27690673
48	0xbd552946	-0.052041315
49	0x3eb8e1e0	0.3610983
50	0x3d74f8df	0.059807654
51	0xbdcacf95	-0.099028744
52	0x3e3105e7	0.17287408
53	0xbe0f249d	-0.1397881
54	0xbe32ef85	-0.17474182
55	0xbdea4436	-0.114387915
56	0x3dac0033	0.083984755
57	0xbe15707e	-0.14593694
58	0x3d92961b	0.071575366
59	0xb891d278	-6.953342e-05
60	0x3d35bfe4	0.044372454
61	0xbe4c687f	-0.19961737
62	0xbe41449d	-0.1887383
63	0x3d849558	0.064737976
64	0x3dba777d	0.09104822
65	0xbdd20b7d	-0.102560975
66	0xbe522a7a	-0.20524016
67	0xbc275a79	-0.010214441
68	0x3d7d70f6	0.061875306
69	0x3c37ee15	0.011226197
70	0xbc75baa6	-0.014998114
71	0xbc0dfdf1	-0.008666501
72	0x3e25e66c	0.1620118
73	0x3e68a260	0.22718191
74	0x3eeaca59	0.45857504
75	0xbe8033ef	-0.25039622
76	0x3e234dda	0.15947667
77	0xbe09f9ed	-0.13474245
78	0x3dc88648	0.09791237
79	0xbda9410e	-0.08264361
80	0xbf066ecd	-0.5251282
81	0xbe93ae29	-0.2884381
82	0xbe6820ce	-0.22668764
83	0xbd85e369	-0.06537516
84	0xbe746b75	-0.23869117
85	0x3df0d020	0.11758447
86	0xbe15484b	-0.14578359
87	0x3ed39826	0.41327018
88	0xbe255f56	-0.16149649
89	0xbeb8d9ef	-0.3610377
90	0x3c592536	0.013253501
91	0xbf592589	-0.848229
92	0x3e480a71	0.19535233
93	0xbe9e4268	-0.3091004
94	0x3c80e6c4	0.015735038
95	0x3e29c0ef	0.16577505
96	0xbe6c50bf	-0.23077677
97	0xbc806be4	-0.015676446
98	0x3e71c44a	0.23610035
99	0xbbd7d50b	-0.006586676
100	0xbe116fb5	-0.14202769
101	0xbdafc4b6	-0.085824415
102	0xbe208ad6	-0.15677962
103	0x3e4e7c93	0.20164709
104	0xbe44ebba	-0.19230548
105	0x3e36e13f	0.17859362
106	0x3e9267e4	0.28594887
107	0xbcd159d8	-0.025555536
108	0x3cab5671	0.020915242
109	0xbead14da	-0.3380497
110	0x3decd718	0.115644634
111	0xbe3fbb1c	-0.1872372
112	0xbe92eca4	-0.28696167
113	0xbde5d2e4	-0.11221865
114	0xbeb2268d	-0.34795037
115	0x3e24c8cd	0.16092224
116	0x3ec35b16	0.3815543
117	0x3e2735e0	0.16329145
118	0xbe8dcbab	-0.2769445
119	0xbd7003ba	-0.058597304
120	0x3e30ae40	0.17253971
121	0xbe202e24	-0.15642601
122	0x3e6c7234	0.2309044
123	0xbd8bbb47	-0.0682283
124	0xbeba6233	-0.36403045
125	0xbc876cd1	-0.01653138
126	0xbe07ffa1	-0.13281108
127	0xbc5e91e6	-0.01358459
128	0x3ec8025a	0.39064294
129	0x3ebdce33	0.3707138
130	0xbe90c7f5	-0.28277555
131	0x3e9ce01f	0.3063974
132	0x3e87dfa5	0.26537815
133	0xbe86378c	-0.26214254
134	0x3ddb0222	0.10693766
135	0xbe10af49	-0.14129366
136	0xbda72f23	-0.081632875
137	0x3e3451ae	0.17609283
138	0xbdc2007d	-0.094727494
139	0x3e1fe30e	0.15613958
140	0x3d5bccc9	0.053662095
141	0x3d88bc03	0.066764854
142	0x3d235c9b	0.039883237
143	0x3d2443bb	0.040103655
144	0x3e2d27f5	0.16909774
145	0xbc9ea476	-0.01936553
146	0x3c4b3c78	0.012404554
147	0xbdc0c9ff	-0.09413528
148	0xbe2e33cf	-0.17011951
149	0xbdf8d004	-0.12149051
150	0x3e427177	0.18988596
151	0xbd7f6550	-0.06235248
152	0x3d929a34	0.07158318
153	0x3d91f44b	0.07126673
154	0x3df06032	0.11737098
155	0x3e052a96	0.13004526
156	0x3e90f280	0.28310013
157	0x3d942080	0.072327614
158	0x3d4d790e	0.050164275
159	0xbcf09e48	-0.02937235
160	0x3e297cf0	0.16551566
161	0xbea88be6	-0.32919234
162	0x3e714865	0.23562773
163	0xbd8249e8	-0.06361753
164	0xbe0591db	-0.1304392
165	0xbe2f2d50	-0.17107129
166	0x3e50fe58	0.20409524
167	0xbe1ade8f	-0.15123962
168	0xbe5db92d	-0.2165267
169	0x3d93cb24	0.072164804
170	0x3d425cf6	0.047451936
171	0xbe91c79b	-0.284726
172	0xbf29e769	-0.6636873
173	0x3e5307af	0.206084
174	0xbd074c3b	-0.033031683
175	0xbe36a899	-0.17837752
176	0xbd93eaae	-0.07222496
177	0xbe2f436a	-0.1711556
178	0xbeb1673a	-0.34649068
179	0xbe43aaa2	-0.1910806
180	0xbd4ce3d0	-0.050021946
181	0x3e126d42	0.14299491
182	0x3cf9e562	0.030504886
183	0x3e061416	0.130936
184	0xbe9f8963	-0.31159505
185	0x3d717967	0.05895367
186	0xbe8b4484	-0.2720071
187	0xbf4aba23	-0.7919027
188	0xbd57907e	-0.052628033
189	0x3ec899e4	0.3917991
190	0x391faa49	0.00015226858
191	0x3e27a192	0.16370228
192	0xbed91b52	-0.42403656
193	0x3e0494e1	0.12947418
194	0x3e87e82e	0.26544327
195	0xbcc1c6bf	-0.02365434
196	0x3ddd5660	0.1080749
197	0xbd811e5c	-0.06304619
198	0xbe151421	-0.1455846
199	0x3ca5eb6f	0.020253865
200	0xbe377417	-0.17915379
201	0x3e8b89a9	0.27253464
202	0x3d9dbb04	0.07701686
203	0xbe78538a	-0.24250618
204	0x3e88b1cf	0.26698157
205	0xbe9163f8	-0.28396583
206	0xbe0d091f	-0.1377301
207	0x3db04eaf	0.08608758
208	0x3e3d31b3	0.1847599
209	0xbe0db5c4	-0.1383887
210	0xbdd0f0a9	-0.10202152
211	0x3e3a10d8	0.18170488
212	0xbe45a194	-0.19299918
213	0xbd5f54d9	-0.054524276
214	0x3d09c622	0.03363622
215	0xbe682e4e	-0.22673914
216	0xbbab76c6	-0.0052326648
217	0x3c9159be	0.017742988
218	0x3e641f57	0.2227758
219	0xbdcb83d0	-0.099372506
220	0x3e2989b4	0.16556436
221	0x3e00ac4e	0.12565729
222	0xb94474b9	-0.00018735499
223	0xbd13aa32	-0.036050983
224	0x3e564caa	0.20927683
225	0x3e0c4273	0.13697223
226	0xbf5bc8c1	-0.858532
227	0xbe7f493f	-0.24930285
228	0xbdaf6376	-0.085638925
229	0x3db06651	0.08613265
230	0x3d07d65f	0.033163425
231	0xbb38d865	-0.0028205153
232	0x3da7b41f	0.08188652
233	0xbcb12286	-0.021622907
234	0xbc3c4773	-0.011491644
235	0x3da8c5cd	0.082408525
236	0x3dae7f2a	0.08520348
237	0x3cbc1f9f	0.022964297
238	0xbc22d628	-0.009938754
239	0xbe15d39c	-0.14631504
240	0x3e925d95	0.28587022
241	0xbdc48777	-0.0959615
242	0x3c6e8360	0.014557689
243	0x3d235385	0.039874572
244	0xbdf7b0fb	-0.12094303
245	0x3d457cb5	0.048214633
246	0xbe7991e8	-0.24372065
247	0x3badd2a9	0.0053046537
248	0xbeb31a22	-0.34980875
249	0xbc4ab6a0	-0.012372643
250	0x3e879877	0.2648351
251	0x3e1e60b9	0.15466584
252	0xbd99adf5	-0.07503883
253	0xbcad63bf	-0.021165727
254	0xbd5aade0	-0.053388476
255	0x3e57a6fa	0.2105979

q1.0.bias f4 [128]
0	0xbdfdd8bc	-0.123948544
1	0x3e22a3ba	0.15882769
2	0x3e2d5117	0.16925465
3	0xbe2986a5	-0.16555269
4	0x3ea90a88	0.33015847
5	0x3e8f5684	0.27995694
6	0xb99a2072	-0.00029397343
7	0xbe8fbdcf	-0.280745
8	0x3e48abc3	0.19596772
9	0x3de55baf	0.11199128
10	0xbe388abb	-0.18021671
11	0x3e63b709	0.22237791
12	0x3e5e24d3	0.21693735
13	0xbd5a3c33	-0.053280067
14	0x3e9d62e4	0.3073951
15	0x3ea57d52	0.32322174
16	0xbe5753ba	-0.21028033
17	0xbcfde48e	-0.030992772
18	0xbe9c4183	-0.3051873
19	0x3eb6db45	0.35714164
20	0x3e5dac8c	0.21647853
21	0x3dc6265f	0.096752875
22	0xbe0b0399	-0.13575591
23	0x3e833702	0.25627905
24	0x3e9b08b9	0.30280092
25	0xbe9786fd	-0.29595175
26	0x3cc85d97	0.02445869
27	0x3ea3b78d	0.31975976
28	0x3d8e1c56	0.069389984
29	0xbde68f4e	-0.11257802
30	0x3d16611d	0.03671371
31	0xbb3c83d0	-0.002876509
32	0xbdf9d96b	-0.12199672
33	0xbd1ef911	-0.038811747
34	0x3ebad4f2	0.3649059
35	0x3e988179	0.2978628
36	0x3e9ccef1	0.30626634
37	0x3e894354	0.2680918
38	0x3e7a17e2	0.24423173
39	0xbe7655e0	-0.24056196
40	0xbe0386b5	-0.12844355
41	0xbe245eb2	-0.16051748
42	0xbe49bbb8	-0.19700515
43	0x3dce7af5	0.10082046
44	0x3b6c04f4	0.0036013694
45	0xbcb2f1cd	-0.021843815
46	0xbd764ccd	-0.060131837
47	0x3d25be72	0.040464826
48	0x3d361827	0.044456627
49	0xbde415ae	-0.111369476
50	0xbe2e2f83	-0.17010312
51	0x3e09e8fc	0.13467783
52	0x3dd154fa	0.10221286
53	0x3e67ee54	0.22649509
54	0x3e354483	0.17701916
55	0x3e61600c	0.22009295
56	0x3dc1c0a1	0.09460569
57	0x3e8384cb	0.2568725
58	0xbe1e1970	-0.15439391
59	0xbd2079b2	-0.039178558
60	0x3da018b5	0.078172125
61	0xbdf373ef	-0.11887347
62	0xbe635ebb	-0.22204106
63	0x3d3aadd9	0.04557595
64	0x3d5fbffe	0.054626457
65	0xbe591127	-0.2119795
66	0x3dc63157	0.096773796
67	0xb9ce33ad	-0.00039329883
68	0x3de0c0d1	0.10974277
69	0xbd65cd2a	-0.056103863
70	0x3e56f55e	0.20992038
71	0x3cca53ce	0.024698164
72	0x3cc220b7	0.02369724
73	0xbc8d852f	-0.017275421
74	0xbe03ba36	-0.12864003
75	0xbea649fd	-0.32478324
76	0x3d92d24c	0.07169017
77	0x3d87231f	0.06598496
78	0xbdcbb95c	-0.09947464
79	0x3c8b729a	0.01702242
80	0x3e739c76	0.23790154
81	0x3e06018c	0.13086528
82	0xbe8830d2	-0.26599747
83	0x3de67475	0.11252681
84	0xbe4b700e	-0.19866964
85	0x3dd63957	0.104601555
86	0x3e0b33e1	0.13594009
87	0xbe703176	-0.23456368
88	0x3e0c149c	0.13679737
89	0x3be6c0a9	0.00704201
90	0x3dd2203b	0.10260054
91	0x3e19b86e	0.1501176
92	0x3daaea6e	0.08345495
93	0x3e7ed243	0.24884896
94	0x3e3fd42d	0.18733282
95	0x3d3d6c1a	0.04624567
96	0xbd840ce9	-0.06447775
97	0x3eac0975	0.33600965
98	0x3e1290aa	0.14312997
99	0xbe8a8b3c	-0.27059352
100	0xbe62c007	-0.22143565
101	0xbe7f1926	-0.24911937
102	0x3e6c630b	0.23084657
103	0xbe3f6518	-0.18690908
104	0xbe536650	-0.20644498
105	0xbd3b9b41	-0.04580236
106	0xbcd696b9	-0.026194917
107	0x3e0db745	0.13839443
108	0x3e398596	0.18117365
109	0xbe8d3799	-0.2758148
110	0x3e853c16	0.26022404
111	0x3c562c40	0.013072073
112	0x3e3a5d09	0.18199553
113	0xbdb9a3f9	-0.090644784
114	0x3df6346d	0.12021718
115	0xbd964064	-0.073365
116	0x3df7b275	0.12094585
117	0x3d832f4b	0.06405505
118	0xbd0d7d4c	-0.03454332
119	0xbe3b20d8	-0.18274248
120	0xbe32f1f9	-0.17475118
121	0x3dc680c4	0.09692529
122	0xbe32b57b	-0.17452042
123	0x3e758a20	0.23978472
124	0xbe064730	-0.13113093
125	0x3ea5a1ea	0.32350093
126	0xbe424f2b	-0.18975513
127	0x3e546d32	0.2074478

q1.2.weight f4 [128, 128]
0	0xbcb55eac	-0.02213987
1	0x3dc3b082	0.095551506
2	0x3da80400	0.08203888
3	0xbde49dbe	-0.111628994
4	0xbbf0b4f0	-0.007345788
5	0xbd0c6e0c	-0.034284636
6	0x3e5446ed	0.20730181
7	0xbc5f7bb6	-0.013640335
8	0x3ddcd92a	0.10783608
9	0x3d9f2742	0.0777116
10	0x3d17bc69	0.037044916
11	0x3dc89191	0.097933896
12	0x3e14c15d	0.14526887
13	0x3b87e714	0.0041474197
14	0x3dee93d0	0.11649287
15	0x3dc35046	0.09536795
16	0x3d8c5723	0.068525575
17	0x3dbbcf41	0.0917039
18	0xbdc663ee	-0.09687029
19	0x3dfc4e63	0.123196386
20	0x3d1910da	0.037369587
21	0x3e1135eb	0.14180724
22	0x3d64add8	0.055829853
23	0x3c9b0ba9	0.018926458
24	0x3dc7c269	0.09753878
25	0x3df5bafb	0.11998554
26	0xbd71ce42	-0.059034593
27	0x3dc227e3	0.09480264
28	0x3d89c670	0.06727302
29	0x3d1e7e97	0.038694944
30	0x3d7d7977	0.061883416
31	0xbd8e5b30	-0.069509864
32	0xbe052f8b	-0.13006417
33	0xbe06505a	-0.13116589
34	0x3dd099fb	0.101856194
35	0x3b612296	0.003435289
36	0xbc6b0d4a	-0.01434643
37	0x3dede5c1	0.11616088
38	0xbd2c0b77	-0.04200312
39	0x3d3826bf	0.044958826
40	0x3d3f5b47	0.04671791
41	0xbcbf35b6	-0.023341041
42	0xbe29880d	-0.16555806
43	0xbde825f6	-0.113353655
44	0x3da736d3	0.08164754
45	0x3e0ae1c4	0.13562685
46	0x3d61d2af	0.055132564
47	0x3d991b18	0.07475871
48	0xbdada484	-0.084786445
49	0x3f298b10	0.6622782
50	0x3d838546	0.06421904
51	0x3df8614c	0.12127933
52	0x3dade0a9	0.08490116
53	0x3d45bc7c	0.048275456
54	0x3c0dd935	0.008657743
55	0x3d82d691	0.063885815
56	0x3d027ec1	0.031859163
57	0x3c054f90	0.008136645
58	0xbc6e6550	-0.014550522
59	0x3e4822b4	0.19544488
60	0x3d1fd6ab	0.039023083
61	0x3c8f2939	0.017475711
62	0xbd843a59	-0.064564414
63	0x3ddc0906	0.107439086
64	0x3db4abc5	0.08821825
65	0xbd4899cc	-0.048974797
66	0x3d99f73c	0.07517859
67	0x3e260789	0.16213812
68	0x3abc1a1e	0.0014351045
69	0x3b1580be	0.0022812332
70	0xbda86ceb	-0.082238995
71	0x3d0e0778	0.03467509
72	0xbe3ff6c5	-0.18746479
73	0x3d646cd3	0.055767845
74	0xbd691643	-0.056905996
75	0xbe946109	-0.28980282
76	0x3d92ebbd	0.0717387
77	0x3c152a85	0.009104376
78	0xbd505cc0	-0.050869703
79	0x3d749e58	0.05972132
80	0x3d503ebc	0.05084108
81	0x3dad12f4	0.08450881
82	0xbd6d922d	-0.058000732
83	0x3dc51585	0.09623245
84	0x3c2fd2e3	0.010731432
85	0xbd504887	-0.050850417
86	0x3db41c6a	0.08794482
87	0x3d91f01b	0.071258746
88	0x3c257384	0.010098342
89	0x3e672e61	0.22576286
90	0x3e239f3e	0.15978715
91	0x3d91b691	0.071149
92	0xbd08b3ed	-0.033374716
93	0xbcf4edbe	-0.02989852
94	0x3bf0b33f	0.0073455865
95	0x3cf0b508	0.029383197
96	0x3c9badcd	0.019003773
97	0x3e30eb69	0.17277302
98	0xbbd58ae2	-0.0065168003
99	0xbd16f26b	-0.03685228
100	0xbd471766	-0.0486063
101	0xbdc5bb01	-0.09654809
102	0x3d033918	0.03203687
103	0x3d441757	0.04787382
104	0x3cafb7e4	0.02144999
105	0x3d888127	0.06665259
106	0xbdf964e5	-0.12177447
107	0x3daf30c7	0.085542254
108	0x3d4800c3	0.04882885
109	0xbdbd7d1f	-0.092523806
110	0x3da4a8de	0.08040021
111	0xbc3f9ce9	-0.011695125
112	0x3dcb4fb1	0.09927309
113	0x3d6f606f	0.058441576
114	0x3a3f04d3	0.00072867906
115	0x3b725036	0.003697408
116	0x3e20c904	0.15701681
117	0x3dafee70	0.085904
118	0x3cce6c0b	0.025198003
119	0xbce1be48	-0.027556553
120	0x3d903f69	0.070433445
121	0x3df10b15	0.11769692
122	0x3d45eeee	0.048323564
123	0x3dc3a23e	0.095524296
124	0x3d1f6689	0.038916145
125	0x3d50a44e	0.050937943
126	0xbd29cbf9	-0.04145429
127	0xbd63a145	-0.05557372
128	0xbdada149	-0.08478028
129	0x3d6c20c6	0.057648443
130	0xbd23cc92	-0.039990015
131	0xbe73b18d	-0.23798199
132	0x3d063aa6	0.032770775
133	0x3deca111	0.115541585
134	0x3e904083	0.2817422
135	0xbe262605	-0.16225441
136	0xbe01ed04	-0.1268807
137	0x3e08e388	0.13368046
138	0xbd7c76c5	-0.061636705
139	0xbb17bab0	-0.0023152046
140	0xbd959ddd	-0.07305501
141	0x3dfd45c9	0.12366826
142	0x3d0cde1c	0.034391508
143	0xbdaa7672	-0.08323373
144	0xbf8bff07	-1.0937203
145	0x3e612146	0.21985349
146	0xbea22d4b	-0.3167518
147	0xbe21cc11	-0.15800501
148	0x3dbf48e8	0.09340078
149	0xbe12e41d	-0.14344831
150	0x3e202171	0.15637757
151	0x3d81768d	0.0632144
152	0x3e4fe254	0.20301181
153	0x3ac1deac	0.0014791093
154	0x3e263e48	0.16234696
155	0x3d8d9fc9	0.06915242
156	0x3c732431	0.014840172
157	0xbe445281	-0.19172098
158	0x3dc0a277	0.09405988
159	0xbcafda09	-0.021466272
160	0xbd4541fb	-0.048158627
161	0xbdcdc5b2	-0.10047473
162	0x3e491661	0.19637443
163	0xbd1cd769	-0.03829137
164	0xbd8fb53d	-0.0701699
165	0x3a1cd527	0.000598269
166	0x3dc01990	0.09379876
167	0xbbe2bf43	-0.006919773
168	0xbe9e0e88	-0.3087046
169	0xbf2b15a6	-0.6682991
170	0xbc591d82	-0.013251664
171	0xbf053f57	-0.52049774
172	0xbd3f213b	-0.04666255
173	0x3e41d53e	0.18929002
174	0xbe8d1ff7	-0.2756345
175	0x3e62e65e	0.2215819
176	0xbd92afcf	-0.07162439
177	0x3be281cf	0.006912447
178	0xbde0d712	-0.109785214
179	0x3d930b75	0.0717992
180	0xbe8eb1f9	-0.27870157
181	0x3e124b37	0.14286505
182	0xbb8ccdcb	-0.0042969934
183	0x3d626352	0.0552705
184	0xba1eaa66	-0.0006052613
185	0x3d3b5caf	0.045742687
186	0xbd87fcef	-0.0664004
187	0x3e85e872	0.26153904
188	0xbeb65f28	-0.35619473
189	0xbf086a71	-0.53287417
190	0x3ddb5796	0.10710065
191	0x3dbd4dba	0.09243341
192	0xbe20ef62	-0.15716317
193	0xbeddfdf5	-0.43357816
194	0xbe42af86	-0.1901227
195	0xbc3f1dce	-0.011664821
196	0x3de7d3f5	0.113197245
197	0x3de7144c	0.11283168
198	0xbec28714	-0.3799368
199	0xbca2be85	-0.019866237
200	0xbef8ccb9	-0.4859369
201	0x3e558208	0.20850384
202	0x3e78560c	0.24251574
203	0xbe7c7a39	-0.24655999
204	0x3dbc7301	0.09201623
205	0xbc9bd731	-0.01902351
206	0x3ea45686	0.32097262
207	0xbdf202bd	-0.118169285
208	0xbe48dcdc	-0.19615501
209	0x3de51d51	0.11187232
210	0x3d18fa89	0.037348304
211	0x3d24e7c9	0.04026011
212	0x3d7591d1	0.059953514
213	0x3cab5f69	0.020919519
214	0xbdccff47	-0.10009628
215	0x3d43b47a	0.047779538
216	0x3d8b52d6	0.06802909
217	0x3bf3c06d	0.0074387104
218	0x3e762924	0.24039131
219	0xbe6fa9af	-0.23404573
220	0x3eac6bbd	0.33675948
221	0xbf61038d	-0.87896043
222	0x3e26698f	0.16251205
223	0x3db2cec1	0.087308414
224	0xbe382225	-0.17981775
225	0x3cfe87e5	0.031070659
226	0xbd29547d	-0.04134034
227	0x3c931197	0.017952723
228	0x3c8ced92	0.017203126
229	0x3e41ad5d	0.18913789
230	0x3c7043d9	0.014664614
231	0xbe90f639	-0.28312853
232	0x3da3e392	0.0800239
233	0x3dabedc6	0.08394961
234	0xbe9e44ed	-0.3091196
235	0x3d791b2d	0.060816932
236	0x3d24b5e9	0.040212546
237	0xbec0baa6	-0.376424
238	0xbd3368c2	-0.043801077
239	0x3eb3c033	0.35107574
240	0x3e12fb7c	0.14353746
241	0x3e8735ea	0.2640832
242	0xbcd255c2	-0.025675658
243	0xbe414ddd	-0.18877359
244	0x3f01b11e	0.50660884
245	0x3c228b73	0.009920943
246	0x3dd0aa41	0.10188723
247	0x3e513dee	0.2043378
248	0x3e6d964b	0.23201863
249	0x3e193a84	0.14963728
250	0xbe4ce2c6	-0.20008382
251	0xbae75d0e	-0.0017651634
252	0xbd396d96	-0.045270525
253	0xbebf853e	-0.37406343
254	0x3e1cb75b	0.1530432
255	0xbde594ec	-0.11210045
