rgz/checkpoint_0.pth (torch, 329781 bytes, 22 tensors)

net.0.weight f4 [128, 13]
0	0x39fab75c	0.0004782033
1	0xbac366b8	-0.0014907932
2	0x392f3681	0.00016709605
3	0xba4985db	-0.00076874875
4	0xba175486	-0.0005772788
5	0x3af0fc13	0.0018385671
6	0xb9e839e3	-0.00044293617
7	0x389d0cbb	7.4887146e-05
8	0x39806852	0.00024491787
9	0xbaab80e9	-0.0013084683
10	0xb8af5abb	-8.36155e-05
11	0xba9d2d0c	-0.0011991574
12	0x38ab72e6	8.175317e-05
13	0x3a0cc594	0.00053700176
14	0xb9dff89e	-0.0004271911
15	0xbaac7c2d	-0.0013159566
16	0x3a045f6f	0.0005049621
17	0xb8f2e6eb	-0.00011582471
18	0xba006706	-0.0004898164
19	0x3b287ed0	0.0025710352
20	0x3a8e9501	0.0010878147
21	0xba2a6c05	-0.00065010815
22	0x3a8286dc	0.0009958404
23	0xbacd9c60	-0.0015686862
24	0x38d85180	0.00010314863
25	0x3a0cd5fb	0.0005372462
26	0x39fa8c07	0.00047788044
27	0xb9bd96b0	-0.0003616116
28	0xba9a4db3	-0.0011772424
29	0x3985d5b1	0.0002552695
30	0x39fce145	0.00048233024
31	0x3a7e11bb	0.0009691973
32	0x3a366d41	0.0006959029
33	0x3a6bb9b3	0.000899221
34	0x3948a857	0.00019136198
35	0xb93eebf0	-0.00018207706
36	0x3a20032c	0.0006103988
37	0xb8fd952e	-0.00012091767
38	0x3a862910	0.0010235626
39	0x3922b616	0.00015517356
40	0xb9b3fd5e	-0.00034330314
41	0xbaaa2f9e	-0.0012984162
42	0x391a03ee	0.00014688048
43	0x3a391bb7	0.000706132
44	0x3a42d52e	0.0007432279
45	0xba54776e	-0.00081049546
46	0xb7160a02	-8.943027e-06
47	0x39456dd5	0.000188283
48	0xb9ba4289	-0.00035526257
49	0xba3d68b4	-0.000722538
50	0xba9c66ce	-0.0011932494
51	0xba7dac9c	-0.0009676905
52	0x38f6e4ea	0.00011772833
53	0xb9743edb	-0.00023293069
54	0xbaa62c50	-0.0012678001
55	0xb942c51c	-0.0001857471
56	0xbaa01082	-0.0012211951
57	0xba07bfab	-0.0005178402
58	0xbac3bf21	-0.001493428
59	0x38b12361	8.4466075e-05
60	0x3a8cf307	0.001075358
61	0xbb037494	-0.00200585
62	0x3a979774	0.0011565522
63	0xb8ad3ceb	-8.26063e-05
64	0x3a8a4d19	0.0010551541
65	0x39dfb02c	0.00042665133
66	0xb9b84ae0	-0.00035151
67	0xb7b09870	-2.105182e-05
68	0x3a27b842	0.0006398001
69	0xb9a3f6c2	-0.00031273632
70	0xb7fb415c	-2.9951967e-05
71	0x3a8e82a4	0.0010872674
72	0xb69d0f2b	-4.6807304e-06
73	0x39fa852f	0.00047782945
74	0xb9a7672d	-0.00031929594
75	0xba147507	-0.00056631904
76	0x39065cc0	0.00012813788
77	0xba1779ed	-0.0005778361
78	0x39a5b6e0	0.00031607505
79	0x39e3ee35	0.00043474292
80	0xba63a1d7	-0.0008683479
81	0xba02f4a4	-0.0004995561
82	0xb983a53c	-0.00025109376
83	0xb9ed67ef	-0.000452816
84	0xb9474c6d	-0.0001900659
85	0xbac76f72	-0.0015215708
86	0xbabed58e	-0.0014559494
87	0xb9ae40f4	-0.0003323626
88	0x3a6af2ce	0.00089625723
89	0x3a4678f8	0.00075711263
90	0x39c74a47	0.0003801158
91	0xba918d06	-0.001110465
92	0xb9e47f5b	-0.00043582436
93	0xb9c0a739	-0.00036745684
94	0x38ce4f35	9.837599e-05
95	0xba302679	-0.00067196
96	0xba9c8f3b	-0.0011944541
97	0x39083605	0.00012990095
98	0xba31aa6b	-0.00067774084
99	0x39f115a5	0.00045983228
100	0xba85f650	-0.0010220502
101	0x3a63f1b0	0.0008695377
102	0xbacb0207	-0.0015488275
103	0x395fbc12	0.00021336999
104	0xb9a507f9	-0.00031477193
105	0xba9934af	-0.0011688675
106	0x39309539	0.00016840258
107	0xba5a2754	-0.00083219004
108	0xb8b98c2f	-8.847599e-05
109	0xb93dee45	-0.00018113207
110	0x395daeef	0.0002114137
111	0x3a3aa9c2	0.0007120633
112	0xb9a0ebf2	-0.0003069337
113	0xb95b38d4	-0.00020906638
114	0xb9fbb9a6	-0.0004801277
115	0x38a88958	8.0364465e-05
116	0x3abb4c9b	0.0014289798
117	0xb9d54c3b	-0.00040683322
118	0x3a0de886	0.0005413372
119	0xba511455	-0.0007975747
120	0x37ac6b02	2.0553827e-05
121	0xba81c7b0	-0.000990143
122	0xbac78b65	-0.0015224038
123	0x39ae5913	0.00033254232
124	0xba59b43e	-0.0008304751
125	0xba8774bb	-0.0010334471
126	0x3a4681f3	0.00075724645
127	0x3ab1830b	0.0013543082
128	0x3827b142	3.9980987e-05
129	0x3a926fa7	0.0011172191
130	0xba982b38	-0.001160956
131	0x3a2c6c09	0.0006577378
132	0xbb08beff	-0.0020865796
133	0x394ed13e	0.0001972364
134	0xb9c2901e	-0.0003710994
135	0x3a20df0a	0.0006136751
136	0xb87eb692	-6.072835e-05
137	0xba47d050	-0.00076222885
138	0xb89399f0	-7.038179e-05
139	0x3a5a1aea	0.00083200505
140	0xba97bccd	-0.0011576653
141	0x3aacf3cb	0.0013195215
142	0x3a357df0	0.0006923368
143	0xba94b567	-0.0011345566
144	0x3b047d11	0.0020216147
145	0x398bce07	0.00026665648
146	0xb9dbaedb	-0.00041901213
147	0x39ded69b	0.00042503033
148	0xba9ca1ca	-0.0011950072
149	0x3a9da2e2	0.0012026692
150	0xba2051ae	-0.0006115687
151	0x3946608d	0.0001891872
152	0xb9ba9477	-0.000355873
153	0x38d8a70f	0.000103308
154	0x3aa425be	0.0012523455
155	0xba495402	-0.00076800596
156	0x399d8347	0.00030043183
157	0x3a212abb	0.000614803
158	0x3b1382d0	0.002250839
159	0x3a8c2ccd	0.0010694504
160	0xbab41742	-0.0013739842
161	0xb99398cd	-0.0002815187
162	0x3ae60321	0.001754854
163	0xb91d0f42	-0.00014978371
164	0xb9946977	-0.00028307337
165	0x3a0b82cf	0.0005321921
166	0x3a9cebeb	0.0011972165
167	0xba20cd1c	-0.00061340793
168	0x3a6a00c2	0.00089265045
169	0x3987718e	0.0002583381
170	0xba4c6ead	-0.00077984744
171	0x3a16aa99	0.0005747467
172	0x3a2bbb67	0.00065510574
173	0xb895dd5a	-7.1461036e-05
174	0x3838964a	4.4008986e-05
175	0x3b0957ab	0.0020956795
176	0x3a1f3599	0.00060733553
177	0xbac7031c	-0.0015183422
178	0xb98e9c0f	-0.00027200623
179	0x3a6bbdf8	0.0008992846
180	0x3a292a78	0.0006453167
181	0xbac7567b	-0.0015208268
182	0x3997567e	0.00028865406
183	0x3a43d438	0.0007470283
184	0x3aa95f3d	0.001292206
185	0xb9a11c65	-0.0003072947
186	0xb9eb4a69	-0.00044878133
187	0x3aa8a9bc	0.0012867968
188	0xb985858d	-0.0002546724
189	0xb9b1e60a	-0.00033931463
190	0x3aacdfa9	0.0013189215
191	0x3a4172a5	0.0007379449
192	0x3a2aa187	0.0006509055
193	0xb94932c7	-0.0001918777
194	0x392c0076	0.0001640337
195	0xb9f897ec	-0.00047415437
196	0xba6fa52b	-0.00091417384
197	0xb9f8260e	-0.000473306
198	0xba7403d8	-0.0009308434
199	0x3a5a07b9	0.0008317191
200	0x39aaee18	0.0003260232
201	0xb9882fdf	-0.00025975608
202	0x3ab0c4c7	0.0013486379
203	0x38dff3f0	0.000106789055
204	0xb9e5b115	-0.0004381022
205	0x3a8a20de	0.001053836
206	0xba81b4dd	-0.000989582
207	0x39d00cbd	0.00039682342
208	0x3920685d	0.00015297667
209	0xba887f11	-0.0010413845
210	0xba22f35b	-0.00062160724
211	0x39e944e1	0.00044492542
212	0xb9b528a4	-0.0003455329
213	0x3a884ff2	0.0010399802
214	0x3ac8f26f	0.001533104
215	0xba377f98	-0.0006999909
216	0x393382fe	0.00017119569
217	0xba95542d	-0.0011392884
218	0x39984750	0.0002904483
219	0x39ea7901	0.00044722113
220	0x3a6c886a	0.0009023013
221	0xb94e4c07	-0.00019674013
222	0x3ab9f4d7	0.0014187348
223	0x3a4743dc	0.00076013594
224	0xb9a70ce1	-0.00031862318
225	0x3aa4708a	0.0012545746
226	0x39e40a2f	0.00043495136
227	0xb9cd0372	-0.00039103214
228	0xba2cfb8e	-0.0006598764
229	0x3a072318	0.00051550707
230	0xba8685f6	-0.0010263312
231	0x3a7fb47b	0.0009754372
232	0xbabef660	-0.0014569275
233	0xb9c6e862	-0.00037938642
234	0xb9c8b254	-0.00038279837
235	0x3a23c63e	0.0006247497
236	0xb9fb2082	-0.0004789867
237	0xbaeec5f0	-0.0018216949
238	0xb92d9649	-0.00016554551
239	0x3921f697	0.00015446018
240	0xb758f700	-1.2932112e-05
241	0x39cfa995	0.00039608465
242	0x39b32019	0.00034165455
243	0xb92f5a30	-0.00016722898
244	0x3ad27ab3	0.0016058296
245	0xba87a92d	-0.0010350101
246	0x3a06c5e4	0.00051411823
247	0x3af45e73	0.0018643871
248	0x3a89f234	0.0010524453
249	0xb8dd2499	-0.00010544918
250	0x3a747914	0.00093259034
251	0xba46029b	-0.0007553489
252	0x3a81d71d	0.0009906028
253	0xb960d724	-0.00021442451
254	0xba1723c3	-0.0005765522
255	0x39980e79	0.00029002482

net.0.bias f4 [128]
0	0x00000000	0.0
1	0x00000000	0.0
2	0x00000000	0.0
3	0x00000000	0.0
4	0x00000000	0.0
5	0x00000000	0.0
6	0x00000000	0.0
7	0x00000000	0.0
8	0x00000000	0.0
9	0x00000000	0.0
10	0x00000000	0.0
11	0x00000000	0.0
12	0x00000000	0.0
13	0x00000000	0.0
14	0x00000000	0.0
15	0x00000000	0.0
16	0x00000000	0.0
17	0x00000000	0.0
18	0x00000000	0.0
19	0x00000000	0.0
20	0x00000000	0.0
21	0x00000000	0.0
22	0x00000000	0.0
23	0x00000000	0.0
24	0x00000000	0.0
25	0x00000000	0.0
26	0x00000000	0.0
27	0x00000000	0.0
28	0x00000000	0.0
29	0x00000000	0.0
30	0x00000000	0.0
31	0x00000000	0.0
32	0x00000000	0.0
33	0x00000000	0.0
34	0x00000000	0.0
35	0x00000000	0.0
36	0x00000000	0.0
37	0x00000000	0.0
38	0x00000000	0.0
39	0x00000000	0.0
40	0x00000000	0.0
41	0x00000000	0.0
42	0x00000000	0.0
43	0x00000000	0.0
44	0x00000000	0.0
45	0x00000000	0.0
46	0x00000000	0.0
47	0x00000000	0.0
48	0x00000000	0.0
49	0x00000000	0.0
50	0x00000000	0.0
51	0x00000000	0.0
52	0x00000000	0.0
53	0x00000000	0.0
54	0x00000000	0.0
55	0x00000000	0.0
56	0x00000000	0.0
57	0x00000000	0.0
58	0x00000000	0.0
59	0x00000000	0.0
60	0x00000000	0.0
61	0x00000000	0.0
62	0x00000000	0.0
63	0x00000000	0.0
64	0x00000000	0.0
65	0x00000000	0.0
66	0x00000000	0.0
67	0x00000000	0.0
68	0x00000000	0.0
69	0x00000000	0.0
70	0x00000000	0.0
71	0x00000000	0.0
72	0x00000000	0.0
73	0x00000000	0.0
74	0x00000000	0.0
75	0x00000000	0.0
76	0x00000000	0.0
77	0x00000000	0.0
78	0x00000000	0.0
79	0x00000000	0.0
80	0x00000000	0.0
81	0x00000000	0.0
82	0x00000000	0.0
83	0x00000000	0.0
84	0x00000000	0.0
85	0x00000000	0.0
86	0x00000000	0.0
87	0x00000000	0.0
88	0x00000000	0.0
89	0x00000000	0.0
90	0x00000000	0.0
91	0x00000000	0.0
92	0x00000000	0.0
93	0x00000000	0.0
94	0x00000000	0.0
95	0x00000000	0.0
96	0x00000000	0.0
97	0x00000000	0.0
98	0x00000000	0.0
99	0x00000000	0.0
100	0x00000000	0.0
101	0x00000000	0.0
102	0x00000000	0.0
103	0x00000000	0.0
104	0x00000000	0.0
105	0x00000000	0.0
106	0x00000000	0.0
107	0x00000000	0.0
108	0x00000000	0.0
109	0x00000000	0.0
110	0x00000000	0.0
111	0x00000000	0.0
112	0x00000000	0.0
113	0x00000000	0.0
114	0x00000000	0.0
115	0x00000000	0.0
116	0x00000000	0.0
117	0x00000000	0.0
118	0x00000000	0.0
119	0x00000000	0.0
120	0x00000000	0.0
121	0x00000000	0.0
122	0x00000000	0.0
123	0x00000000	0.0
124	0x00000000	0.0
125	0x00000000	0.0
126	0x00000000	0.0
127	0x00000000	0.0

net.2.weight f4 [128, 128]
0	0x38c0a51e	9.186029e-05
1	0xba8b82a8	-0.0010643797
2	0x3939d929	0.00017723873
3	0x3962d978	0.00021634053
4	0x37d9d799	2.5968811e-05
5	0xb9231edc	-0.00015556387
6	0x3959732e	0.0002073764
7	0x393d79c2	0.00018069803
8	0x3a62d90f	0.000865356
9	0xba43d4c0	-0.0007470362
10	0x39c96430	0.00038412353
11	0x3b127d9f	0.0022352708
12	0xba28dd86	-0.0006441701
13	0xba904599	-0.001100707
14	0xba6b19f2	-0.0008968405
15	0xb91b0d66	-0.00014786943
16	0x39c475d7	0.0003747183
17	0x39da9f62	0.0004169895
18	0x3a1bcbc4	0.0005943144
19	0xbad3aaaf	-0.001614889
20	0x39ec7b1c	0.0004510515
21	0x3abf2de4	0.001458582
22	0xba0c8edb	-0.00053618633
23	0xb982dd6b	-0.00024960501
24	0xb9452aa4	-0.00018803269
25	0xba78ad6b	-0.00094862905
26	0xb9a3c8eb	-0.00031239478
27	0x3a4d438e	0.0007830196
28	0x38c1c5d2	9.239804e-05
29	0xb935d0ca	-0.00017339285
30	0xba452510	-0.00075204764
31	0x3872b6e1	5.7867615e-05
32	0xba3b9f8a	-0.0007157257
33	0x3a014ac5	0.0004932101
34	0x3afc4426	0.0019246384
35	0xb9083d0d	-0.00012992714
36	0x3a27fa16	0.000640781
37	0x39120fce	0.00013929533
38	0xbada1dfe	-0.0016641018
39	0xba7ece33	-0.0009720057
40	0xb9adbb9e	-0.00033136917
41	0x39a5e914	0.0003164491
42	0xb9b98a54	-0.00035389012
43	0xba397a21	-0.00070753886
44	0xba5b69a2	-0.00083699275
45	0xb98598c2	-0.0002548155
46	0x3a3393b8	0.000685032
47	0xb878cea3	-5.9320253e-05
48	0x3a2c4082	0.0006570892
49	0xba55e589	-0.00081595086
50	0xba791cd4	-0.0009502892
51	0xbaefd33c	-0.0018297206
52	0x3ae7b805	0.0017678743
53	0xbabd8707	-0.0014459797
54	0xba5cbe2b	-0.0008420671
55	0x3a7464c2	0.00093228754
56	0xba1f4f2e	-0.00060771673
57	0xba34c810	-0.0006896267
58	0x3af9c75c	0.0019056606
59	0x3a96bb99	0.00115
60	0x3aa568dc	0.0012619752
61	0x38d1b36c	9.9993165e-05
62	0x391050fb	0.00013763078
63	0xba1dfa86	-0.00060264056
64	0xb9d6cd75	-0.00040970338
65	0xba6ce66f	-0.0009037023
66	0x3a8a4722	0.0010549764
67	0x37b8ed8a	2.2045122e-05
68	0x3981dbea	0.00024768646
69	0x3a0ed833	0.00054490863
70	0xba374474	-0.00069910963
71	0xbaac2421	-0.0013133326
72	0xb89effca	-7.5816715e-05
73	0xb933b100	-0.00017136708
74	0xba7b271c	-0.0009580718
75	0x3900a221	0.00012267429
76	0xba0b4291	-0.00053123484
77	0x3a85031d	0.0010148023
78	0x39855d00	0.00025437027
79	0x3a2d0230	0.0006599752
80	0x39abc782	0.00032764307
81	0x3a6e95cb	0.00091013004
82	0xb8f8ea52	-0.00011869207
83	0x3a95658f	0.0011398065
84	0x3a4f470b	0.00079070096
85	0x3a4814bd	0.0007632485
86	0xb9d5728a	-0.00040711864
87	0x39e1d6a5	0.00043075267
88	0xb716770a	-8.968413e-06
89	0x3ac7cecf	0.0015244129
90	0x3a17eb92	0.00057952956
91	0x384dc8a9	4.9062688e-05
92	0x3aa02c8a	0.0012220305
93	0x3adb0fd7	0.0016713095
94	0xba55547d	-0.0008137895
95	0xb990df4a	-0.00027632184
96	0x3a8434e6	0.0010086566
97	0xba90d8a4	-0.0011050892
98	0xb96176f3	-0.00021501984
99	0xbae7a3ec	-0.0017672754
100	0xba4f4810	-0.00079071615
101	0x393c0752	0.00017931804
102	0xb985ddb7	-0.00025532927
103	0xba886c66	-0.0010408282
104	0xba3882b4	-0.0007038519
105	0x3a258b7b	0.00063150347
106	0x3a48d609	0.0007661288
107	0x3ad15add	0.0015972514
108	0x3a379b9d	0.0007004084
109	0xbab59247	-0.0013852798
110	0xb98d826b	-0.00026990785
111	0x3a003596	0.00048907974
112	0xb8b46f05	-8.603748e-05
113	0x39ec247b	0.00045040608
114	0xbb0a5987	-0.0021110491
115	0x391723ee	0.00014413867
116	0x39671ef0	0.00022041402
117	0x3aa3f782	0.0012509676
118	0xbaf2953d	-0.0018507611
119	0x39deea82	0.00042517862
120	0x3a6f3247	0.00091246184
121	0x39ee0933	0.0004540175
122	0xba6fe6c0	-0.0009151511
123	0x3a11913e	0.0005552954
124	0xb9c51aaa	-0.00037594634
125	0x3ad68995	0.0016367907
126	0xba832678	-0.0010005971
127	0x3abec61c	0.0014554891
128	0xba255594	-0.00063070026
129	0x3a7472a3	0.00093249435
130	0xb9d5278a	-0.00040655985
131	0x3a8c8773	0.0010721519
132	0xbad9efb2	-0.0016627221
133	0x39f489e1	0.00046642034
134	0xba1d78b4	-0.0006007061
135	0xba923a9f	-0.0011156386
136	0xb9005902	-0.00012240189
137	0xb9105d92	-0.00013767768
138	0x39b175bc	0.0003384779
139	0x391bf708	0.00014873978
140	0x3ab22541	0.0013591425
141	0x3aad3076	0.0013213295
142	0x3aca6a74	0.0015443102
143	0xb9841c43	-0.0002519806
144	0x39a82e8d	0.0003207814
145	0x39319487	0.00016935366
146	0x37dd88ee	2.6409016e-05
147	0xba9814e7	-0.0011602909
148	0xba26514a	-0.00063445105
149	0xba32f80d	-0.00068271236
150	0x3a2391ae	0.00062396645
151	0x39d9f24a	0.00041569985
152	0xba0cc852	-0.0005370426
153	0xb98e7938	-0.00027174666
154	0x3a890eab	0.0010456642
155	0x3922c767	0.00015523807
156	0xba8479de	-0.001010712
157	0xb90cf5f6	-0.00013443068
158	0xba2331eb	-0.0006225395
159	0xb942adf4	-0.00018566084
160	0x3a814e04	0.0009865169
161	0xbac8777c	-0.0015294398
162	0xb948f3a2	-0.00019164247
163	0xba45783e	-0.0007532871
164	0xba3c1524	-0.0007174781
165	0x39927f23	0.00027942014
166	0x3a8747e9	0.0010321114
167	0xb89f9860	-7.610093e-05
168	0x39c13c85	0.0003685692
169	0x3a63e3b2	0.0008693292
170	0xb7087d82	-8.135454e-06
171	0x3acd5f7d	0.0015668717
172	0xba10a849	-0.00055182405
173	0xb9e0b0f4	-0.0004285645
174	0x38e460e1	0.00010889932
175	0x3a527bd5	0.00080293167
176	0xba5c5030	-0.0008404283
177	0x383bb8dc	4.4756438e-05
178	0xba941f82	-0.0011300894
179	0xba6458b4	-0.00087107276
180	0x3a42b43b	0.0007427369
181	0xb9a17a07	-0.0003079923
182	0x3aacc265	0.0013180493
183	0x3ae902d2	0.001777733
184	0x39a815b2	0.0003205962
185	0xba77b9c2	-0.00094499823
186	0xba7f873e	-0.00097476307
187	0x39f5544a	0.00046792842
188	0xba587fe2	-0.0008258802
189	0x39a97dab	0.00032327822
190	0xbaf231d8	-0.0018477989
191	0xba9d476d	-0.0011999436
192	0xb7951dd4	-1.7776074e-05
193	0xba58a8fe	-0.0008264928
194	0xbb03cf3d	-0.0020112537
195	0xba39c593	-0.0007086631
196	0x39864e67	0.00025616886
197	0x3a366eb3	0.00069592445
198	0x39db63a2	0.00041845167
199	0xba2f44a0	-0.0006685946
200	0xba7e61a3	-0.000970388
201	0xba25eb2f	-0.00063292956
202	0xba93dadd	-0.0011280436
203	0x3a8c22d9	0.0010691538
204	0xb9665a62	-0.0002196818
205	0x388cdfba	6.7173925e-05
206	0x3838e25e	4.407984e-05
207	0x3a4ff810	0.00079333875
208	0x3a373010	0.0006988058
209	0xba49180a	-0.00076711236
210	0xb92cadbe	-0.00016467922
211	0x3988f640	0.00026123412
212	0xbab70780	-0.0013964027
213	0x3a9c8cb2	0.0011943786
214	0xba2a4553	-0.00064953155
215	0x3a0e4097	0.0005426495
216	0x3a242a8f	0.0006262445
217	0xb9919dc6	-0.00027774106
218	0x3a802c11	0.0009778758
219	0x3a7ba1f7	0.0009599025
220	0xb9746e9e	-0.00023310861
221	0xba2146ce	-0.00061522133
222	0x39ed53f0	0.000452667
223	0xb916de54	-0.00014387938
224	0x3a6c2d3c	0.0009009426
225	0x3b2aa6ee	0.002603944
226	0x3a6b02a1	0.00089649303
227	0xba36a122	-0.00069667597
228	0xba32a030	-0.0006814031
229	0x39a715fd	0.00031869105
230	0x3a3e0f97	0.0007250248
231	0x3a862f9e	0.001023758
232	0x39ee7ea3	0.0004548925
233	0x37f793cc	2.9513518e-05
234	0x3a1b4202	0.00059226167
235	0xb8555d4a	-5.087004e-05
236	0xbac83d8b	-0.001527713
237	0x3a0ea065	0.0005440771
238	0x385810c6	5.1514035e-05
239	0x3a54f9c4	0.0008124376
240	0xbb137282	-0.0022498672
241	0x39db521d	0.00041832114
242	0xba2c8524	-0.0006581119
243	0xba9e2092	-0.001206415
244	0x3a4879fe	0.0007647573
245	0x39ce9515	0.00039402457
246	0x3a058d74	0.00050946255
247	0xb9348f40	-0.00017219502
248	0xba92c819	-0.001119855
249	0x3ae96201	0.0017805697
250	0xba8142ba	-0.0009861805
251	0xba4bd3c0	-0.00077753887
252	0xba8fad85	-0.0010961747
253	0x3a9c07e6	0.0011904209
254	0xba8a0e86	-0.0010532893
255	0x3ad871be	0.001651339

net.2.bias f4 [128]
0	0x00000000	0.0
1	0x00000000	0.0
2	0x00000000	0.0
3	0x00000000	0.0
4	0x00000000	0.0
5	0x00000000	0.0
6	0x00000000	0.0
7	0x00000000	0.0
8	0x00000000	0.0
9	0x00000000	0.0
10	0x00000000	0.0
11	0x00000000	0.0
12	0x00000000	0.0
13	0x00000000	0.0
14	0x00000000	0.0
15	0x00000000	0.0
16	0x00000000	0.0
17	0x00000000	0.0
18	0x00000000	0.0
19	0x00000000	0.0
20	0x00000000	0.0
21	0x00000000	0.0
22	0x00000000	0.0
23	0x00000000	0.0
24	0x00000000	0.0
25	0x00000000	0.0
26	0x00000000	0.0
27	0x00000000	0.0
28	0x00000000	0.0
29	0x00000000	0.0
30	0x00000000	0.0
31	0x00000000	0.0
32	0x00000000	0.0
33	0x00000000	0.0
34	0x00000000	0.0
35	0x00000000	0.0
36	0x00000000	0.0
37	0x00000000	0.0
38	0x00000000	0.0
39	0x00000000	0.0
40	0x00000000	0.0
41	0x00000000	0.0
42	0x00000000	0.0
43	0x00000000	0.0
44	0x00000000	0.0
45	0x00000000	0.0
46	0x00000000	0.0
47	0x00000000	0.0
48	0x00000000	0.0
49	0x00000000	0.0
50	0x00000000	0.0
51	0x00000000	0.0
52	0x00000000	0.0
53	0x00000000	0.0
54	0x00000000	0.0
55	0x00000000	0.0
56	0x00000000	0.0
57	0x00000000	0.0
58	0x00000000	0.0
59	0x00000000	0.0
60	0x00000000	0.0
61	0x00000000	0.0
62	0x00000000	0.0
63	0x00000000	0.0
64	0x00000000	0.0
65	0x00000000	0.0
66	0x00000000	0.0
67	0x00000000	0.0
68	0x00000000	0.0
69	0x00000000	0.0
70	0x00000000	0.0
71	0x00000000	0.0
72	0x00000000	0.0
73	0x00000000	0.0
74	0x00000000	0.0
75	0x00000000	0.0
76	0x00000000	0.0
77	0x00000000	0.0
78	0x00000000	0.0
79	0x00000000	0.0
80	0x00000000	0.0
81	0x00000000	0.0
82	0x00000000	0.0
83	0x00000000	0.0
84	0x00000000	0.0
85	0x00000000	0.0
86	0x00000000	0.0
87	0x00000000	0.0
88	0x00000000	0.0
89	0x00000000	0.0
90	0x00000000	0.0
91	0x00000000	0.0
92	0x00000000	0.0
93	0x00000000	0.0
94	0x00000000	0.0
95	0x00000000	0.0
96	0x00000000	0.0
97	0x00000000	0.0
98	0x00000000	0.0
99	0x00000000	0.0
100	0x00000000	0.0
101	0x00000000	0.0
102	0x00000000	0.0
103	0x00000000	0.0
104	0x00000000	0.0
105	0x00000000	0.0
106	0x00000000	0.0
107	0x00000000	0.0
108	0x00000000	0.0
109	0x00000000	0.0
110	0x00000000	0.0
111	0x00000000	0.0
112	0x00000000	0.0
113	0x00000000	0.0
114	0x00000000	0.0
115	0x00000000	0.0
116	0x00000000	0.0
117	0x00000000	0.0
118	0x00000000	0.0
119	0x00000000	0.0
120	0x00000000	0.0
121	0x00000000	0.0
122	0x00000000	0.0
123	0x00000000	0.0
124	0x00000000	0.0
125	0x00000000	0.0
126	0x00000000	0.0
127	0x00000000	0.0

net.4.weight f4 [64, 128]
0	0xbae52166	-0.0017481267
1	0x3a29a13b	0.00064708636
2	0x3ab4fe01	0.0013808609
3	0x38d85989	0.0001031636
4	0x3a955df2	0.0011395796
5	0x3a4c8073	0.0007801123
6	0xb9d39144	-0.00040353287
7	0x3a9d7a7d	0.0012014654
8	0xb987f006	-0.00025928038
9	0x3a3221b5	0.0006795184
10	0x3aa97f1c	0.0012931558
11	0x39f7a6e2	0.0004723585
12	0xb88f423a	-6.831107e-05
13	0xba546677	-0.00081024267
14	0xb9e04897	-0.00042778693
15	0xb9c0c1fe	-0.0003676563
16	0xb94625af	-0.0001889679
17	0x3a288c20	0.00064295717
18	0xbb225023	-0.0024767003
19	0x3a2e3e8b	0.0006646893
20	0x391ba9d3	0.00014845216
21	0xba4b333c	-0.000775147
22	0xba3cca05	-0.0007201734
23	0x3a0b9612	0.00053247914
24	0xbab9a587	-0.0014163711
25	0x3a029d82	0.0004982577
26	0xbae9c1b8	-0.0017834222
27	0xba42c5ab	-0.00074299675
28	0xb99beeec	-0.00029741914
29	0xba2d4f53	-0.00066112465
30	0x39c49cf9	0.00037500987
31	0xba841499	-0.0010076939
32	0x3a573482	0.00082094234
33	0xb8b13574	-8.449974e-05
34	0xb804d249	-3.1667096e-05
35	0x39b0c9c7	0.00033719672
36	0xbadc05a6	-0.0016786351
37	0xba4a4fc9	-0.00077175774
38	0x3aa3d2c0	0.0012498721
39	0x3a3cc2b8	0.0007200646
40	0xb9a43129	-0.00031317145
41	0xba0d48f6	-0.0005389595
42	0x36e3d277	6.7896285e-06
43	0x3aada1fc	0.0013247128
44	0x3a84a7d8	0.0010120822
45	0xb9adefca	-0.00033175788
46	0xb9bc0365	-0.00035860683
47	0xb9e2aa0f	-0.00043232783
48	0x375eaf7e	1.3273091e-05
49	0xba226127	-0.00061942864
50	0xba386eb3	-0.00070355384
51	0xbac7873e	-0.00152228
52	0xb9c6611e	-0.0003783786
53	0xba41e845	-0.00073969766
54	0xb96fd074	-0.00022870471
55	0x3a3251d5	0.0006802355
56	0x38f0c67d	0.00011481063
57	0x3a1a7bce	0.0005893082
58	0x3ab891fe	0.0014081595
59	0x39a65554	0.00031725562
60	0xba7494ee	-0.00093300536
61	0xb9c01f30	-0.0003664433
62	0x3aa58af2	0.001262991
63	0x3a4e794c	0.0007876351
64	0x3aadc11d	0.0013256405
65	0xba07b459	-0.0005176715
66	0xba93ae51	-0.001126716
67	0xba0cd97b	-0.0005372983
68	0x3a390b1c	0.00070588454
69	0x39edfda0	0.00045393128
70	0xbae19249	-0.0017209734
71	0x3a284a49	0.0006419761
72	0xbaf8b94f	-0.0018976125
73	0xb9b763cb	-0.00034978832
74	0x39085fac	0.00013005611
75	0x3a792ddd	0.00095054304
76	0xbaae2a4b	-0.0013287751
77	0x3a14aed1	0.00056718016
78	0x3ab399a6	0.0013702407
79	0xba2e899e	-0.000665808
80	0xba04b40b	-0.0005062229
81	0xb8e8e022	-0.0001110437
82	0xb883e806	-6.2897845e-05
83	0x38adf130	8.2942075e-05
84	0xb981604b	-0.0002467654
85	0xb888dca1	-6.526081e-05
86	0x389df8c9	7.532683e-05
87	0x3a01cdaf	0.0004951609
88	0xba9634ef	-0.0011459867
89	0xb819a4c9	-3.663151e-05
90	0xba92b91e	-0.0011194085
91	0x39d37713	0.00040333773
92	0x3a009c79	0.0004906129
93	0x3a005987	0.0004896153
94	0x3ac52e34	0.0015043677
95	0xbaedd66e	-0.001814557
96	0x3a052f92	0.0005080636
97	0xb90111fa	-0.00012309095
98	0x3a11de89	0.00055644714
99	0x39ae3f18	0.00033234875
100	0x3a343047	0.0006873649
101	0xbaa4fb57	-0.0012587112
102	0x393cbd92	0.00017999698
103	0x391ef4e6	0.00015159286
104	0xbb1eed42	-0.0024250303
105	0xba15eaad	-0.00057188683
106	0x3a32c4ef	0.00068195065
107	0x39c0553d	0.000366846
108	0xb97d48f5	-0.00024155139
109	0x3a8de2fd	0.0010825094
110	0x396cbc0e	0.0002257677
111	0xb9e286fb	-0.00043206647
112	0x39f3fd03	0.0004653708
113	0xba1e0a0e	-0.000602872
114	0x3abfd84f	0.0014636609
115	0xb7579a4b	-1.2850923e-05
116	0x39018259	0.00012350957
117	0x39bee680	0.0003641136
118	0xba62e90f	-0.0008655944
119	0x3b293eaf	0.0025824716
120	0xba67e747	-0.00088464137
121	0x3a33b64b	0.0006855472
122	0x3a1ffe02	0.0006103219
123	0xba97d0cc	-0.0011582612
124	0xba15545d	-0.000569647
125	0x3a0049b0	0.0004893793
126	0x3a0288d8	0.0004979498
127	0xba259c00	-0.00063174963
128	0x3a23491c	0.00062288507
129	0x3a0602a4	0.0005112088
130	0x39f422de	0.00046565285
131	0xb9d2383e	-0.00040096225
132	0xba022366	-0.0004964381
133	0x3a8b8563	0.0010644611
134	0x3a0886ce	0.0005208076
135	0xbac17f3b	-0.0014762649
136	0x3a29440e	0.00064569793
137	0xba422582	-0.0007406102
138	0x39520e40	0.00020032469
139	0xb9ac3ee2	-0.00032853248
140	0x3a60b341	0.0008571633
141	0xbafa09a1	-0.0019076356
142	0xbabd0ac4	-0.0014422764
143	0x3a57ad90	0.0008227462
144	0xb9b621d3	-0.00034738946
145	0xbae741ca	-0.0017643508
146	0xbaa74c99	-0.0012763917
147	0xbac86946	-0.0015290163
148	0xb92b4179	-0.00016332221
149	0xbaa9a51c	-0.0012942883
150	0x3b10bb02	0.0022084122
151	0xb9b8488d	-0.0003514927
152	0x3a59b81d	0.0008305328
153	0xb98e9104	-0.00027192396
154	0x3a2e9c87	0.00066608976
155	0x3a5ec2d0	0.0008497657
156	0x3ad4463d	0.0016195249
157	0x3a767422	0.00094014604
158	0xba8ca352	-0.0010729826
159	0xbaac8fe6	-0.0013165444
160	0xba874025	-0.0010318799
161	0x39db1034	0.00041783007
162	0xba201ef9	-0.0006108131
163	0xb7c73bdb	-2.3750521e-05
164	0x39b0ee3b	0.00033746831
165	0x3a3b54d5	0.0007146125
166	0x3b15df04	0.0022868523
167	0x398aec14	0.00026497303
168	0xb89d4430	-7.499044e-05
169	0xb93412e4	-0.00017173175
170	0x39f6137c	0.00046935293
171	0xb78a845b	-1.6512515e-05
172	0xb9470969	-0.00018981624
173	0x39e4d057	0.00043642774
174	0x3a462824	0.0007559082
175	0x3a31b66f	0.0006779199
176	0x3a841aad	0.0010078751
177	0x3926a105	0.00015890978
178	0x377913dc	1.484618e-05
179	0x3953944f	0.00020177777
180	0x3961c144	0.00021529669
181	0x3a9884b6	0.0011636231
182	0x3a38a830	0.0007044105
183	0x38e2aa10	0.000108081964
184	0x3a6dbf6e	0.0009069358
185	0xba8615b7	-0.001022986
186	0x3a20a9a7	0.0006128796
187	0xba44b966	-0.0007504433
188	0xb9f73913	-0.00047154035
189	0xb9e6b620	-0.00044004712
190	0x39ffced2	0.00048791483
191	0xba8123d2	-0.0009852594
192	0x397943c3	0.00023771734
193	0xb8ff9abb	-0.00012188168
194	0x3a16f282	0.00057581824
195	0xbadaf049	-0.0016703691
196	0xb9988f36	-0.000290984
197	0x3ace7efd	0.0015754398
198	0x39f88181	0.00047398734
199	0x3a7bf6cb	0.0009611665
200	0x39f8d734	0.00047462585
201	0xba2197f9	-0.0006164308
202	0xb9bba039	-0.00035786795
203	0xb8f62fa0	-0.00011739065
204	0x3a81694b	0.0009873299
205	0x3a2c3677	0.0006569395
206	0xba941dbf	-0.0011300369
207	0xb9c92a89	-0.000383694
208	0xb84538f4	-4.70215e-05
209	0xba425425	-0.0007413051
210	0xba0fe230	-0.00054887217
211	0xba142e27	-0.0005652629
212	0x3a657410	0.00087529514
213	0xb5370def	-6.819309e-07
214	0x3ac737c5	0.0015199116
215	0x3a44f1dd	0.0007512847
216	0x3aa6a7db	0.001271482
217	0x3a32508b	0.0006802163
218	0xba0d2e34	-0.0005385608
219	0x388b891f	6.653577e-05
220	0xbaa9d9cb	-0.0012958584
221	0xb8ad01a7	-8.2495906e-05
222	0x3a6271b7	0.00086381607
223	0xbaa76374	-0.0012770728
224	0x3a075bef	0.00051635405
225	0x38bd2333	9.018779e-05
226	0xba9c1c3e	-0.0011910272
227	0x3a0a580c	0.0005277402
228	0xba1d6433	-0.00060040056
229	0xb953bc86	-0.00020192759
230	0xbb1b928b	-0.002373847
231	0x3a0e852d	0.0005436715
232	0xbabd1a9c	-0.0014427486
233	0x3a60c1f8	0.00085738255
234	0x3a7e1254	0.0009692062
235	0x3ac77634	0.0015217722
236	0xba1433f1	-0.0005653492
237	0xb991775f	-0.00027745494
238	0xb9e389ea	-0.00043399568
239	0x3a107172	0.0005510069
240	0x3a2dc46e	0.00066286966
241	0x3ab97f0a	0.001415224
242	0x3a28648e	0.0006423675
243	0x3938a7ad	0.00017610072
244	0x3a33df1c	0.0006861554
245	0x396ded60	0.0002269051
246	0x3a9333c1	0.0011230634
247	0x378b4b55	1.660517e-05
248	0xba158cb2	-0.0005704864
249	0x3a9a6cc7	0.0011781686
250	0xb9b56249	-0.00034596238
251	0x3a8225b2	0.0009929447
252	0x388e9e13	6.800531e-05
253	0x3996a970	0.0002873647
254	0x394da2bd	0.00019610948
255	0xbaf8376c	-0.0018937415

net.4.bias f4 [64]
0	0x00000000	0.0
1	0x00000000	0.0
2	0x00000000	0.0
3	0x00000000	0.0
4	0x00000000	0.0
5	0x00000000	0.0
6	0x00000000	0.0
7	0x00000000	0.0
8	0x00000000	0.0
9	0x00000000	0.0
10	0x00000000	0.0
11	0x00000000	0.0
12	0x00000000	0.0
13	0x00000000	0.0
14	0x00000000	0.0
15	0x00000000	0.0
16	0x00000000	0.0
17	0x00000000	0.0
18	0x00000000	0.0
19	0x00000000	0.0
20	0x00000000	0.0
21	0x00000000	0.0
22	0x00000000	0.0
23	0x00000000	0.0
24	0x00000000	0.0
25	0x00000000	0.0
26	0x00000000	0.0
27	0x00000000	0.0
28	0x00000000	0.0
29	0x00000000	0.0
30	0x00000000	0.0
31	0x00000000	0.0
32	0x00000000	0.0
33	0x00000000	0.0
34	0x00000000	0.0
35	0x00000000	0.0
36	0x00000000	0.0
37	0x00000000	0.0
38	0x00000000	0.0
39	0x00000000	0.0
40	0x00000000	0.0
41	0x00000000	0.0
42	0x00000000	0.0
43	0x00000000	0.0
44	0x00000000	0.0
45	0x00000000	0.0
46	0x00000000	0.0
47	0x00000000	0.0
48	0x00000000	0.0
49	0x00000000	0.0
50	0x00000000	0.0
51	0x00000000	0.0
52	0x00000000	0.0
53	0x00000000	0.0
54	0x00000000	0.0
55	0x00000000	0.0
56	0x00000000	0.0
57	0x00000000	0.0
58	0x00000000	0.0
59	0x00000000	0.0
60	0x00000000	0.0
61	0x00000000	0.0
62	0x00000000	0.0
63	0x00000000	0.0

mean_head.weight f4 [1, 64]
0	0xba031b70	-0.0005001342
1	0x3b0659f3	0.0020500391
2	0x3ae268f9	0.0017273716
3	0xbae9917e	-0.0017819849
4	0xb99628ff	-0.00028640774
5	0xba8a649f	-0.0010558552
6	0x39186472	0.00014533268
7	0xb9b9f1fb	-0.0003546624
8	0xbb0d59a6	-0.0021568327
9	0x3a91e5e0	0.001113113
10	0x3ae0da78	0.0017154953
11	0xba9ec2a6	-0.0012112453
12	0xba20783b	-0.00061214314
13	0xbaa8b346	-0.001287081
14	0x3a67c6af	0.0008841557
15	0x3b16e646	0.0023025437
16	0xbafd1ed5	-0.0019311557
17	0x38c288ad	9.276099e-05
18	0x38fbf5f0	0.00012014422
19	0xb9e0cf90	-0.00042879255
20	0xb8d3c190	-0.00010097318
21	0x38728469	5.7820613e-05
22	0x3adb35b3	0.0016724378
23	0xb9ac875d	-0.0003290725
24	0x38ea3190	0.00011167221
25	0x3a5d3a21	0.0008439143
26	0x387c64c9	6.0175345e-05
27	0x3ae8266f	0.0017711649
28	0x3a3dcd24	0.0007240346
29	0xbaae1570	-0.0013281535
30	0x3b085f0d	0.0020808608
31	0xba2789a1	-0.0006391053
32	0xba2d23f9	-0.00066047866
33	0x3a8e7724	0.0010869247
34	0x39f2bb46	0.00046297366
35	0x3b536b32	0.0032259938
36	0x3abffad5	0.0014646897
37	0xb97bb166	-0.00024003311
38	0xb98e5b3f	-0.00027152334
39	0xbabdf806	-0.0014493472
40	0xba8b06a0	-0.0010606833
41	0x3a2297d2	0.00062024326
42	0x37d797a7	2.5700616e-05
43	0x38522e6e	5.0111143e-05
44	0xba62cf1b	-0.0008652077
45	0xb99a1b2e	-0.0002939342
46	0x3ad4671d	0.0016205047
47	0x3a101099	0.00054956373
48	0x3b32a130	0.002725672
49	0xba21af32	-0.0006167769
50	0x38708b8a	5.7350415e-05
51	0x3ad1086c	0.0015947944
52	0x3a11479d	0.0005541982
53	0x3a752d29	0.00093527377
54	0xbaff5893	-0.0019481353
55	0x3a767ef2	0.00094030716
56	0xba81419b	-0.0009861471
57	0x3901e8c6	0.00012389114
58	0xb9278213	-0.00015974818
59	0x3a7e45c9	0.000969973
60	0x3aee0ca2	0.0018161724
61	0xbb1fadfc	-0.0024365177
62	0xba6c1229	-0.00090053916
63	0xbaae6fe6	-0.0013308495

log_std_head.weight f4 [1, 64]
0	0x39e5dfae	0.00043844938
1	0x3ae9e922	0.0017845968
2	0xb88ba69f	-6.659072e-05
3	0xb96d90b7	-0.00022655992
4	0x3ad39bac	0.0016144416
5	0xba7414d9	-0.0009310968
6	0x3adc3760	0.0016801171
7	0x3aabf676	0.0013119716
8	0x39b8715d	0.00035179677
9	0xbafb7dfc	-0.0019187327
10	0x3b0151c9	0.0019732586
11	0xba3b7dc1	-0.00071522227
12	0xba423b94	-0.00074093905
13	0xbafbd2c3	-0.0019212592
14	0xb895b127	-7.137871e-05
15	0x3a09d2e0	0.0005257558
16	0x3a85739c	0.0010181549
17	0x390139b9	0.00012323902
18	0xb92e2ddc	-0.00016611017
19	0xbad56fae	-0.0016283893
20	0x38db7a24	0.00010465484
21	0x3a95f4b7	0.0011440729
22	0x3a9ac980	0.0011809319
23	0xba8987fd	-0.0010492798
24	0xbb16ed6b	-0.0023029696
25	0xba1aea21	-0.0005909522
26	0xba52af62	-0.00080369983
27	0xbaea1357	-0.0017858547
28	0x3ab2a5c6	0.0013629727
29	0x3b0a60ab	0.0021114748
30	0x3a8246df	0.0009939334
31	0xba9a3270	-0.0011764299
32	0x3aa26c4c	0.0012391894
33	0x3ac93265	0.0015350102
34	0x3b126071	0.0022335316
35	0xba2c8e0e	-0.0006582447
36	0xba406c74	-0.00073403795
37	0xba64a879	-0.0008722614
38	0x3940657d	0.00018348354
39	0xb8a2fcef	-7.7718745e-05
40	0xb9c2e02f	-0.00037169593
41	0xba10287b	-0.0005499196
42	0xbaa8fa38	-0.0012891954
43	0x3a9c2201	0.001191199
44	0x3a639d2f	0.0008682785
45	0xbab2e91e	-0.0013649797
46	0xbb5b92f8	-0.0033504348
47	0xb8d5eb35	-0.00010200442
48	0xba20dc42	-0.00061363366
49	0x3a0842d5	0.0005197947
50	0xbb2348e4	-0.0024915272
51	0xb9c9f694	-0.00038521423
52	0x3985d2fc	0.00025524932
53	0xb882af49	-6.2315325e-05
54	0x392c4bf9	0.000164315
55	0xba0a5b47	-0.00052778836
56	0x38a7f1ee	8.0082435e-05
57	0xbb0f6f81	-0.002188653
58	0x3962042c	0.00021554594
59	0xbac85577	-0.001528426
60	0xb9b2db27	-0.00034114087
61	0xbae202b9	-0.0017243243
62	0xba0898b7	-0.00052107446
63	0x3b057fd3	0.0020370379

q1.0.weight f4 [128, 14]
0	0xbe060aca	-0.13090053
1	0xbe22c6ae	-0.15896103
2	0xbe6dfa71	-0.23240067
3	0x3e6ec272	0.23316363
4	0xbcb80700	-0.022464275
5	0xbe2fac8a	-0.17155662
6	0x3da2a434	0.079414755
7	0x3e47f83a	0.19528285
8	0x3e85d901	0.26142123
9	0xbe80aa00	-0.251297
10	0x3bbe8a80	0.0058148503
11	0x3d6b0370	0.057376325
12	0x3e824069	0.25439766
13	0x3cadee60	0.02123183
14	0x3e259170	0.16168761
15	0xbe715162	-0.23566201
16	0xbc790360	-0.015198559
17	0x3e031f10	0.12804818
18	0x3e455436	0.19270405
19	0xbd0b735c	-0.034045562
20	0x3d28d6f8	0.041220635
21	0x3e6c58fa	0.23080817
22	0xbe75cfbe	-0.24005029
23	0xbe47acf2	-0.19499567
24	0xbe50d846	-0.20395002
25	0x3e659776	0.22421059
26	0x3e84927f	0.25893018
27	0xbe51d4e3	-0.20491366
28	0xbe017006	-0.1264039
29	0xbcef9e20	-0.029250205
30	0x3e71459e	0.23561713
31	0x3d1c87e8	0.038215548
32	0xbe7e419a	-0.24829713
33	0xbd33362c	-0.043752834
34	0x3d6b78f0	0.05748838
35	0x3d8aea60	0.06782985
36	0xbdbf4874	-0.09339991
37	0xbe52a46e	-0.20570537
38	0xbd1221a0	-0.0356766
39	0x3e60750e	0.21919653
40	0xbd2bbe14	-0.04192932
41	0xbe40c921	-0.18826725
42	0xbe61a46f	-0.22035383
43	0xbe1f2e3b	-0.1554498
44	0xbe6b3005	-0.22967537
45	0xbe3b5e2f	-0.18297647
46	0x3c4cdd00	0.012503862
47	0x3dfa5a90	0.12224305
48	0xbd294d6c	-0.0413336
49	0x3e7a602a	0.24450746
50	0x3dae093c	0.08497855
51	0x3c00f1c0	0.007870138
52	0x3db380a4	0.087647706
53	0xbe448ad4	-0.19193584
54	0xbe70ac76	-0.23503289
55	0xbdc6a828	-0.09700042
56	0x3d31ade8	0.04337874
57	0xbe3f056a	-0.18654409
58	0x3d3ba158	0.045808166
59	0xbd134bec	-0.035961077
60	0x3be12980	0.0068714023
61	0xbe3eabaa	-0.18620172
62	0xbe32de70	-0.17467666
63	0x3e6a15a6	0.2285982
64	0x3d450998	0.048104852
65	0xbdd13260	-0.102146864
66	0xbe3df030	-0.18548656
67	0xbd644dd4	-0.055738285
68	0x3d5137e0	0.051078677
69	0xbce96ef0	-0.028495282
70	0x3c44a200	0.012001514
71	0x3c963020	0.018333495
72	0x3e2a20b8	0.16614044
73	0x3d82d174	0.06387606
74	0x3e5797fc	0.21054071
75	0xbe2e6550	-0.17030835
76	0x3dcd85b8	0.100352705
77	0x3e7003fa	0.23439017
78	0x3b28de80	0.0025767386
79	0xbe0bd129	-0.13654007
80	0xbe83449e	-0.25638288
81	0xbe26f0f6	-0.16302857
82	0xbe5c8597	-0.21535335
83	0xbe771b73	-0.24131565
84	0xbe4d8588	-0.2007047
85	0x3e1f4dec	0.15557069
86	0x3cc21fa0	0.02369672
87	0x3e811829	0.25213745
88	0xbc66af80	-0.014079928
89	0xbe883df4	-0.26609766
90	0xbe34b49e	-0.17647025
91	0xbe158d7e	-0.14604756
92	0x3e3a0038	0.18164146
93	0xbe0ad1f6	-0.13556656
94	0x3e3b93de	0.18318126
95	0xbd73d408	-0.05952838
96	0xbdca922a	-0.0989116
97	0xbcc569d8	-0.024098322
98	0x3e7ef712	0.24898937
99	0x3bce7c80	0.0063014627
100	0xbcb614d8	-0.022226736
101	0xbe23da51	-0.1600125
102	0x3c99e4e0	0.018785894
103	0x3d8e7f40	0.06957865
104	0xbe391c93	-0.18077306
105	0xbdad5566	-0.08463554
106	0x3e7deb4a	0.24796787
107	0xbd88503c	-0.066559285
108	0xbdbb90ca	-0.09158476
109	0xbe2e1415	-0.16999848
110	0x3e1898bc	0.14902014
111	0xbe4199bc	-0.18906301
112	0xbe2ecbd3	-0.1706994
113	0x3b8486c0	0.0040443838
114	0xbd982936	-0.07429735
115	0x3d70dd68	0.0588049
116	0x3d5011e8	0.050798327
117	0x3e4ed890	0.201998
118	0xbe5bd439	-0.21467675
119	0xbe3d8527	-0.18507825
120	0x3e5ab008	0.21356213
121	0xbe610c65	-0.21977384
122	0x3e60931c	0.21931118
123	0x3c613120	0.0137446225
124	0xbe670478	-0.22560298
125	0xbd58bdd0	-0.052915394
126	0xbd750f3c	-0.05982898
127	0x3d734aa0	0.05939734
128	0x3d7b7e38	0.06139967
129	0x3e578ad6	0.21049055
130	0xbdaee4ca	-0.08539732
131	0x3e83c5a5	0.25736728
132	0x3e829e45	0.25511375
133	0xbe09ad9c	-0.13445133
134	0x3dff31a4	0.1246064
135	0xbe58da56	-0.21177039
136	0xbe662b16	-0.22477373
137	0x3e65e152	0.22449234
138	0xbd9c1d86	-0.07622819
139	0x3de0a8b8	0.109696805
140	0x3d34c600	0.04413414
141	0x3d6a7020	0.057235837
142	0x3d4a5fb0	0.04940766
143	0x3cfac770	0.030612677
144	0x3e36e9aa	0.17862573
145	0xbcec6480	-0.028856516
146	0x3cb3acd0	0.02193299
147	0xbdad487c	-0.08461091
148	0xbe247208	-0.16059124
149	0xbde54c9c	-0.11196253
150	0x3e4c3358	0.19941461
151	0xbd7f6550	-0.06235248
152	0x3da61df4	0.08111182
153	0x3da57800	0.08079529
154	0x3db7ac38	0.08968395
155	0x3dd1a188	0.10235888
156	0x3e05bb96	0.1305984
157	0x3c97f5d0	0.01854983
158	0x3da86ba8	0.08223659
159	0xbd988d8c	-0.07448873
160	0x3e5a2834	0.21304399
161	0xbe27aaa2	-0.16373685
162	0x3e41f2f2	0.18940333
163	0xbcefbf38	-0.029265985
164	0xbdb2d3cc	-0.08731803
165	0xbe248af6	-0.16068634
166	0x3e61c17a	0.22046462
167	0xbdf5eedc	-0.120084494
168	0xbe69e4a6	-0.22841129
169	0x3d76e8a0	0.060280442
170	0x3c5d0c60	0.01349172
171	0xbdfc6c5c	-0.123253554
172	0xbdde4408	-0.1085282
173	0x3d316f18	0.043318838
174	0xbe7c9b95	-0.24668725
175	0xbd634a38	-0.055490702
176	0xbdd1f9e6	-0.102527425
177	0xbddaee96	-0.10690038
178	0xbe842a19	-0.25813368
179	0xbe6d2f70	-0.23162627
180	0xbe0fe925	-0.14053781
181	0x3e7bf006	0.2460328
182	0xbe0d9bd9	-0.13828982
183	0xbd1b1260	-0.03785932
184	0xbe84c4a0	-0.25931263
185	0x3e856705	0.2605516
186	0xbdb38784	-0.08766082
187	0xbe78f58c	-0.24312419
188	0xbe6392d7	-0.22223984
189	0x3e78f4d6	0.24312147
190	0xbdd828ec	-0.1055468
191	0x3de6ed58	0.112757385
192	0xbe5776c0	-0.21041393
193	0x3e303d30	0.17210841
194	0x3e6cb878	0.23117244
195	0x3dad7320	0.08469224
196	0x3d9bd4f0	0.07608974
197	0xbdc29fdc	-0.09503147
198	0xbdfa1ca0	-0.12212491
199	0x3d3ac360	0.04559648
200	0xbd381760	-0.044944167
201	0x3e8251d3	0.25453052
202	0x3e193054	0.14959842
203	0xbcf47c80	-0.029844522
204	0x3e870885	0.26373687
205	0xbe7607c5	-0.24026401
206	0xbdc3dd7c	-0.09563729
207	0x3e157360	0.14594793
208	0x3e57c976	0.21072945
209	0xbe46ac22	-0.19401601
210	0xbdd57cd6	-0.10424201
211	0x3e37ca70	0.17948318
212	0x3c00ee60	0.007869333
213	0x3a6ee600	0.0009113252
214	0x3c83eb00	0.016103268
215	0xbe664b77	-0.22489725
216	0x3d9bd7bc	0.076095074
217	0x3e5addfc	0.21373743
218	0x3e1262f6	0.14295563
219	0xbd90953a	-0.07059713
220	0x3e39812e	0.18115684
221	0x3e17c402	0.14820865
222	0x3b312700	0.0027031302
223	0x3e125f9c	0.14294285
224	0x3e191c52	0.1495221
225	0x3d9e221c	0.077213496
226	0xbe0255c1	-0.12728025
227	0xbe1f911a	-0.15582696
228	0xbe825f5d	-0.2546338
229	0xbe221ab4	-0.15830499
230	0xbd6654c0	-0.056233168
231	0xbe54c9d6	-0.2078012
232	0x3d6797e0	0.056541324
233	0xbd42dc50	-0.047573388
234	0x3ddfce7c	0.10928056
235	0x3e2345b2	0.15944555
236	0x3da67d6c	0.08129391
237	0x3e06d940	0.13168812
238	0x3daeb668	0.08530885
239	0xbd519e48	-0.05117634
240	0x3e47cfda	0.19512883
241	0xbe2683ac	-0.16261166
242	0x3dc0f0c4	0.094209224
243	0xbd8da7ca	-0.06916769
244	0xbe05cd25	-0.13066538
245	0xbd999664	-0.07499388
246	0xbe85057c	-0.25980747
247	0xbe40c49c	-0.18825
248	0xbe530067	-0.20605622
249	0xbc4ab6a0	-0.012372643
250	0x3e3456a6	0.17611179
251	0x3e1f1fae	0.15539429
252	0xbce313c8	-0.027719393
253	0x3cd641a0	0.02615434
254	0xbd2d04e0	-0.042240977
255	0xbdac45c4	-0.08411744

q1.0.bias f4 [128]
0	0xbe17430e	-0.14771673
1	0x3e1195c4	0.14217287
2	0x3e43bdb6	0.19115338
3	0xbde290f8	-0.11062807
4	0x3e778896	0.24173197
5	0x3e29dfaa	0.16589227
6	0xbc680040	-0.014160216
7	0xbe7630f2	-0.24042109
8	0x3e4da9bc	0.2008428
9	0x3dce92bc	0.10086581
10	0xbe2ec8da	-0.17068806
11	0x3e0e7798	0.13912809
12	0x3e462062	0.1934829
13	0xbe1351e0	-0.14386702
14	0x3e814a17	0.2525184
15	0x3e4067fa	0.18789664
16	0xbe78c178	-0.24292552
17	0xbd053300	-0.03251934
18	0xbe59c8a8	-0.2126795
19	0x3e7822f2	0.2423208
20	0x3e070c8c	0.1318838
21	0x3cf1c470	0.029512614
22	0xbdee6794	-0.1164085
23	0x3e57cba4	0.21073776
24	0x3e38cc74	0.18046743
25	0xbe5dcad5	-0.21659406
26	0x3ce9dca0	0.028547585
27	0x3e7e1e6e	0.24816296
28	0x3d1d9978	0.038476437
29	0xbd45bc48	-0.048275262
30	0xbd2df758	-0.042472214
31	0xbd4eba4c	-0.050470635
32	0xbd4ddf50	-0.050261796
33	0xbb669500	-0.0035184026
34	0x3e5242e2	0.20533326
35	0x3e7c399e	0.24631354
36	0x3e61670c	0.22011966
37	0x3e3e3616	0.1857532
38	0x3e5d6d80	0.21623802
39	0xbe3bab08	-0.18326962
40	0xbdfeb328	-0.12436515
41	0xbe54fa16	-0.20798525
42	0xbe53005a	-0.20605603
43	0x3e175c9c	0.14781421
44	0xbe02dd10	-0.12779641
45	0xbca07150	-0.019585282
46	0xbdd283ca	-0.10279043
47	0xbcb86668	-0.022509769
48	0x3ccafa00	0.024777412
49	0xbde2700c	-0.110565275
50	0xbddd5480	-0.10807133
51	0x3dd800ec	0.10547051
52	0x3d559b40	0.05215001
53	0x3e3c033c	0.18360609
54	0x3d917c5c	0.07103798
55	0x3e1bccb0	0.15214801
56	0x3d4c3fa8	0.049865395
57	0x3e48b77a	0.19601241
58	0xbe1e1970	-0.15439391
59	0xbdcf0158	-0.10107678
60	0x3d2ac7f0	0.04169458
61	0xbe2bfd22	-0.16795781
62	0xbe7f9cf8	-0.24962223
63	0xbded9bce	-0.11601983
64	0x3cb9fc60	0.02270335
65	0xbe28d147	-0.16486083
66	0x3dc5b978	0.09654516
67	0xbce973b0	-0.028497547
68	0x3df96a18	0.12178439
69	0xbd0b6f7c	-0.034041867
70	0x3e13faca	0.14451137
71	0xba3df200	-0.00072458386
72	0xbcf36468	-0.029710963
73	0xbc9af1e8	-0.018914178
74	0xbe372e42	-0.1788874
75	0xbe80ec30	-0.25180197
76	0x3c5bbee0	0.013412207
77	0x3cf75260	0.030190647
78	0xbd9da092	-0.07696642
79	0x3dbfdac4	0.09367898
80	0x3dbd5dc8	0.09246403
81	0x3d8e13a8	0.06937343
82	0xbe63cf9c	-0.22247165
83	0x3d6b6d58	0.057477325
84	0xbd930c80	-0.071801186
85	0xbb676200	-0.0035306215
86	0x3dba0168	0.090822995
87	0xbe703176	-0.23456368
88	0x3dd5a4e8	0.10431844
89	0x3c846be0	0.01616472
90	0x3dcd2da0	0.10018468
91	0x3dc70fb8	0.09719795
92	0xbd1aff34	-0.037841037
93	0x3e888921	0.2666712
94	0x3e075dae	0.1321933
95	0x3d843090	0.06454575
96	0xbd883c38	-0.06652111
97	0x3e15d81c	0.1463322
98	0x3e2527dc	0.16128486
99	0xbe558cc7	-0.20854484
100	0xbe5d58be	-0.21615884
101	0xbe600abf	-0.218791
102	0x3dfbe4fc	0.12299535
103	0xbe315764	-0.17318493
104	0xbe1f9064	-0.15582424
105	0xbda1a056	-0.0789191
106	0xbd34a96c	-0.044106886
107	0x3df9a610	0.12189877
108	0x3dba8cd0	0.09108889
109	0xbe692222	-0.22766927
110	0x3e618818	0.22024572
111	0x3d53ce78	0.051710576
112	0x3d3a90e8	0.04554835
113	0xbe0250bc	-0.1272611
114	0x3e33079a	0.17483369
115	0xbd663cec	-0.056210443
116	0x3e482e1c	0.1954884
117	0x3dcee3cc	0.101020426
118	0xbdb3e31e	-0.087835535
119	0xbe6f46df	-0.23366879
120	0xbe51b5cd	-0.20479508
121	0xbc9af170	-0.018913954
122	0xbe4d6efe	-0.20061871
123	0x3e37d4ca	0.17952266
124	0xbde9825a	-0.11401816
125	0x3e821751	0.25408414
126	0xbe02c1eb	-0.12769286
127	0x3e7c78d6	0.2465547

q1.2.weight f4 [128, 128]
0	0x3c8c94f8	0.017160878
1	0x3da75547	0.08170562
2	0x3da1aff9	0.07894892
3	0xbd7361a7	-0.0594193
4	0xbd655234	-0.055986598
5	0xbd76aad0	-0.060221493
6	0x3cef3ab0	0.029202789
7	0xbd780c71	-0.06055874
8	0x3c7c77d8	0.015409432
9	0x3caad624	0.020854063
10	0x3ce2aeec	0.0276713
11	0x3d00c20e	0.031435065
12	0x3d1303f2	0.035892434
13	0x3d80312f	0.06259381
14	0x3d701896	0.058617197
15	0x3d31e0c6	0.04342725
16	0x3c504928	0.012712754
17	0x3d94e4fd	0.072702385
18	0xbd279a22	-0.040918477
19	0x3d80653d	0.0626931
20	0x3b1a9c80	0.0023591816
21	0x3d094cdc	0.033520564
22	0xbd842842	-0.06452991
23	0xbd9e565b	-0.07731315
24	0x3c748e38	0.014926486
25	0x3d992b47	0.074789576
26	0xbd992bd0	-0.0747906
27	0xbb0540c0	-0.0020332783
28	0x3c77fb90	0.015135661
29	0x3c2fb788	0.01072491
30	0xbbd6b340	-0.00655213
31	0xbd9dcc6a	-0.077050045
32	0xbd5cd70e	-0.05391603
33	0xbda03ad8	-0.078237236
34	0x3aad2cc0	0.0013212189
35	0xbd2cf3ae	-0.04222458
36	0xbd2d0013	-0.0422364
37	0x3c8354ec	0.016031705
38	0xbd7c8de0	-0.06165874
39	0x3cd9b5c0	0.026575923
40	0xbda10675	-0.0786256
41	0x3b54fa20	0.003249772
42	0xbd1f9e16	-0.038969122
43	0xbd08565f	-0.033285495
44	0x3cd24398	0.025666997
45	0x3d8ec10f	0.06970417
46	0x3c125ea8	0.008933701
47	0xbad8f240	-0.0016551688
48	0xbdac4928	-0.08412391
49	0x3db47dab	0.08813032
50	0x3d972a19	0.07381076
51	0x3d950341	0.07276011
52	0xbc027e20	-0.007964641
53	0x3b18be20	0.0023306683
54	0x3bcc5c10	0.0062365606
55	0x3d1364fe	0.035984986
56	0x3d48a0ae	0.04898136
57	0xbd5c76b3	-0.053824138
58	0xbc6e6550	-0.014550522
59	0x3da4cdeb	0.08047088
60	0x3c34ea58	0.0110422
61	0x3d95c42f	0.0731281
62	0x3d917651	0.07102645
63	0x3c12c610	0.008958355
64	0xbd1a1322	-0.037615903
65	0xbd98d0fe	-0.07461737
66	0x3d8a769b	0.067609034
67	0x3d3c0526	0.045903347
68	0x3c3fe140	0.011711419
69	0xbdb41501	-0.08793069
70	0xbdb1d1cf	-0.08682596
71	0x3cb83ed8	0.022490904
72	0xbd00cf81	-0.03144789
73	0x3d1fb19a	0.038987733
74	0xbd64ac14	-0.05582817
75	0x3b2d6b00	0.0026461482
76	0x3d31e3de	0.0434302
77	0xbd80df3b	-0.06292578
78	0xbcb4f5b8	-0.022089824
79	0x3c10da10	0.008841053
80	0xbd7c7a8a	-0.0616403
81	0x3caf1ea8	0.021376923
82	0xbd76f65f	-0.06029355
83	0x3d924e99	0.071438976
84	0x3d7f890a	0.06238655
85	0xbd7fa874	-0.06241651
86	0x3d91c225	0.07117108
87	0x3d91f01b	0.071258746
88	0xbc4a3de0	-0.012343854
89	0x3da4d549	0.080484934
90	0x3da87d69	0.08227045
91	0x3c658ec0	0.014011085
92	0xbda9cf2b	-0.08291467
93	0xbd884f0c	-0.06655702
94	0xbd6a5fd8	-0.05722031
95	0xbb7fd5e0	-0.0039037392
96	0x3d7d43be	0.061832182
97	0xbd8822c0	-0.06647253
98	0xbd24f6ea	-0.040274538
99	0xbd0e4c81	-0.03474093
100	0x3c4e7b50	0.012602642
101	0xbd8e4e10	-0.06948483
102	0xbd1ba7a2	-0.038001664
103	0x3bb52070	0.0055275485
104	0xbcc1a8a4	-0.023639984
105	0x3d6443fe	0.055728905
106	0xbd4684a9	-0.04846636
107	0x3cf35410	0.02970317
108	0xbce039cc	-0.02737131
109	0xbd989db7	-0.07451957
110	0x3d86612f	0.06561505
111	0xbcf57d22	-0.029966895
112	0x3d5341ce	0.051576428
113	0x3d6fd1b2	0.05854959
114	0xbbb1bdf0	-0.0054242536
115	0x3d183a9e	0.037165277
116	0x3ce3cf08	0.027808681
117	0x3d97ef91	0.074187405
118	0x3ce3b6f8	0.027797207
119	0xbb8aeb60	-0.0042394847
120	0x3d788ea6	0.060682915
121	0x3d64f0f2	0.055893846
122	0xbd9e79d9	-0.07738084
123	0x3cc71c74	0.02430556
124	0x3d29e71e	0.041480176
125	0xbd9b1704	-0.07572749
126	0x3c42dcc0	0.011893451
127	0xbd41db6a	-0.04732839
128	0x3d191ca6	0.037380837
129	0xbb4c5380	-0.00311777
130	0xbdadf6f0	-0.08494365
131	0x3c850d78	0.016241774
132	0x3c911020	0.017707884
133	0x3d37471e	0.044745557
134	0xbcc8ff78	-0.02453588
135	0xbda31f4c	-0.07964954
136	0xbd23191c	-0.039818868
137	0x3c7162c8	0.014733024
138	0xbd918f66	-0.07107429
139	0xbda17ba9	-0.078849144
140	0xbd95c904	-0.07313731
141	0x3c821368	0.015878394
142	0xbcae9404	-0.021310814
143	0xbd7bc2bd	-0.061465014
144	0xbd99178e	-0.07475196
145	0x3d6df3ce	0.05809384
146	0xbb1b1640	-0.0023664385
147	0xbd84b511	-0.06479848
148	0x3d84882f	0.064712875
149	0xbb262700	-0.0025352836
150	0x3d395c5a	0.04525409
151	0xbbc2a1d0	-0.0059396997
152	0x3d41b5d2	0.047292538
153	0xbda11491	-0.07865251
154	0x3d1ebbb2	0.03875322
155	0x3d5b015e	0.0534681
156	0xbd9d1219	-0.076694675
157	0xbd215aec	-0.03939335
158	0x3d07d356	0.03316053
159	0x3cbb834c	0.022889756
160	0x3d518ea6	0.05116143
161	0x3c4454b8	0.011983089
162	0x3d935beb	0.07195266
163	0xbd95e047	-0.07318168
164	0x3d9c3067	0.076264195
165	0xbdabf797	-0.083968334
166	0x3c2f8808	0.010713585
167	0x3c594dd8	0.013263188
168	0xbd8826d4	-0.06648031
169	0xbc6cd678	-0.01445543
170	0x3da80bcf	0.08205377
171	0xbd4f84be	-0.050663702
172	0xbc5e57f8	-0.013570778
173	0xbd8a2c8f	-0.0674678
174	0xbd895f42	-0.06707622
175	0x3d5ab376	0.053393804
176	0xbd5f2ab4	-0.054484084
177	0xbd3f7c74	-0.046749547
178	0xbd247ae2	-0.040156253
179	0xbc291f08	-0.01032234
180	0xbca027b0	-0.019550174
181	0x3d284552	0.041081734
182	0xbd5d9ffe	-0.05410766
183	0x3d67ea8a	0.05662016
184	0x3d9b849f	0.07593655
185	0x3cedffb8	0.0290526
186	0xbd87fcef	-0.0664004
187	0x3ba31890	0.0049772933
188	0x3da9b4a9	0.08286411
189	0xbd910199	-0.07080383
190	0xbd9c02f3	-0.0761775
191	0x3c75b950	0.014997795
192	0x3c7e7908	0.015531786
193	0x3da8c0db	0.08239909
194	0xbdad0102	-0.08447458
195	0xbd92bf90	-0.07165444
196	0x3d94ce35	0.07265893
197	0x3d733bc2	0.05938316
198	0xbcd92298	-0.026505753
199	0x3d64c9b6	0.05585643
200	0xbcefbdba	-0.029265273
201	0x3cbcd8c0	0.023052573
202	0xbc291c38	-0.010321669
203	0x3c58d620	0.013234645
204	0xbc9a2e24	-0.01882083
205	0xbd8ac3c8	-0.067756236
206	0x3c05ca18	0.008165859
207	0xbd8360f7	-0.06414979
208	0xbdb1a9a5	-0.08674935
209	0xbd5547b4	-0.052070335
210	0x3d1306a2	0.035894997
211	0xb8f47000	-0.00011655688
212	0x3daa0f95	0.08303753
213	0xbd3269bd	-0.04355787
214	0xbd8f3967	-0.069933705
215	0x3d43b47a	0.047779538
216	0xbc93c994	-0.018040456
217	0xba5f0e80	-0.00085089356
218	0x3d884265	0.06653289
219	0xbcbb9ef4	-0.022902943
220	0x3d0152ac	0.031572983
221	0x3c8d499c	0.017247014
222	0xbd0eecf7	-0.034893956
223	0x3d9e3c23	0.07726314
224	0xbc808fbc	-0.015693538
225	0xbdb2d1a6	-0.087313935
226	0xbd99df7a	-0.07513328
227	0xba477880	-0.00076092035
228	0x3d700642	0.058599718
229	0x3d53fbfe	0.05175399
230	0xbba41d40	-0.0050083697
231	0x3d6aff32	0.05737228
232	0x3d9d2fa7	0.076751046
233	0xbca02404	-0.019548424
234	0xbda3d5cc	-0.07999763
235	0xbd35840a	-0.044315375
236	0xbda8c0be	-0.08239888
237	0xbd878136	-0.06616442
238	0xbd8ac9e1	-0.067767866
239	0x3db47f47	0.08813339
240	0xbc9d9850	-0.019237667
241	0x3d5cb79e	0.05388605
242	0x3c3058c8	0.010763355
243	0xbd600ab9	-0.054697726
244	0xbd10d938	-0.035363406
245	0xbb3d6b80	-0.0028903186
246	0x3dab3f3d	0.08361671
247	0x3d878e29	0.06618912
248	0xbb59a260	-0.0033208355
249	0xbd97615b	-0.07391616
250	0x3c989d0c	0.018629573
251	0xbc8c36cc	-0.017115973
252	0xbd84acd8	-0.0647828
253	0xbd6fc8a6	-0.058540963
254	0xbd54de99	-0.0519701
255	0x3d6b5d56	0.05746206
