rgz/checkpoint_50.pth (torch, 329813 bytes, 22 tensors)

net.0.weight f4 [128, 13]
00000000: 525d 363b 23ba 573a ec1e 543c 802a 1fbc
00000010: 5535 273b 4b4e 7db9 d9e7 713b c675 5fbb
00000020: 830b 123d a2fc 48bc b907 ef3b 0c2d 9dba
00000030: 271e b03c 39df 923b 21ca 6c3b 9c92 2d3c
00000040: ef4e ebbb 3047 1c3b bb64 aeba 62f7 033c
00000050: acd6 8fba 66bc 103d 07e2 04bc 3136 bd3b
00000060: 8051 d838 d03c be3c a5a7 913b ae23 713b
00000070: b380 2e3c 5e82 f2bb 72a0 3d3b 48b8 1339
00000080: 3bf9 cb3b 88fa 9fba 9996 143d 3dfa 17bc
00000090: f3b0 023c 2e95 fdb8 47a9 c23c 92b4 ef39
000000a0: 9e1d ac39 60ad 4bba b5da 43ba 9ab1 2a3a
000000b0: 0559 2a3a 3723 90ba 2c64 8eb9 1d89 3bba
000000c0: 245d 3bba b468 3dba ce66 9cba 01d2 baba
000000d0: 40ae 6f3b 91ee 5f3b 3a51 303c b775 04bc
000000e0: d95a bf3a 75b1 e1ba f59c 713b a2f6 1cbb
000000f0: 65a1 183d 7bca 3dbc 802d 0c3c eb3c adb8
00000100: dfb2 c03c 4da8 8b3b b591 693b 7a2c 433c
00000110: e1b6 e7bb 93fa 0b3b 0c04 6aba 6709 d63b
00000120: 33b2 0fbb 8224 163d a541 1cbc d1ab de3b
00000130: c05c 0639 5eee b43c 0db0 67b9 3cd5 2eb9
00000140: be11 a5b9 6a32 30ba 4f0b b639 bef1 23ba
00000150: 01e6 4eba 89b2 fcba 1143 07bb f2e7 63ba
00000160: cef2 6a3a f878 463a 5844 7db9 666f 833a
00000170: e1d5 e43a dc25 4f3c 9edb 15bc 74af 363b
00000180: b29d 71bb 7637 803b 6d04 8ebb 138e 133d
00000190: 57f0 46bc b911 073c 0702 cbba 6552 ae3c
000001a0: 0779 f23c 57d2 ea3c c853 27be cf96 74bd
000001b0: 6f43 77bc e39b 9a3c b6c3 243d 161a 033d
000001c0: 9b9f c2bb efff 01bd d5c0 65bd 5889 a838
000001d0: 8d12 ec3c d86d 7239 9485 6a3a 313d 503b
000001e0: 5892 10bb 555b 123b f45d 0cbb 068e 08ba
000001f0: b591 00bb 2f8b 22bb f238 f33a 7597 e33a
00000200: 42b1 2738 7e36 7f3a 08ba 2c3b 495d 953b
00000210: b809 213c 000b f8bb 693b 0c3b 0d3e aab9
00000220: 0ddd ad3b c444 47bb 474c 133d e906 0abc
00000230: 823f cb3b cbf3 ac3a 70ae be3c 5fa2 e1ba
00000240: 4287 a03a 0d88 1b3a 9607 86ba ef56 a839
00000250: 3f69 cbba 2548 453a 784a 69ba 7af8 1aba
00000260: c223 77ba 0fa7 d838 be25 a43a d78c adba
00000270: 815c 8d3b e43b 9a3b 6a80 683c 0653 d8bb
00000280: c018 913a a44c 8bba 9ff0 f03b ddeb 15bb
00000290: 7b60 123d 98f3 0bbc 937b 0c3c 1ccd 20ba
000002a0: 5c48 c23c 3054 953a 5ab8 4b3a d01b 54b8
000002b0: 0004 e2b9 5add 95b8 4a96 3838 51c2 6b3a
000002c0: 4fde 5439 9b10 39bb d11e 97ba f8bd 6b3a
000002d0: 782a 293a 5a12 19bb b5a5 833b 00ee 953b
000002e0: 18ed 583c ebd7 04bc a1de 083b df86 8a39
000002f0: 3d67 a73b 2ded 2cbb fa48 193d bfbe 0cbc
00000300: f18b 033c c732 49b9 d07d ba3c 37b5 8f3a
00000310: 7a9d 3f3a f4f3 99b9 339e 44bb 8fa9 353b
00000320: d8d5 603a 37eb 9ab9 f125 813a 49dc 1ebb
00000330: b8bf 993a f0d3 3d3a ddb4 81ba 7f8f 473a
00000340: 4961 683b bea9 1b3b 0d35 3c3c 6d07 fcbb
00000350: a0cc 153b 8106 5cb9 af8b d83b a71b 57bb
00000360: 7e06 133d 77de 32bc 4556 fb3b 0179 ea39
00000370: ed0f be3c 6c20 503b 9a13 9e3b 1613 533c
00000380: aabb 0abc 5986 8b3b 0429 65ba 27f5 973b
00000390: 7f34 51bb 3f23 153d 5a9a 2fbc 3a37 093c
000003a0: 60f6 beba 2d37 b33c 8fb9 583b 259a 903b
000003b0: 5420 3d3c fbdc 1ebc 42a8 203b 4eb6 53ba
000003c0: ea52 af3b 60fe fcba 6c57 153d 7ace 1cbc
000003d0: 8270 133c 2da9 87ba 8e89 bd3c c358 c33b
000003e0: e076 aa3b e203 3f3c df79 d8bb 6f89 cb3a
000003f0: 599c a939 fc82 b33b 9088 25bb 6af3 143d
0.002782662 0.00082293357 0.0129468255 -0.009714723 0.0025513966 -0.00024157127 0.0036911874 -0.0034097298
0.03565551 -0.012267264 0.007294622 -0.0011991574 0.021498753 0.0044821766 0.003613122 0.010594036
-0.0071810405 0.0023846142 -0.0013305167 0.008054586 -0.0010974011 0.03533592 -0.00811053 0.0057742824
0.00010314863 0.023222357 0.0044450336 0.0036794948 0.0106508015 -0.007400795 0.0028934744 0.00014087663
0.006224779 -0.0012205401 0.036276434 -0.00927597 0.007976758 -0.00012091767 0.023762358 0.00045720168
0.00032828463 -0.00077696703 -0.00074712496 0.000651145 0.00064982503 -0.0010996823 -0.00027158984 -0.00071539154
-0.0007147363 -0.000722538 -0.0011932494 -0.001425326 0.0036572367 0.0034169296 0.010761553 -0.008084706
0.0014599218 -0.0017219024 0.0036867235 -0.0023950716 0.037263293 -0.01158392 0.00855577 -8.26063e-05
0.023522792 0.0042620064 0.0035639827 0.0119124595 -0.0070713614 0.002135907 -0.00089269946 0.0065318826
-0.0021926283 0.03665591 -0.009537135 0.0067953845 0.00012813788 0.022086319 -0.00022095461 -0.00016673369
-0.0003148447 -0.00067213795 0.0003472217 -0.0006253979 -0.00078925496 -0.0019279282 -0.002063934 -0.00086939253
0.00089625723 0.00075711263 -0.0002415342 0.0010027706 0.001745876 0.012643304 -0.009146599 0.0027875574
-0.0036867675 0.0039128615 -0.0043340237 0.036024164 -0.012142262 0.0082439715 -0.0015488275 0.021279523
0.029598726 0.028664751 -0.16340554 -0.059714135 -0.015091761 0.01887316 0.040225707 0.0320073
-0.0059394366 -0.031738218 -0.056092102 8.0364465e-05 0.02881744 0.00023119838 0.00089462963 0.0031774754
-0.0022059884 0.002233227 -0.0021418305 -0.00052091514 -0.0019618098 -0.0024802198 0.00185564 0.0017363863
3.9980987e-05 0.0009735598 0.0026356 0.0045582396 0.009828977 -0.0075696707 0.0021397716 -0.00032471158
0.0053058923 -0.0030405978 0.035961416 -0.008424499 0.006202639 0.0013195215 0.023276538 -0.0017214528
0.0012247341 0.0005933054 -0.001022565 0.00032108228 -0.0015519037 0.0007525704 -0.00088993413 -0.00059116597
-0.00094276306 0.000103308 0.0012523455 -0.0013240826 0.004314006 0.0047068466 0.014190773 -0.006601694
0.0011069998 -0.0010627699 0.007352903 -0.0022876181 0.035736542 -0.008541964 0.008574384 -0.00061340793
0.023716144 0.0011392888 0.0007771306 -5.057064e-05 -0.0004310906 -7.1461036e-05 4.4008986e-05 0.0008993494
0.00020300712 -0.0028238657 -0.001152957 0.0008992846 0.0006453167 -0.0023356886 0.0040175566 0.004575491
0.013240121 -0.0081081195 0.002088465 0.00026421898 0.0051087425 -0.0026386485 0.03742311 -0.008590399
0.00802897 -0.0001918777 0.02276507 0.001096404 0.00073095376 -0.00029364193 -0.003000152 0.0027719473
0.0008576787 -0.00029548418 0.0009853226 -0.0024240187 0.001173011 0.0007241359 -0.000989582 0.000761263
0.0035458377 0.0023752297 0.011487258 -0.007691315 0.0022857562 -0.00020983258 0.0066084485 -0.0032822879
0.035894863 -0.010917298 0.0076701962 0.00044722113 0.023200953 0.0031757606 0.004824114 0.012882968
-0.008467594 0.004257959 -0.00087417685 0.0046373787 -0.003192216 0.036410566 -0.010717953 0.008374983
-0.0014569275 0.021876896 0.0033069586 0.0044129067 0.011543352 -0.009696241 0.0024514352 -0.0008076177
0.0053504603 -0.0019301884 0.036460325 -0.009570712 0.008998992 -0.0010350101 0.02313688 0.005961509
0.0052021593 0.011658641 -0.006606325 0.0015528629 0.0003235068 0.005478261 -0.00252584 0.03636495

net.0.bias f4 [128]
00000000: 9c0e 113d a27c 133d c9dc 133d 145a 99ba
00000010: b550 143d 393f 143d 3ff6 22ba f1b8 113d
00000020: e802 bdbb 5146 c4ba 9aae 133d fd48 5aba
00000030: e199 133d 12c7 ccba adf8 133d e524 2abb
00000040: e056 123d ad0b 133d c008 143d 14cd 133d
00000050: 37ff 123d 9735 143d faa4 0e3d 9354 143d
00000060: 26cf 133d 9500 123d 1d2d 143d 70db 133d
00000070: 5e92 133d a1ea 133d 8507 74ba 0000 0000
00000080: a95e 123d 70da 8bba 3a26 143d edfe 123d
00000090: d3f2 0f3d 441a 143d 2a5b 143d 76e4 aaba
000000a0: 9922 22bb 555c 293c 1b27 c3ba cd31 143d
000000b0: f190 123d 60b0 133d 4d35 02ba 8070 113d
000000c0: 651e a4ba 3b4a 95ba 7484 133d 0000 0000
000000d0: 0491 113d 418f 4abb 377e 133d 055a 123d
000000e0: d799 113d d64a 88bb 058a 133d a427 133d
000000f0: b95d 143d 5130 143d 2b2f 133d ceb9 123d
00000100: 6c65 123d 4fd4 133d 95d2 10bb e390 133d
00000110: 8ae9 113d 7ff6 113d 75ac 113d 6a3d b5ba
00000120: 0b92 123d 26fc 133d 7391 143d bec8 133d
00000130: 3cce 583d d325 143d 6d7b 133d 5d48 123d
00000140: a6ca 113d 52d3 133d 7f1e 143d de87 143d
00000150: d2f5 123d 4d9b 123d 6a23 0e3d d01f efba
00000160: 0000 0000 444a 123d a10b 143d 0633 dfba
00000170: b80b fbba 6542 143d 0a51 30bb 1ae7 71ba
00000180: d87d 593d f894 123d 37c3 5f3d fcea 123d
00000190: c635 133d 0ada 133d 642f 143d 2b22 143d
000001a0: a3b0 113d 8666 123d 10b4 61ba 1424 133d
000001b0: 9108 133d 7a7e 123d bb45 7cba 409e 0f3d
000001c0: 3de0 133d 85eb 4ebb 0624 143d 1e8d 123d
000001d0: 160b 133d 8636 ebba a223 123d 9d26 05bb
000001e0: 7d87 113d 0000 0000 9c22 143d a99f 123d
000001f0: 52d8 17bb 727f 133d 5e7c e2ba 00e6 133d
0.035414323 0.03600753 0.03609923 -0.0011699819 0.03620978 0.036193106 -0.0006216503 0.035576764
-0.0057681687 -0.0014974569 0.036055185 -0.0008326916 0.036035422 -0.0015623292 0.036125828 -0.0025961932
0.03572738 0.035899807 0.036141157 0.03608425 0.035887923 0.03618392 0.034825303 0.03621347
0.036086224 0.035645086 0.036175836 0.036097944 0.03602826 0.03611243 -0.0009308982 0.0
0.035734806 -0.0010669958 0.03616927 0.035887647 0.035143685 0.03615786 0.036219753 -0.0013038057
-0.002473986 0.010336955 -0.0014888974 0.036180306 0.03578276 0.036056876 -0.0004967049 0.03550768
-0.0012521265 -0.001138992 0.03601499 0.0 0.03553869 -0.003090814 0.03600904 0.03573038
0.035547104 -0.0041593118 0.036020298 0.035926476 0.036222193 0.03617889 0.035933655 0.03582173
0.035741255 0.036091145 -0.0022098173 0.036026847 0.03562311 0.035635468 0.03556486 -0.0013827507
0.03578381 0.03612914 0.036271524 0.036080115 0.052931055 0.036168884 0.03600638 0.035713542
0.03559365 0.036090203 0.036161896 0.036262386 0.035878964 0.035792638 0.034701742 -0.0018243734
0.0 0.035715356 0.036143903 -0.0017028756 -0.0019153273 0.03619613 -0.0026903772 -0.0009227857
0.05309853 0.0357866 0.05462953 0.03586863 0.035939954 0.03609661 0.036178008 0.036165398
0.035568845 0.035742305 -0.00086099 0.03592308 0.03589684 0.03576515 -0.0009623428 0.03506303
0.036102522 -0.0031573486 0.036167167 0.03577911 0.035899244 -0.0017945326 0.035678513 -0.0020317205
0.035529602 0.0 0.03616582 0.035796795 -0.0023169708 0.036010213 -0.0017279496 0.036108017

net.2.weight f4 [128, 128]
00000000: f9b9 b93c 1a23 af3c 0f7f bb3c ba19 e638
00000010: 22a8 bd3c ee8c b83c aeba d139 7918 bb3c
00000020: a24c 37be 2645 a6b9 c4a6 bb3c e17d 1a3b
00000030: 74dc b43c 8b72 b4ba 707f b43c 8ed8 9fb9
00000040: 988c bd3c 1254 be3c 54a5 c03c dff7 a93c
00000050: 6ef9 be3c 38c8 c83c 162b ad3c fc8c b73c
00000060: d99d b73c 2e4d ad3c 0852 b93c 35f4 bf3c
00000070: 94ea b63c 935e ba3c 2fbb 28ba e1b6 7238
00000080: a73d b33c 0b9a 9639 e380 ca3c 6c55 bb3c
00000090: a68b be3c 3a88 be3c 2bfb ad3c f1ec 78ba
000000a0: 6a93 a3ba 54a8 a9bd 5d65 9fb9 59db b43c
000000b0: a3de b13c 4891 b43c d914 343a 831e b83c
000000c0: aa7d 5a3a 00c4 53ba 8757 b03c 3cd3 efba
000000d0: 9ba9 c43c c6ed c8ba 69ef b23c ded6 c33c
000000e0: ea2a b43c ae4c 06ba a24c c73c 5af4 c03c
000000f0: 7a55 c53c c31b ba3c 845e bf3c e56d b13c
00000100: 27bf b23c bea6 b43c c1ce 963a ea39 ba3c
00000110: f567 be3c b94b bf3c 6386 b03c b7bf 8dba
00000120: e98e b93c 6cc1 b63c 2b83 b73c cade ba3c
00000130: ca2a 813d 3dde c63c 133b ba3c 52ac bd3c
00000140: c838 bc3c a79b bf3c 6ff9 b93c 2a45 c43c
00000150: d605 bc3c 578d c13c ca0c b43c 64ab a6b8
00000160: 0a77 16b7 9340 c33c f5aa bf3c e10a 7839
00000170: c540 053b ee63 c93c 88ad c13a e82c a3b8
00000180: 743a 823d 9731 b23c 99fc 803d 5fbb aa3c
00000190: d552 b03c 2797 b83c a781 b43c c37f b43c
000001a0: 7a39 b13c 97f5 bf3c 8c93 79ba b6ae c73c
000001b0: c34e bd3c 2a11 ae3c 830a 6bb7 f6da b93c
000001c0: 7808 b83c 423f 10bb 582e a93c 1de1 b93c
000001d0: fba0 be3c ef71 c03a e11f ad3c c329 723a
000001e0: fe13 bf3c 3309 ee39 cee8 b63c a0f7 be3c
000001f0: 1b5b c5b5 612e cb3c 300c efba cae4 c63c
00000200: e646 26ba 7719 693a 25ee f0b9 4c4d 8c3a
00000210: d400 ddba 909f e739 b478 1dba 6f82 92ba
00000220: 0259 00b9 f501 1ab9 d9ad 9739 83dd da38
00000230: a403 a93a 7630 ad3a 32b5 bd3a bb62 84b9
00000240: 9c92 9c39 9a2b 0339 15e6 ac36 300c a3ba
00000250: 1253 33ba 7ee5 3aba 3436 233a 31d5 bd39
00000260: c66a 22ba e5df 91b9 ec2a 843a fe21 fe38
00000270: 155c 88ba 369b 4fb9 4dfc 29ba f4ad 42b9
00000280: d692 723a c997 c8ba 610f 91b9 6da3 5eba
00000290: 5aea 40ba ce09 4c39 f520 713a 19be 9fb8
000002a0: dd92 b839 b2e3 633a d903 08b7 3d36 c93a
000002b0: 85f7 1aba 32ec 01ba e160 e438 c8ed 473a
000002c0: 3050 5cba dd8d 3b38 5335 9aba b458 64ba
000002d0: 5ba6 383a bd84 a5b9 a248 a53a f720 e23a
000002e0: 1e69 a339 02bd 78ba 1ba3 80ba 2acd f439
000002f0: 5c34 6bba ba6a a539 2e41 f5ba 4ad3 9dba
00000300: 2b16 9eb7 111d 5bba 3dcf 03bb e4b4 3aba
00000310: d9b6 4a39 305b 323a 81e3 d939 f13d 2fba
00000320: 0ef6 89ba c2ee 3bba 089b 97ba abc5 893a
00000330: e31c 70b9 debc 6938 260e f4b5 25a9 3c3a
00000340: ebd3 353a a0ea 4aba 7ea4 3fb9 a36c 6e39
00000350: f125 c4ba c3d4 903a 41c1 36ba 9740 0e3a
00000360: 8f2a 243a e206 acb9 dc94 743a 9490 7b3a
00000370: 9e6e 74b9 275b 22ba f053 ed39 f198 43b9
00000380: 3122 6b3a fe6a 243b a102 6b3a cafc 44ba
00000390: cf0a 33ba db46 a239 fff8 303a 9d12 773a
000003a0: 0881 ee39 42d1 f6b7 0242 1b3a 6447 9eb8
000003b0: 00c4 d2ba 7cf2 fc39 69f0 45b6 ca77 543a
000003c0: 93b6 14bb 1d52 db39 937c 36ba b901 a7ba
000003d0: f714 2f3a e577 ce39 0e58 fa39 152f 3db9
000003e0: 8c4f 97ba 0162 e93a 31c3 8aba 485b 4eba
000003f0: 562c 97ba 41da 8e3a 860e 8aba 3f3d ce3a
0.022671686 0.021379042 0.022887735 0.000109720466 0.023151461 0.022528138 0.00040002674 0.022838818
-0.17900327 -0.00031713507 0.022906668 0.0023573565 0.022077776 -0.0013767047 0.022033423 -0.0003048819
0.02313833 0.023233447 0.023516335 0.020748077 0.023312297 0.024509534 0.021138709 0.022406094
0.022414135 0.021154966 0.022622123 0.023431877 0.022328652 0.022750175 -0.0006436584 5.7867615e-05
0.021879984 0.00028725 0.024719661 0.02286788 0.023259949 0.023258317 0.02123793 -0.0009495756
-0.0012479846 -0.08284059 -0.00030402365 0.02207725 0.021712607 0.022041932 0.00068695616 0.022475487
0.00083347654 -0.00080782175 0.021526111 -0.0018297206 0.024006655 -0.0015329651 0.021842675 0.023906168
0.02199312 -0.00051231205 0.024328534 0.023554016 0.02408861 0.022718316 0.023360498 0.021658847
0.021819664 0.022052165 0.0011505709 0.022732694 0.02324293 0.023351537 0.021548456 -0.0010814582
0.022651153 0.022309028 0.022401413 0.022811312 0.063069895 0.024275893 0.022733247 0.023153458
0.022976294 0.02338965 0.022701947 0.023958761 0.022952002 0.023626966 0.021978755 -7.947421e-05
-8.968413e-06 0.023834502 0.023396948 0.00023655176 0.0020332795 0.024583783 0.0014776448 -7.78081e-05
0.06358805 0.021752162 0.06298179 0.020841299 0.021523872 0.022533013 0.02203448 0.022033578
0.021633852 0.023432536 -0.00095205824 0.0243753 0.023108846 0.021248419 -1.4009539e-05 0.022687417
0.022464976 -0.002201036 0.020651981 0.02269035 0.02327012 0.0014682392 0.021133365 0.00092377904
0.023324963 0.0004540175 0.022327807 0.023311436 -1.4704159e-06 0.024802389 -0.0018237885 0.024279017
-0.0006342962 0.0008892039 -0.000459538 0.0010704189 -0.0016861209 0.00044178637 -0.0006007061 -0.0011177788
-0.00012240189 -0.00014687314 0.0002893049 0.0001043631 0.0012894762 0.0013213295 0.0014473556 -0.00025250562
0.0002986387 0.00012509376 5.1527845e-06 -0.0012439545 -0.00068406865 -0.0007129534 0.00062260334 0.0003620773
-0.000619572 -0.0002782337 0.0010083592 0.00012117995 -0.0010403419 -0.00019798879 -0.0006484434 -0.00018566084
0.00092534476 -0.0015304025 -0.00027668013 -0.000849298 -0.000735914 0.00019458609 0.00091983314 -7.617119e-05
0.00035204637 0.0008693292 -8.1071275e-06 0.0015351247 -0.0005911517 -0.00049561553 0.00010889932 0.000762668
-0.0008404283 4.4716395e-05 -0.001176516 -0.00087107276 0.0007043832 -0.0003157015 0.0012610147 0.0017252256
0.000311681 -0.00094886136 -0.0009814234 0.00046692166 -0.0008972341 0.0003155077 -0.0018711442 -0.0012041118
-1.884539e-05 -0.0008358518 -0.0020112537 -0.0007122292 0.00019332337 0.0006803749 0.0004155897 -0.000668495
-0.00105256 -0.00071690616 -0.0011566589 0.001051118 -0.00022898945 5.5727425e-05 -1.8183534e-06 0.00071968354
0.000693618 -0.00077406503 -0.00018276458 0.00022737919 -0.0014964921 0.0011049736 -0.0006971546 0.0005426495
0.0006262445 -0.00032811525 0.0009330043 0.0009596434 -0.00023310861 -0.00061933923 0.000452667 -0.00018653624
0.00089696335 0.0025088186 0.00089649303 -0.0007514475 -0.0006829919 0.0003095184 0.00067509705 0.0009425076
0.00045491033 -2.9422928e-05 0.00059226167 -7.547325e-05 -0.0016080141 0.0004824585 -2.9495225e-06 0.0008105008
-0.002269183 0.00041832114 -0.0006961312 -0.0012741602 0.0006678844 0.0003938071 0.00047749322 -0.00018041984
-0.0011544093 0.0017805697 -0.0010586736 -0.00078718783 -0.0011533599 0.0010898785 -0.0010532893 0.0015734805

net.2.bias f4 [128]
00000000: 765e 083d 40a2 1bba b45a 083d b0ee c4b9
00000010: c77b 083d 19a8 083d 124e 1dba 0368 083d
00000020: 0f36 1dba 264a 1dba afb2 083d bc0a 1dba
00000030: 89d3 073d bb93 1cba ff4f 083d 1551 083d
00000040: fb75 083d e96a 083d 4b60 083d 0000 0000
00000050: f292 083d fb44 083d 0000 0000 c283 083d
00000060: a0be 083d 335d 083d b669 1bba 5615 1cba
00000070: 9fe4 1cba 93aa 073d 1e59 1cba 527b 083d
00000080: 9290 083d 2602 1dba c4aa 1cba ee48 083d
00000090: 0000 0000 0000 0000 0ce7 14ba 7d50 f23c
000000a0: 7d0c 083d 30e5 1cba 0000 0000 bd51 1bba
000000b0: 568f 083d 188d 083d f107 1dba 0000 0000
000000c0: 0000 0000 437e 083d 9a14 5fba 6c8e 083d
000000d0: bc1a 1cba a0b9 083d b839 1bba 0000 0000
000000e0: d4ad 35ba ceea 1cba bc7f 083d b499 083d
000000f0: 0000 0000 0000 0000 9e8f 083d 038e 083d
00000100: 0000 0000 36c0 1bba 9e07 1dba 0697 083d
00000110: f69e 083d 8f4b 083d 885e 083d 0000 0000
00000120: 7331 083d 798d 083d 3e1c 1dba b465 083d
00000130: da9e 083d d3b7 1bba f64a 1dba f28d 083d
00000140: dd0b 1dba c261 1cba 2b7f 083d 5759 1cba
00000150: 5950 1cba 2200 1cba 0000 0000 ba8c 083d
00000160: e7ba c9ba 0cbc 92ba 1e76 083d 4a4c 083d
00000170: 0000 0000 817c 083d 8a6a 083d 0000 0000
00000180: 63fe 1cba 0000 0000 4587 083d 1e31 1dba
00000190: 83a1 073d 1919 1dba c7a5 01ba 98e8 1cba
000001a0: f16a 083d 467f 083d 55b4 fbb9 a400 1dba
000001b0: d982 083d eba7 9bba 803a 10ba 5e97 1cba
000001c0: 5a11 1dba fb8a 1cba db99 083d ac90 1bba
000001d0: 8f0b c2b9 fc8b 083d 33c1 083d 6771 083d
000001e0: 9aa6 073d b51f 1dba 0689 083d 2ffd 1cba
000001f0: 1b79 083d 0000 0000 ac48 083d 045e 083d
0.03329321 -0.0005936958 0.033289626 -0.0003756187 0.03332117 0.033363435 -0.0006000708 0.03330232
-0.000599713 -0.00060001237 0.03337353 -0.0005990674 0.03316072 -0.0005972941 0.033279415 0.03328045
0.03331564 0.033305082 0.033294957 0.0 0.033343263 0.03326891 0.0 0.03332878
0.03338492 0.033292007 -0.0005928533 -0.0005954107 -0.0005984995 0.033121657 -0.0005964207 0.033320732
0.033340998 -0.0005989395 -0.0005976374 0.033272676 0.0 0.0 -0.00056801806 0.029579395
0.033215035 -0.00059850793 0.0 -0.0005924961 0.03333982 0.033337682 -0.0005990258 0.0
0.0 0.033323538 -0.0008509845 0.03333895 -0.00059549115 0.03338015 -0.00059213815 0.0
-0.00069305045 -0.00059859164 0.033324942 0.033349708 0.0 0.0 0.03334009 0.033338558
0.0 -0.00059414224 -0.000599021 0.033347152 0.033354722 0.033275183 0.033293277 0.0
0.033250283 0.033338044 -0.0005993283 0.033300117 0.033354618 -0.00059401727 -0.0006000245 0.033338495
-0.00059908425 -0.0005965495 0.0333244 -0.00059642404 -0.00059629005 -0.00059509475 0.0 0.033337332
-0.0015390784 -0.0011194958 0.03331577 0.03327588 0.0 0.03332186 0.03330473 0.0
-0.00059888343 0.0 0.033332128 -0.0005996394 0.033113014 -0.00059928145 -0.0004945662 -0.0005985587
0.033305112 0.033324502 -0.00048008809 -0.000598917 0.03332791 -0.0011875605 -0.0005501881 -0.0005973483
-0.00059916603 -0.00059716374 0.033349853 -0.00059343386 -0.00037011175 0.033336625 0.033387374 0.033311274
0.033117868 -0.00059937994 0.0333338 -0.0005988655 0.03331862 0.0 0.03327243 0.033292785

net.4.weight f4 [64, 128]
00000000: 9857 eebc fcd8 093a cf75 d4bc 8857 d838
00000010: df2f d7bc a6cb d9bc 91bb 02ba 5d65 d6bc
00000020: b2c5 b4b9 0dba 163a caa7 d5bc 95d9 ce39
00000030: e8dc dfbc 749f 65ba 96a4 e3bc 3fe3 e2bc
00000040: 34bc e1bc 60d7 dabc e70b f4bc 8b3e 2e3a
00000050: 7e1c dfbc 5928 e6bc 05ca 3cba b2b4 dbbc
00000060: 64c0 ebbc 4970 dcbc 1cd4 eaba 13ec 45ba
00000070: ff83 bab9 9a96 e3bc 3f56 8d39 6e25 e8bc
00000080: 72eb d8bc d4f3 65b9 f473 a5b8 b555 ddbc
00000090: a605 dcba c94f 4aba ecd0 a33a 642b b1bc
000000a0: 29f5 e2bc 6a96 18ba 77d2 e336 8a85 aa3a
000000b0: 16f0 d7bc 261c e3bc f113 02ba 0faa e2b9
000000c0: 7eaf 5e37 7918 e5bc 8c6a 38ba adb8 ecbc
000000d0: 19c0 0dba 3f23 e6bc e055 8db9 d551 323a
000000e0: 4b6e a7b9 85ba 063a bfd7 d4bc 32ab ddbc
000000f0: ee94 74ba 301f c0b9 5b8f d5bc ea9f d9bc
00000100: 1dc1 ad3a 12d6 0eba ecc1 98ba bb8f e4bc
00000110: ff38 dabc 3e67 dcbc 5c1f eebc 494a 283a
00000120: 2fd7 efbc 17e3 e2bc be0d 57b8 f540 d8bc
00000130: 8fd0 eabc 6737 0a3a f2ac a03a 036f e5bc
00000140: 2f47 10ba 9057 3ab9 e4f7 e0bc 6f39 9d38
00000150: 14fc bdb9 de2f 10b9 c9f8 9d38 bf1d dcbc
00000160: 7388 95ba 2417 4db8 c032 e9bc 05dd dcbc
00000170: 799c 003a 92e7 dbbc 0382 d3bc 6ed6 edba
00000180: 2da3 a839 fa11 01b9 da70 dbbc cbfc 8d39
00000190: 57f9 d9bc 1513 b8ba 7549 0fb9 67fd f638
000001a0: 5b0f f4bc 94e9 e4bc 946c 303a 5110 4d39
000001b0: bee2 e1bc 565e 513a 50c5 6739 dc52 e5b9
000001c0: e7b1 cd39 55a1 27ba 3c1a d4bc feea 8ab7
000001d0: 7f7e 0139 81eb dcbc 1472 e7bc 56d8 cabc
000001e0: 3d8d acbc d4f4 1c3a ac25 dbbc 9ae4 9aba
000001f0: fbf1 e4bc b049 003a 36d2 dbbc 0843 e5bc
00000200: 3c36 e6bc ee15 8639 3a46 e7bc 6f37 d2b9
00000210: 4ce2 efbc 20f7 e2bc 6011 a139 13d3 f7bc
00000220: 719e f739 1407 7dba 19db e9bc 51fc 04ba
00000230: ed6e e3bc 385f 07bb 4c75 f7bc 0384 e4bc
00000240: b773 eebc cb1e fabc c38a f5bc 4669 c8ba
00000250: a307 edbc deaf f5bc 02bb 103b a34e eebc
00000260: a8b7 e4bc 3c30 eebc 880b 2a3a a3ed 533a
00000270: cdb1 c23a d5a2 e1bc 05b7 a8ba 3de1 f5bc
00000280: 7b80 f3bc 9bdf 1a39 994b 42ba 568a ebbc
00000290: 3bee b039 d554 3b3a 2ddb 153b 4f40 bebc
000002a0: 2d32 ecbc b74e 97b9 7c13 f639 bd60 a7b8
000002b0: 502a edbc 562c e8bc 9486 fe39 6fb6 313a
000002c0: ad1a 843a 390d eabc d381 7a37 3610 eabc
000002d0: 217b b1b8 c8e1 e1bc f2a4 1c3a 10aa e238
000002e0: 055c b439 4fe5 9cba 2fad e6bc 3888 f1bc
000002f0: 1339 f7b9 20b6 e6b9 715e e7bc 0f75 f3bc
00000300: c343 7939 cff6 3eb9 f5d9 f339 7245 f9bc
00000310: 78f0 edbc 068e debc e797 e7bc cbf6 7b3a
00000320: ace4 e7bc 126a f0bc bc9e 33ba 5542 ecbc
00000330: 9a23 e3bc ec49 103a 202a b8ba 938a eebc
00000340: 1bb9 22b9 ca2c 6dba cf3a f0bc 2d90 1bba
00000350: 56aa 273a b0fa 36b9 c537 c73a 7b5f e5bc
00000360: 054d a73a 4aed 2b3a 0deb efbc a0da eabc
00000370: cbd9 a9ba abe2 ebbc c812 e4bc 7463 a7ba
00000380: 41ae 4639 3323 bd38 9a09 f5bc b828 c439
00000390: 9d0c f0bc 7bb7 ffb9 5255 34bb bfef f439
000003a0: 1e68 f7bc f46b e4bc 7013 763a 3375 9e3a
000003b0: 6a09 f0bc 9e0f 2eba 3a97 eab9 c9bd 0c3a
000003c0: d7a0 003a f407 ad3a 7257 e6bc bf4e 3339
000003d0: 14da 333a a28f e9bc 8478 e2bc 2d10 ebbc
000003e0: 9149 a4bc c4ee 803a 8268 eebc bffc 723a
000003f0: 02f6 eabc 70a9 9639 c69c e9bc 1e0a fbbc
-0.029094502 0.00052584684 -0.025935082 0.000103159866 -0.026267944 -0.026586365 -0.0004987056 -0.02617138
-0.0003447957 0.00057497696 -0.026080985 0.00039453493 -0.027327016 -0.0008759417 -0.027788442 -0.02769625
-0.027555563 -0.026714027 -0.029790832 0.0006646893 -0.027235266 -0.028095411 -0.0007201734 -0.02681956
-0.028778262 -0.02690901 -0.0017915997 -0.00075501314 -0.0003557503 -0.027781773 0.00026957874 -0.02833816
-0.026479457 -0.00021929975 -7.889411e-05 -0.027018407 -0.0016786351 -0.00077175774 0.0012498177 -0.021627136
-0.027704792 -0.0005820753 6.7896285e-06 0.0013009768 -0.0263596 -0.027723383 -0.0004962078 -0.00043232783
1.3273091e-05 -0.027965771 -0.00070349197 -0.028896654 -0.0005407348 -0.028092979 -0.00026957598 0.0006802355
-0.00031934897 0.0005139488 -0.025981782 -0.027059171 -0.00093300536 -0.0003664433 -0.026069334 -0.02656551
0.0013256405 -0.0005448769 -0.0011654473 -0.027900567 -0.026638506 -0.026904698 -0.029067688 0.0006419761
-0.029277412 -0.027696176 -5.1272793e-05 -0.026398161 -0.028663902 0.0005272538 0.0012258573 -0.028007036
-0.0005503771 -0.00017770962 -0.027461953 7.497041e-05 -0.00036236702 -0.00013750742 7.532683e-05 -0.026869653
-0.0011408463 -4.889736e-05 -0.028466582 -0.02696086 0.0004906129 -0.02684382 -0.02581883 -0.001814557
0.00032165032 -0.00012309095 -0.02678721 0.0002708196 -0.026608152 -0.0014043773 -0.00013664908 0.00011777394
-0.029792478 -0.02794341 0.00067300466 0.00019556402 -0.02757394 0.00079867744 0.00022103381 -0.0004374002
0.00039233195 -0.0006394585 -0.025891416 -1.6560309e-05 0.00012349522 -0.026967766 -0.028252639 -0.02476136
-0.021063441 0.000598741 -0.026751362 -0.0011817396 -0.027947417 0.0004893793 -0.026833635 -0.027986065
-0.028102033 0.0002557481 -0.028231729 -0.00040095623 -0.029282711 -0.027705729 0.00030721258 -0.030252015
0.0004722956 -0.0009652239 -0.028546857 -0.00050729985 -0.027762854 -0.002065612 -0.030207299 -0.02789498
-0.029107912 -0.030532261 -0.029973393 -0.0015290163 -0.028934306 -0.029991087 0.0022084122 -0.029090231
-0.027919605 -0.029075734 0.00064867036 0.0008084422 0.0014854014 -0.027543465 -0.0012871927 -0.030014629
-0.02972435 0.00014769884 -0.00074117776 -0.028752487 0.00033746831 0.0007146125 0.0022866235 -0.023224024
-0.02883252 -0.00028859611 0.00046935293 -7.9811995e-05 -0.02895084 -0.028341454 0.00048546924 0.0006779199
0.0010078751 -0.028570758 1.4931388e-05 -0.028572183 -8.462952e-05 -0.027573481 0.00059755065 0.000108081964
0.00034400835 -0.0011970195 -0.028158752 -0.0294839 -0.00047154035 -0.00044004712 -0.028243275 -0.029718904
0.00023771734 -0.00018211755 0.00046510962 -0.030428622 -0.029045328 -0.027167331 -0.028270675 0.0009611665
-0.028307281 -0.029347453 -0.00068519614 -0.028840223 -0.027726937 0.0005504179 -0.001405064 -0.029118812
-0.00015518481 -0.00090475066 -0.029324917 -0.00059342646 0.00063959265 -0.00017450261 0.0015199116 -0.02799963
0.0012764042 0.0006558491 -0.029286886 -0.028668702 -0.0012958584 -0.028794607 -0.027840987 -0.0012770728
0.00018947666 9.018779e-05 -0.029911805 0.0003741437 -0.02930289 -0.00048774094 -0.0027516675 0.0004671793
-0.030201014 -0.027883507 0.00093870517 0.0012089371 -0.029301364 -0.00066399004 -0.0004474463 0.00053688564
0.00049067795 0.0013201223 -0.028117869 0.00017100105 0.0006860804 -0.028510872 -0.027645357 -0.028694237
-0.02005461 0.0009836783 -0.029102568 0.00092692295 -0.028681759 0.0002873647 -0.028517138 -0.030644473

net.4.bias f4 [64]
00000000: 90bc eabc 0d7a b2bc 84b4 023d a791 c43c
00000010: 52b8 dfbc 87f8 c73c 67f8 d5bc 7ab3 e2bc
00000020: f5a7 06bd 62d2 ed3c 5d7f b7bc cd7b c63c
00000030: 63b9 d13c b85d c03c d9f6 f33c 5f6a b2bc
00000040: ce6c 01bd 3029 dfbc 76ca e33c 2de5 d13c
00000050: bbd9 e4bc 1763 dbbc 8b9c babc 4c37 d53c
00000060: 72de d83c ae30 f03c b56c de3c 82d8 fa3c
00000070: dc59 ccbc 1768 f1bc 9a7f b4bc 2c87 ce3c
00000080: 4d10 e8bc 9d64 c4bc 9016 cdbc b934 103d
00000090: 2cc7 fa3c efbc d83c 3275 e7bc f215 ffbc
000000a0: 0f2d cb3c 961a ec3c 1cde db3c dcb2 d9bc
000000b0: d4e5 eebc eef9 d33c e14f f13c 353a ed3c
000000c0: ee75 0b3d 91ed ebbc cd56 d73c 8c4f 003d
000000d0: d97d d5bc 3088 f33c de7c 04bd 7d42 f23c
000000e0: 22d7 f6bc 2c14 da3c f0a1 e3bc c519 ec3c
000000f0: d63c 033d f53e aa3c 8162 cd3c 66b0 f0bc
-0.028654367 -0.021786714 0.031910434 0.023995234 -0.02730957 0.0244105 -0.026119424 -0.027673472
-0.03287502 0.029030982 -0.022399599 0.024228955 0.025601095 0.023482189 0.029780792 -0.021779237
-0.031597905 -0.02724132 0.027806502 0.025621975 -0.027935853 -0.026780648 -0.022779724 0.026027344
0.026473258 0.029320087 0.027151445 0.030620817 -0.024945192 -0.02946858 -0.022033501 0.02521094
-0.028328085 -0.023973757 -0.025035173 0.03520653 0.03061255 0.026457278 -0.028254125 -0.031138394
0.024801759 0.02882127 0.026839308 -0.026574545 -0.029162325 0.025876012 0.029457035 0.02895842
0.034048013 -0.028799804 0.026286507 0.03132586 -0.026060985 0.029728025 -0.032345645 0.02957272
-0.03013188 0.026620947 -0.027787179 0.028820882 0.03204044 0.020781973 0.025071384 -0.029380988

mean_head.weight f4 [1, 64]
00000000: 6965 e93b b679 2a3c 50bd b7bb 6c8a 19bc
00000010: 08ef f83b b9ea 15bc b03f 063c 7b34 f43b
00000020: b403 a73b b852 dbbb 2c18 253c e2d3 17bc
00000030: 26aa 0cbc d5c6 1bbc ba46 d9bb 604a 2c3c
00000040: 19a7 b73b 04ab 003c 8d7b f8bb e858 0abc
00000050: fe4d f63b 1f1a 023c 8435 233c caa1 08bc
00000060: 910b 02bc f850 debb 2120 00bc c5c4 c2bb
00000070: b5b8 103c 213e d33b 0386 293c 6dfc 0ebc
00000080: 08e1 ea3b 3f83 183c e059 0e3c 2581 80bb
00000090: 677f c9bb 2857 05bc 1860 f13b 9fec bb3b
000000a0: 38c6 13bc 45d2 e6bb 4830 01bc 45c8 033c
000000b0: 37fb de3b ec30 09bc 7514 cebb 116e e6bb
000000c0: 7f9f 92bb 20f3 e63b 3a2c 03bc dd07 c0bb
000000d0: ad1f 0a3c 5cc8 d7bb 28bc af3b 37fc dabb
000000e0: e9f6 d33b b0e1 00bc 81e3 f83b b00d e1bb
000000f0: 296e b4bb e75c 33bc 0f66 11bc 6496 d53b
0.0071226847 0.010404995 -0.0056072846 -0.009371381 0.007596854 -0.0091502005 0.008193895 0.007452545
0.005096877 -0.0066932105 0.010076564 -0.009266825 -0.008585488 -0.0095078545 -0.0066307457 0.010515779
0.0056046364 0.007853273 -0.007583088 -0.008444048 0.0075166216 0.007940798 0.00996149 -0.008339355
-0.007937328 -0.0067845546 -0.00782016 -0.005943867 0.0088331 0.0064466153 0.010346892 -0.008727175
0.007167939 0.009308635 0.00868842 -0.003921645 -0.0061492207 -0.008138455 0.0073661916 0.0057349945
-0.009019427 -0.007044109 -0.007885046 0.008043353 0.0068048495 -0.00837348 -0.0062890598 -0.007032164
-0.00447458 0.0070480257 -0.00800615 -0.0058603124 0.008430404 -0.006585164 0.005363006 -0.0066828984
0.006468643 -0.007866308 0.00759548 -0.0068680868 -0.005506296 -0.010947443 -0.00887443 0.006518172

log_std_head.weight f4 [1, 64]
00000000: 63c8 f03c dfe7 f93c 91a5 eebc 4529 eabc
00000010: 949e f93c 7c4d f3bc cdb7 f83c d26b f73c
00000020: ed1f f13c d74d fcbc d0a3 fa3c 37df f1bc
00000030: a21b f2bc fd53 fbbc b625 eebc 6325 f03c
00000040: 02a4 f43c 61fd ec3c f171 edbc 1766 f9bc
00000050: d632 ee3c fbd4 f43c 3001 f43c c4a4 f3bc
00000060: 13c6 febc cfec f1bc f5f8 f1bc ef6d fabc
00000070: 2ef1 f53c c7e5 fd3c 71bd f33c 9b73 f4bc
00000080: 7498 f53c 1a03 f73c 10ae fc3c ebf2 f2bc
00000090: d610 f2bc 7e86 f3bc 1ba4 ee3c c8c1 ea3c
000000a0: 9b77 efbc 77c4 f0bc 23d7 f6bc 1dcd f43c
000000b0: f91d f43c fcf1 f5bc 124f 03bd 9438 eebc
000000c0: 3070 f3bc 8dcf f03c 2e26 00bd a9f7 efbc
000000d0: 2bb4 ed3c 9eaa edbc 59c9 ee3c 5966 f0bc
000000e0: 595f ee3c cb0f febc 81a1 ed3c 66c3 f8bc
000000f0: edd2 f0bc 97e5 f7bc 6e7a f0bc 6e0a fc3c
0.029392427 0.030506073 -0.029131683 -0.028584132 0.030471124 -0.029700033 0.03036108 0.03020278
0.029434169 -0.030798836 0.03059569 -0.029525382 -0.029554192 -0.030679697 -0.029070716 0.029314702
0.029863361 0.028929414 -0.028984996 -0.030444188 0.029076975 0.029886713 0.029785722 -0.029741652
-0.031100309 -0.029531864 -0.029537657 -0.030569999 0.03002223 0.030993355 0.029753419 -0.029840281
0.029979922 0.030152846 0.030844718 -0.029656848 -0.029549044 -0.029727217 0.029130986 0.028656855
-0.029231837 -0.029390557 -0.030131882 0.029882962 0.029799448 -0.030022614 -0.03205783 -0.029079713
-0.029716581 0.029395843 -0.03128641 -0.029292898 0.029016575 -0.02901202 0.029148744 -0.029345678
0.0290982 -0.03101339 0.029007675 -0.03036661 -0.029397452 -0.030260844 -0.029355254 0.030766692

q1.0.weight f4 [128, 14]
00000000: a570 1dbe e42c 3abe 5904 c6be c18b 8a3e
00000010: db9e be3c d3bb 34be 5299 993d 0dac 213e
00000020: 7c41 813e 8f81 91be 5534 83bb 7003 6b3d
00000030: 5068 6f3e 47f2 10bc e6bb 4f3e ca26 47be
00000040: 9031 ea3d 396e 8a3e 80d2 933e 1f8d 64bb
00000050: be55 5b3d 6b1d 8f3e 660a 59be 25c0 24be
00000060: 105a 66be 7697 653e 143d 933e 31c5 53be
00000070: 81d9 2fbe 26ba 98bd 022e 783e a0e5 833b
00000080: 1b60 ccbe cdc1 d7bd cb5f 103d 2581 933d
00000090: 16b8 8fbd fe77 60be 2e48 07be 0e75 603e
000000a0: 7f4f aabd 79fc 39be 6165 66be 3ff0 23be
000000b0: de35 05bf 178f 203e 545b 0dbe 6fe4 623e
000000c0: 5625 4ebd dea5 813e 9d9c b23d 8ddb 19bd
000000d0: 3733 013d d48a 44be 6b94 41be db67 dcbd
000000e0: 4efb 433d d671 3abe f300 493d 01bb abbb
000000f0: 1e13 073c ce7a 48be 7719 3fbe 0d6c 613e
00000100: 77fa b43d 9c58 fcbd c74e 4dbe d44d 64bd
00000110: 19e0 773d 0e16 0ebc 9b6e 833c 404d b73c
00000120: 934b 093e fa08 c53d 1d31 763e c4bb 3ebe
00000130: 3383 933d 1dd1 883e fdc2 383d dbf1 48be
00000140: 8190 e3be f6f0 26be a419 89be cf91 33be
00000150: 55cc 5bbe 4707 113e 2025 82bd b4dc cd3e
00000160: db37 d7bd bb08 79be 603f 29be 0fc4 cabd
00000170: 9899 7b3e 207c 23be 8ff3 29bd 08d4 73bd
00000180: d11a 0abe 343d 023d 65ae 7e3e 966a c53b
00000190: e089 e1bd 811b e2bd 04d0 a3bd 176b 1c3e
000001a0: 6c36 7fbe d223 b7bd 1774 873e 74d9 8ebd
000001b0: d06f e1bb 1514 2ebe dd2c bf3d 5b2c 85be
000001c0: 973f 6abe 343e 5dbd c134 21be d025 323e
000001d0: 37c4 8a3d 45f1 7f3e fad8 70be e989 b7bd
000001e0: 1cf0 693e 4b7b 3ebe 1409 463e 2031 613c
000001f0: 2342 94be 1a45 98bd e192 bcbd df68 de3c
00000200: 01eb 273e 930d 903e b3c5 acbd 9613 963e
00000210: 6d5d 6d3e ebd5 d6bd 380c 1b3e e4a2 43be
00000220: 8767 5ebe 52e1 653e 47d1 a9bd f6f3 f43d
00000230: 00c6 343d 2070 6a3d b05f 4a3d 70c7 fa3c
00000240: aae9 363e 8064 ecbc d0ac b33c 7c48 adbd
00000250: 0872 24be 9c4c e5bd 5833 4c3e 5065 7fbd
00000260: f41d a63d 0078 a53d ea0e da3d 5104 f43d
00000270: 91e1 433e 5940 0e3d a821 f43d b1c1 88bd
00000280: 3d89 5a3e f830 37be f908 6f3e acdb 4ebd
00000290: f09b f3bd f68a 24be 7777 793e e3b1 0dbe
000002a0: 9681 68be c273 7c3d 0fe7 183e 2570 30bd
000002b0: 6cc4 a3be d928 0e3e 7372 5ebe 9331 4dbd
000002c0: b9e5 00bd add4 ddbd 1cc0 ccbe 702f 6dbe
000002d0: 8629 d7bd 8c6f 6f3e 9a32 e3bc 80e2 943d
000002e0: 4c49 80be 730c 853e 9a82 8cbd 39e9 18bf
000002f0: 6e2c 85be 186c 833e 97f9 b0bd 32ed 573e
00000300: 2516 52be 303d 303e 45ce 453e 2fe1 b6bc
00000310: 86a7 b63d 3bcd a7bd 2db5 04be 0b88 ca3d
00000320: e606 c8bd 7824 933e 7408 0a3e a027 43bd
00000330: 9727 9f3e 9bf4 77be f460 c9bd 6073 153e
00000340: 5707 603e a074 39be 2e6d 80bd 4f52 623e
00000350: 33a5 7fbd b209 89bb 2931 193e fc63 7ebe
00000360: 7511 523d 7e49 323e 59fe 533e cf9e e2bd
00000370: bfb8 e83d 02c4 173e aa9d b53b add8 b93d
00000380: 45f3 4b3e 0be9 013e d630 1ebf 023c efbe
00000390: 7099 fcbd c186 bebd b7cd 5d3d b7a4 35be
000003a0: 487e 073e 09e5 a0bc 9794 8a3d b245 233e
000003b0: ea5a 4b3e 8e6e 133d 4051 3f3c b061 ffbd
000003c0: 828b 693e 1072 40be 6c7d 003e c879 823a
000003d0: 58ee c0bd b0b3 e33c 9471 63be f845 e1bd
000003e0: 6dc9 d4be a0b6 4abc 2a0b 673e 03f4 763e
000003f0: 9751 b8bd 0af9 13bd 6c5f cebd 9ed1 943e
-0.15375002 -0.18181187 -0.38675192 0.2705975 0.023269108 -0.17649774 0.07499947 0.15788288
0.25245273 -0.28419158 -0.004004041 0.057376325 0.23379636 -0.008846826 0.20286521 -0.1944839
0.114352345 0.27037218 0.28871536 -0.0034874154 0.053548567 0.27952132 -0.21195373 -0.16088922
-0.22495294 0.22421059 0.28757536 -0.20680691 -0.17172815 -0.0745738 0.242363 0.004025176
-0.39917073 -0.105350114 0.035247605 0.07202367 -0.070175335 -0.21920773 -0.13211128 0.21919653
-0.08315944 -0.18162717 -0.2249961 -0.16009615 -0.5203532 0.15679584 -0.1380437 0.22157453
-0.050328575 0.2532186 0.08721278 -0.037562896 0.031542983 -0.19193584 -0.18904273 -0.10761996
0.047847085 -0.18207487 0.04907317 -0.0052407985 0.008244304 -0.19578096 -0.18662058 0.22013874
0.08836835 -0.123215884 -0.20049582 -0.055738285 0.06051645 -0.00867225 0.016043952 0.022375703
0.13407736 0.09620853 0.24042173 -0.18626314 0.07202759 0.2672204 0.04510783 -0.1962351
-0.44446185 -0.16302857 -0.26777375 -0.1753609 -0.21464665 0.14162932 -0.06354737 0.40207446
-0.105087005 -0.24319737 -0.16528082 -0.099006765 0.2457031 -0.15965319 -0.04149204 -0.05952838
-0.13486792 0.03179665 0.24871214 0.006024669 -0.11012626 -0.11040402 -0.0799866 0.15275227
-0.24923104 -0.08942379 0.26455757 -0.0697507 -0.006879784 -0.16999848 0.09334729 -0.26010403
-0.2287582 -0.0540144 -0.1574278 0.17397237 0.06775706 0.24994381 -0.2352027 -0.08961851
0.228455 -0.1860172 0.193394 0.0137446225 -0.28956708 -0.07435055 -0.092077024 0.027149616
0.1639824 0.28135356 -0.08436146 0.29311818 0.2318017 -0.1049002 0.1514138 -0.19105107
-0.2171918 0.22449234 -0.082918696 0.11960594 0.04413414 0.057235837 0.04940766 0.030612677
0.17862573 -0.028856516 0.02193299 -0.08461091 -0.16059124 -0.11196253 0.19941461 -0.06235248
0.08111182 0.08079529 0.10647376 0.11914886 0.19129016 0.034729335 0.11920482 -0.06677569
0.21341415 -0.17889774 0.23343267 -0.050502464 -0.11894977 -0.16068634 0.24361978 -0.1383739
-0.22705683 0.061633833 0.14931892 -0.0430757 -0.31985795 0.1388277 -0.21723346 -0.050096106
-0.03146908 -0.1083158 -0.39990318 -0.23162627 -0.10505967 0.23382396 -0.02773409 0.07269764
-0.2505592 0.2598606 -0.06860848 -0.5973087 -0.2601046 0.25668406 -0.086413555 0.21086577
-0.2051626 0.17210841 0.19316967 -0.022324173 0.08918671 -0.081934415 -0.12959738 0.098892294
-0.09766941 0.2873876 0.13479787 -0.04764521 0.31084892 -0.24214403 -0.098329455 0.14594793
0.218778 -0.18110895 -0.062708244 0.2210171 -0.062413406 -0.004182064 0.1496016 -0.24842829
0.05128618 0.17410848 0.20702495 -0.110654466 0.113633625 0.14820865 0.0055424767 0.09074531
0.19917019 0.12686555 -0.6179327 -0.4672547 -0.123339534 -0.09303046 0.054151263 -0.17738615
0.13231766 -0.019640462 0.067666225 0.15944555 0.198589 0.035994105 0.011677086 -0.12469804
0.22807124 -0.18793511 0.12547845 0.0009954507 -0.094204605 0.027795643 -0.22211295 -0.109996736
-0.41559926 -0.012372643 0.22562853 0.2411652 -0.08999937 -0.036126174 -0.10076794 0.29066175

q1.0.bias f4 [128]
00000000: f3a8 20be ab77 2e3e aac4 5b3e a129 debd
00000010: 0372 903e a596 553e c87a 4c3d 7618 65be
00000020: e1ee 5c3e b4df 023e dac8 2ebe 73b9 3b3e
00000030: 5875 873e 7b25 00be d580 993e 4b14 813e
00000040: 2e29 2bbe 8703 aa3b 5119 96be f4d8 973e
00000050: 9af9 343e 9420 903d c697 a8bd d717 753e
00000060: 03af 883e cc99 86be 87b9 923c 85f8 8a3e
00000070: 465d 673d b695 99bd 6c06 e83c 97b9 c0bb
00000080: 0575 a4bd 1d9b e2bc 3e30 9d3e 2644 953e
00000090: 736a 993e f879 633e 58c7 7b3e 811f 37be
000000a0: 96e1 c2bd bd43 27be 5f68 4ebe 1d58 123e
000000b0: eb13 8bbd a86d 19bc 0d50 ebbd a4bd 573d
000000c0: 54fb 5a3d c03e 01be 5571 b7bd 6233 173e
000000d0: 26bb f63d d820 623e 9fec 0f3e 81f3 4a3e
000000e0: e576 063e 66f9 6b3e 7019 1ebe c5f6 72bd
000000f0: ed12 043e 2af7 e5bd ec00 49be 4847 5dbc
00000100: 15f9 b83d a5b9 2bbe 923c ed3d b7ed e9bc
00000110: 1915 003e b45e cfbc 4b21 553e bef4 433d
00000120: 7141 ab3c 650f 91bc 75fc e6bd 08e4 79be
00000130: f6de c83c 14b6 903d f064 80bd 92ac e13d
00000140: 05b1 2c3e d23f fe3d d230 88be c411 e23d
00000150: 3843 d0bd 052d aa3d 2be9 1e3e 7631 70be
00000160: 7890 103e 92a7 de3c 6376 db3d 51ed 093e
00000170: 27bd f93c 2bef 763e 3ac9 2b3e 2cd9 c43d
00000180: 22ad aabd 2205 8c3e 6b22 203e ebe8 45be
00000190: 7619 39be faf0 6bbe f784 4c3e f745 16be
000001a0: 24c9 2abe 7964 51bd a84e edbc 6c34 103e
000001b0: 0107 093e a494 87be 17ab 8e3e c980 fe3c
000001c0: 0a85 0a3e da9f 0dbe 25ff 333e 8e4b edbc
000001d0: d9e2 363e 9994 f23d bc91 92bd 091a 4fbe
000001e0: 9e9f 23be 407e 1a3d 7bad 32be dba6 533e
000001f0: 3e9e 01be 479c 9b3e ead9 1cbe 5075 5d3e
-0.15689449 0.17037837 0.2146174 -0.10847784 0.28211984 0.20858248 0.04992178 -0.22372612
0.215755 0.12780648 -0.17068806 0.18332462 0.26456714 -0.12514298 0.29981104 0.25210795
-0.16714928 0.005188409 -0.2931619 0.2965771 0.1767334 0.07037464 -0.082320735 0.23934875
0.26696023 -0.26289213 0.017910732 0.2714273 0.056485437 -0.07499258 0.028323375 -0.005881499
-0.08030132 -0.027661854 0.30700868 0.29153556 0.29964027 0.22214496 0.24587762 -0.17883112
-0.09515683 -0.16334434 -0.20157002 0.14291425 -0.067909084 -0.009364523 -0.11489878 0.05267109
0.05346234 -0.12621593 -0.08957163 0.14765695 0.120474145 0.22082841 0.14055108 0.19819452
0.13131292 0.23044357 -0.15439391 -0.05931737 0.12897845 -0.112287834 -0.19629258 -0.013505764
0.090318836 -0.16770037 0.115838185 -0.028555734 0.12508048 -0.025313713 0.20813482 0.047840826
0.020905228 -0.017707536 -0.11278621 -0.24403393 0.024520379 0.07065979 -0.06269252 0.11019243
0.16864403 0.124145165 -0.26599747 0.11038545 -0.10169071 0.08309368 0.15518634 -0.23456368
0.1411761 0.027179513 0.1071594 0.13469435 0.030485703 0.24114673 0.1677598 0.09611735
-0.08333804 0.27347666 0.1563813 -0.19327132 -0.18076119 -0.23041144 0.19972597 -0.14675127
-0.16678292 -0.05112121 -0.02896817 0.14082497 0.13381578 -0.2648059 0.27864906 0.031067269
0.13527313 -0.1383051 0.17577799 -0.028966691 0.17859973 0.11844749 -0.07156703 -0.20224775
-0.15978858 0.037718058 -0.1744899 0.20669119 -0.12658021 0.30392668 -0.15317503 0.21626782

q1.2.weight f4 [128, 128]
00000000: 40a6 aa34 0eb6 df3d 7840 0b3e 79fc 86bd
00000010: da2b 373c ec27 523c a805 dc3d 45f5 c8bc
00000020: e1f0 913d 3675 783d ecae e23c 4e83 8a3d
00000030: f6d1 e13d 06b5 10bd 0692 c33d 0697 b93d
00000040: e657 503e 6c1d 023e 5ab1 e2bb b3d8 fb3d
00000050: f944 3f3d df7e b33d 9e4e 3d3d 57cb 31bd
00000060: a93a e33d 11b1 203e fc3c b4bd 5683 7a3d
00000070: 6334 2a3d 8db1 eebb 64f8 ea3d 356f 84bd
00000080: cee2 11be c9ba 0cbe 7199 3d3d 3dbe 5bbc
00000090: cc52 943c 43d3 6a3d 60d0 17bd 0afd e53c
000000a0: bae5 debd fa7d 2fbe 3194 c0bd 2336 b8bd
000000b0: 8e1b b33d 83fd 083e 5f4f 72bd 4c05 d43d
000000c0: 909a cebd 70ff bc3e 6f96 b23d 6fb4 b83d
000000d0: 5439 da3b 3543 343d c562 393d ed4f a23d
000000e0: 9aed d83d e0bf 8abc 5065 6ebc 7371 193e
000000f0: f67b 7c3d 5bca e73c 5913 913b 6c24 793e
00000100: 7dc9 7c3d 7e58 9dbd c0fd ae3d 43ce 0c3e
00000110: e33f e03c 11e1 30bd 2ea7 993b 4f7e 653d
00000120: e048 01be fd2e e63d 9c31 c0bd 9a3d 74bd
00000130: b81f a03d d724 63bd d2c6 373d c795 cf3c
00000140: d970 143d 49dc a03d 2d92 6dbd c4c7 bc3d
00000150: d6e4 90bb b06f 05bd 0cd1 d33d 1bf0 913d
00000160: 707b 313d b0cc 103e 5d20 2d3e 52a2 933d
00000170: ac59 92bc 298b 00bc ee79 b8bc 8708 623c
00000180: 6b12 80bd 1012 213e c0ef 5f3c d2fd b2bc
00000190: 3120 2cbd c368 80bc e1af 0abc 3cb0 25bd
000001a0: 8621 b1bd 0cce c33d 2648 aebd d9f7 663d
000001b0: 983b ad3b 4126 d8bc 68cb 193d 7e86 b93c
000001c0: 3e4e bd3d 7886 c13d 869f a93c b64d 62be
000001d0: 1a9f 5d3e 43b5 013e 0be5 323c af85 ad3c
000001e0: 2384 a03d a9fe cd3d f12f 99bd dbaa 933d
000001f0: 6450 383c 835c 26bd 255d 613c 6d4f 49bd
00000200: 9b16 7abd 37c5 0f3c 3b09 993b 098b 42bc
00000210: 2e0e 213d 2a6d 813d 75fa a8bd 6bf7 0abe
00000220: 5862 8fbd 22a1 073d 668f 91bd c6a2 6ebd
00000230: 2795 503d c96c 28bd 7563 9cbc 3fc6 a5bd
00000240: e9a6 ce3c d692 773e 1aac 98bd db68 d8bd
00000250: 8fa3 b13d edd9 65bc 65d8 c03e 59c0 5e3c
00000260: 32be ca3d d22b 2bbe 34b8 c93d bd3d 5d3c
00000270: 1883 fcbc 620d 66bd cd47 043e a6e3 83bd
00000280: eb8e 6b3d 638d 8abd deb6 d73d 0735 81bd
00000290: 1845 0f3d 2116 86bd 1f6f 843d 3702 c5bd
000002a0: 539d 8bbe ce1a 1fbd cc72 8a3d 7c31 65be
000002b0: c899 ae3d 6e12 713d d824 40be f55b 353d
000002c0: bacd 26be f470 253d 9fda 0ebe acf9 823c
000002d0: 04a4 cebe 6b13 b53d 24f6 9a3c c957 5b3d
000002e0: d02e 343e 68d9 ecbb effc 87bd d45f 36be
000002f0: 8995 c0be 02ed 59be 3bd2 89bd 5f19 1d3e
00000300: 2307 d7ba cff5 d1be 3024 3fbe 278b c2be
00000310: e731 133e e8e0 d13c e572 023d 53db c53c
00000320: f169 71be a22c f33d d701 393e 4e20 2abe
00000330: e4de 283d a5e1 96bd 5aef 8d3e d42b f7bd
00000340: baa3 dc3c 06ab a33d 89fa 183d e616 fdbc
00000350: 5380 c93d 1160 3f3b c404 e1bd 7ab4 433d
00000360: bcfc 973d bf8d c2bc c16c 433e 8692 043d
00000370: c9b3 933e 0661 24be 9b61 8f3d d848 ea3c
00000380: 93c7 02be e2e1 d93d 0f75 743d 2031 7e3d
00000390: 2e47 053e 2b0d e03d e943 18bc 63af 95bd
000003a0: 6547 5c3e c0fc 32bd 8063 bebc 3399 f3bc
000003b0: 3f5b 13bd e9ce 07be ef97 d2bd 9035 293e
000003c0: 0b4e 8c3d 7669 5d3e 80fa 823c c3c4 67bd
000003d0: 4063 183f 6fbb cbbd 8725 073e a840 143e
000003e0: 6fe4 f8bc 6038 f63d fd50 07be c731 a9bc
000003f0: e72c 02bd 1f20 4c3c 45e6 8a3e 4992 5cbb
3.178593e-07 0.10923396 0.13598812 -0.06591124 0.011179889 0.012826901 0.10743266 -0.024531016
0.07126022 0.060658656 0.0276713 0.06763326 0.11026375 -0.035328887 0.09549336 0.090620086
0.2034603 0.12706536 -0.0069181146 0.122971915 0.046696637 0.08764433 0.046217553 -0.04340681
0.11095173 0.15692545 -0.08800694 0.061160408 0.041553866 -0.0072843493 0.11473158 -0.064665236
-0.14246675 -0.13743128 0.04628891 -0.013412056 0.018105887 0.05733038 -0.037063956 0.02807476
-0.108836606 -0.171379 -0.09403265 -0.08994701 0.0874549 0.13377957 -0.059157725 0.10352573
-0.10088074 0.36913633 0.08720099 0.0901879 0.006659666 0.044009406 0.04526021 0.07925401
0.10592194 -0.016937196 -0.014550522 0.14984684 0.061641656 0.028294733 0.0044273552 0.243303
0.06171559 -0.07682894 0.08544493 0.13750558 0.027374214 -0.04318339 0.004689119 0.05602866
-0.12625456 0.11239431 -0.09384462 -0.05962906 0.0781855 -0.055455055 0.044867344 0.025339974
0.036240432 0.07854516 -0.058000732 0.0921779 -0.0044218106 -0.032577217 0.10342607 0.071258746
0.04333061 0.14140582 0.16906877 0.072086945 -0.017865025 -0.007845678 -0.022519078 0.013795978
-0.06253513 0.15729547 0.013668001 -0.021849547 -0.042022888 -0.015674954 -0.008464784 -0.040451273
-0.08648972 0.09560785 -0.08509855 0.05638871 0.005286645 -0.026385428 0.0375475 0.022647139
0.09243439 0.09449476 0.02070595 -0.22099957 0.21642724 0.12666802 0.010918866 0.02118191
0.07837703 0.10058338 -0.07479847 0.072103225 0.011249635 -0.04061557 0.013755118 -0.049148012
-0.061056715 0.008775047 0.00467029 -0.011873969 0.039320163 0.063196495 -0.08250896 -0.13570945
-0.070011795 0.033112653 -0.07107429 -0.0582607 0.050923493 -0.04111937 -0.019090394 -0.08094453
0.025226073 0.24177107 -0.07454701 -0.105668746 0.086737745 -0.014029008 0.37665096 0.013595664
0.09899558 -0.16715935 0.09849587 0.013503489 -0.03082423 -0.056165107 0.12918015 -0.06439905
0.057509344 -0.067652486 0.10532926 -0.06308942 0.034978002 -0.065471895 0.06466507 -0.09619563
-0.27268466 -0.038843922 0.06760177 -0.22382158 0.08525425 0.058855467 -0.18764055 0.04427715
-0.16289416 0.040390924 -0.13950585 0.015988193 -0.4035951 0.08841594 0.018916197 0.053550515
0.17595983 -0.0072280653 -0.0664004 -0.17809993 -0.37614086 -0.21281818 -0.067295514 0.1534171
-0.0016405325 -0.4100785 -0.18666148 -0.3799679 0.14374505 0.025619939 0.031847853 0.024152433
-0.2357557 0.118737474 0.18067108 -0.16613886 0.04122819 -0.07367257 0.27721673 -0.120689064
0.02693354 0.079916045 0.037348304 -0.030894708 0.09838929 0.0029201547 -0.10987237 0.047779538
0.07421252 -0.02374923 0.19084455 0.0323663 0.28848103 -0.16052637 0.07001039 0.028599188
-0.12771444 0.10638787 0.05968195 0.062058568 0.13015434 0.109400116 -0.009293535 -0.07308843
0.2151161 -0.043698072 -0.023240805 -0.029736137 -0.03597569 -0.13262524 -0.10282885 0.16524339
0.06850823 0.21622261 0.015988588 -0.05658413 0.59526443 -0.099478595 0.1319791 0.1447779
-0.030382363 0.120224714 -0.13214488 -0.020653618 -0.031781103 0.01245883 0.27128807 -0.0033656529

q1.2.bias f4 [128]
00000000: 2958 b73d 7654 4e3b 57a9 e13a 810c 823d
00000010: c16b 903d dd9e da3b dd98 1fbd 489c c03c
00000020: 4c21 73bd e14c 6c3d e58a 7bbc e1f0 b0bd
00000030: 216d 96bd 7031 113d 91ec 833c 5ebe ff3d
00000040: 274c 0e3e 3af0 743d 24eb b23d 4b9e f33d
00000050: 3c4b fabc 5d01 2f3a b945 c03d f8bc b33c
00000060: 75e8 143c 72f5 9a3d 3f31 acbc 62a4 9dbd
00000070: ae5c 5e3d 5caa e5bc 32af afbc 8a7f 68bc
00000080: 6e11 d33d 2652 923c 7ecc 1e3d eeb7 803d
00000090: d359 a33d b5fb 8a3d 32b8 babc ae29 1f3e
000000a0: d1ba 253e 419d c23d 9bfa 9bbc deda 6a3d
000000b0: 2018 1a3e ba6a 013e 3bae 16bd ee4d 8b3d
000000c0: 1532 1ebc bc08 d43c 0c54 c9bb 383e a03d
000000d0: 9185 7cbd e76e a63d b1e0 00bc 70fd a8bd
000000e0: bc8e f53c d788 8a3d f42b 313c 8727 e13b
000000f0: 58b0 51bd dc94 103b 5210 163d f3d2 313d
00000100: 1751 d33d bd56 dc3c 5163 033d 4747 e93c
00000110: 37d0 9d3d 8c06 5e3e 2c36 36bd 8385 e03d
00000120: ea5c eebc 9109 37bd a0e1 15bd 77e2 163d
00000130: 2fdb ac3c 45b1 14bd 1b93 79bd 21fa b83d
00000140: dfe0 cdba bc7b a63c 59c2 93bd 6c2a 8ebd
00000150: dabf 73bd 52e6 92bb 4acd 1f3d b9e8 75bc
00000160: 3259 953d a49c e4bc bbc3 c839 f4b4 55bd
00000170: 3190 c63d 1b6a a53c a444 a43d 5f10 d83c
00000180: ed21 183d e938 7cbd 806a 9dbd 7971 0c3d
00000190: b690 903d 46ec 963d b7ad 363d ca4c 2f3e
000001a0: 76cc 543c e1e9 6e3d 07a4 d5bd 250b 6a3d
000001b0: f4d3 063e e93d ca3d 6380 d83d a8e0 7ebc
000001c0: 1105 e73d 4f7b 943d 2872 f23c e456 6bbd
000001d0: 88d8 0abb bb07 83bd bf70 5d3d 3fa4 1fbb
000001e0: 983a 313d ecf5 5abd 51fe dd3b 880e c1bc
000001f0: 9104 9f3c 1ef2 f6b9 1abe 7d3d 0f9d 023c
0.08952362 0.0031483448 0.0017216605 0.06350041 0.070518024 0.00667177 -0.03896414 0.02351202
-0.059357926 0.057690505 -0.015352939 -0.08639694 -0.073450334 0.035447538 0.016104015 0.124874815
0.13896237 0.05979941 0.08736256 0.11895426 -0.030553453 0.00066759234 0.093882985 0.021940693
0.009088625 0.07566346 -0.021019576 -0.07697369 0.054287605 -0.028035335 -0.021445844 -0.014190564
0.10306059 0.017861437 0.038769238 0.06285082 0.07976117 0.067862906 -0.02279291 0.15543243
0.16184546 0.0950265 -0.019040396 0.057337634 0.15048265 0.12638369 -0.036787253 0.06801973
-0.009655495 0.025883071 -0.0061440524 0.07824367 -0.061650816 0.08126622 -0.007866071 -0.08251464
0.029975288 0.067643814 0.010813702 0.006871167 -0.051193565 0.0022061383 0.036636658 0.043414067
0.10318201 0.026896829 0.032077137 0.02847637 0.077057295 0.21682185 -0.044485256 0.10962965
-0.02909704 -0.044686858 -0.036592126 0.036837067 0.021100609 -0.03630187 -0.060931306 0.09032083
-0.0015707276 0.020322673 -0.07214803 -0.06941685 -0.059509136 -0.0044830227 0.03901414 -0.015009099
0.07292403 -0.027906723 0.00038292803 -0.052174523 0.09695471 0.020192197 0.08020905 0.026374994
0.03714173 -0.06157771 -0.07686329 0.034287903 0.070588514 0.07369284 0.04459926 0.17119136
0.0129882 0.058328513 -0.10431676 0.057139535 0.13166791 0.0987509 0.10571363 -0.015556492
0.11280263 0.07250082 0.02959545 -0.057455912 -0.0021186192 -0.06397959 0.0540626 -0.0024359373
0.04326877 -0.053457186 0.0067747016 -0.0235665 0.019411357 -0.00047101168 0.061948873 0.007972016
