rgz/checkpoint_200.pth (torch, 329845 bytes, 22 tensors)

net.0.weight f4 [128, 13]
00000000: a34b f53c f43d e53c 8a03 66bd dccb 15be
00000010: e11b 91bc 92f5 e8bc ab97 62bc 8e3f a9bc
00000020: ab8d 193d b173 9abc 9c59 d43b c6fb 99bb
00000030: e39e d93c 5e6e 613c 5231 533c a3ec 03be
00000040: f5aa f6bb 6bf4 27bd 3bb2 df3c bf31 66bd
00000050: e2ce 08bc a9f6 cb3c b17f b33c fc02 06bc
00000060: dea1 48bd 3aa2 66bd ebd6 ff3c a291 f93c
00000070: a399 23be 74f2 2abd ca56 a1bc 552c 12bd
00000080: 07c9 c03c 9ae0 c03a b8d3 12bc fa54 7e3b
00000090: e6c6 2dbc 2e9a 88bd bcb6 283c 92b4 ef39
000000a0: 9e1d ac39 60ad 4bba b5da 43ba 9ab1 2a3a
000000b0: 0559 2a3a 3723 90ba 2c64 8eb9 1d89 3bba
000000c0: 245d 3bba b468 3dba ce66 9cba 01d2 baba
000000d0: f232 dd3c 1b3b db3c bc43 96bd 3eb6 8fbd
000000e0: b392 a5ba b2b2 94ba 5a75 67bc 4483 f1bc
000000f0: 5b9e 063d a6d4 cfbb 3b21 803c 3f65 f0bc
00000100: bcc5 793b 1595 103d 3cb9 0d3d 6a5d 6e3c
00000110: dd26 22bd e798 abbd 29d7 9ebd 8a6c 2b3d
00000120: 1a53 6ebd eac6 a3bb 31a7 fa3c 556d a3bb
00000130: 94ef bebd ed6b 433d 0db0 67b9 3cd5 2eb9
00000140: be11 a5b9 6a32 30ba 4f0b b639 bef1 23ba
00000150: 01e6 4eba 89b2 fcba 1143 07bb f2e7 63ba
00000160: cef2 6a3a f878 463a 5844 7db9 e195 b23c
00000170: 67ac b83c fdc4 72bd ac88 04be 1c4b 38ba
00000180: 379f 04bc 5f92 b0bc 0717 b3bc 16a3 233d
00000190: faf9 93bc b5fd 933c 1765 35bb e683 3b3c
000001a0: ddfe ee3c 2858 e73c 0c81 eebe cc33 b7bc
000001b0: 5bd5 80ba 3c94 a23b 33f2 f53b afaa d33b
000001c0: 7f8e 6cbc b772 f5bd 85b6 023c f1c5 9d3b
000001d0: a31a 36bd 00e0 393a 2e8b b53a b832 483b
000001e0: 2383 10bb fa69 f03a b253 0cbb 1a6d 60ba
000001f0: 94b8 0bbb 9100 31bb fb34 b43a edff 0c3a
00000200: 42b1 2738 b8f0 2c3a 841b e63c a2db f53c
00000210: 16cb e1bd 85f3 f6bc 2028 30bc 7d83 caba
00000220: 4804 f4bc 1073 8cbb 1083 f93c a4f6 9f3c
00000230: d7b6 9dbb cfb2 efbc 4cad 13bd 5fa2 e1ba
00000240: 4287 a03a 0d88 1b3a 9607 86ba ef56 a839
00000250: 3f69 cbba 2548 453a 784a 69ba 7af8 1aba
00000260: c223 77ba 0fa7 d838 be25 a43a d78c adba
00000270: 6651 803d 721f 813d cb17 69be 2f9e 3fbe
00000280: 0d22 263d cf8d 643c c7f1 93bb 8c76 413d
00000290: d5e8 fb3b a33f 7fbd 0e4a c53a 88aa 87bd
000002a0: 7d04 843c 3054 953a 5ab8 4b3a d01b 54b8
000002b0: 0004 e2b9 5add 95b8 4a96 3838 51c2 6b3a
000002c0: 4fde 5439 9b10 39bb d11e 97ba f8bd 6b3a
000002d0: 782a 293a 5a12 19bb 1ece 4b3d 0517 4e3d
000002e0: 64f1 1bbe 89a2 413e 99cc 193b 2216 d6bc
000002f0: 3420 363c 6310 e6bc 26db 59bc 2f0c 033d
00000300: bd6a 57bc c210 05bd 812d 173d 3255 00bb
00000310: 710c 1dbb d560 323b 5857 b7bb afd0 a5b9
00000320: 95d4 12bb 71de 5dbb a9db edba 75f9 b4bb
00000330: e294 f6ba f0d3 3d3a ddb4 81ba 85d3 1abb
00000340: a170 443c d042 313c 9751 17be 84bc 97bd
00000350: 289c b2bc 6ad1 d73b f054 d4bc c41b 09bd
00000360: bd1e f33b 2dc6 2a3d 5afa 793c b06c b3ba
00000370: 4b64 ddbc 92a0 853c b721 933c aef9 92bd
00000380: 7e36 b4bd a877 36bd a7c1 d6bd 64d1 05bd
00000390: 4b3b d0bd d3f6 2e3d 0d43 18bd 60ec e1bb
000003a0: 37b0 bfbc f682 8f3c 46db f93c 7875 013d
000003b0: 7a97 87bd 8770 edbd 63af a3bc 2950 b3bc
000003c0: 5d5c ed3a 475a 81bc f95e c53c d2fa a6bb
000003d0: 98fe 28bd 94e9 77bd 6251 573c 53f7 983d
000003e0: 4369 973d 4035 4abe 3f49 cfbd d1ef ebbd
000003f0: 29e9 ad3a f698 6e3b 602d 2e3d b8bb fabb
0.029943293 0.027983643 -0.05615572 -0.14628547 -0.017713489 -0.02843741 -0.013830106 -0.020660188
0.03748862 -0.018853994 0.006480409 -0.004699203 0.02656502 0.013759224 0.012890177 -0.12883238
-0.007527704 -0.04100458 0.027306667 -0.056199785 -0.008350106 0.02489789 0.021911474 -0.0081794225
-0.048982494 -0.056307055 0.03123041 0.030464951 -0.15976577 -0.041735128 -0.019694705 -0.03568681
0.023533357 0.0014715374 -0.0089616105 0.0038807974 -0.010606503 -0.066700324 0.0102974735 0.00045720168
0.00032828463 -0.00077696703 -0.00074712496 0.000651145 0.00064982503 -0.0010996823 -0.00027158984 -0.00071539154
-0.0007147363 -0.000722538 -0.0011932494 -0.001425326 0.027001832 0.026761582 -0.07337138 -0.07017182
-0.0012632221 -0.0011344759 -0.0141271 -0.029481538 0.032865863 -0.0063424883 0.015640846 -0.029345153
0.0038112244 0.035298426 0.03460048 0.014548639 -0.039587844 -0.08378773 -0.07755882 0.041851558
-0.05818472 -0.0049980776 0.030597301 -0.0049873986 -0.0932304 0.047710348 -0.00022095461 -0.00016673369
-0.0003148447 -0.00067213795 0.0003472217 -0.0006253979 -0.00078925496 -0.0019279282 -0.002063934 -0.00086939253
0.00089625723 0.00075711263 -0.0002415342 0.021799983 0.022543145 -0.059269894 -0.12942761 -0.0007030235
-0.0080946 -0.02155417 -0.021861566 0.039950453 -0.018063534 0.018065313 -0.0027678662 0.011445021
0.029174263 0.028240278 -0.4658283 -0.022363566 -0.000982921 0.0049615186 0.007505679 0.006459556
-0.014438271 -0.11984771 0.007978086 0.004814856 -0.044458997 0.00070905685 0.0013850683 0.003054781
-0.002205082 0.001834213 -0.002141219 -0.0008561179 -0.0021319734 -0.0027008394 0.00137487 0.0005378712
3.9980987e-05 0.0006597149 0.028089292 0.030011956 -0.11025064 -0.030145416 -0.010751754 -0.0015450564
-0.029787198 -0.0042861775 0.030458003 0.019526787 -0.004813056 -0.029260067 -0.03605394 -0.0017214528
0.0012247341 0.0005933054 -0.001022565 0.00032108228 -0.0015519037 0.0007525704 -0.00088993413 -0.00059116597
-0.00094276306 0.000103308 0.0012523455 -0.0013240826 0.062655255 0.06304826 -0.22762983 -0.18712686
0.040559817 0.013949825 -0.004514906 0.047232196 0.007687668 -0.062316548 0.0015051977 -0.06624323
0.016115421 0.0011392888 0.0007771306 -5.057064e-05 -0.0004310906 -7.1461036e-05 4.4008986e-05 0.0008993494
0.00020300712 -0.0028238657 -0.001152957 0.0008992846 0.0006453167 -0.0023356886 0.049757116 0.050314922
-0.15228802 0.18909658 0.0023467897 -0.0261336 0.011116076 -0.028083986 -0.013296878 0.03199404
-0.013148007 -0.032486685 0.03690863 -0.001958203 -0.0023963714 0.002721836 -0.005595129 -0.00031626734
-0.002240454 -0.003385451 -0.0018147129 -0.0055229017 -0.0018812681 0.0007241359 -0.000989582 -0.002362461
0.011989743 0.010819152 -0.14777218 -0.074090034 -0.021802977 0.0065862434 -0.025919408 -0.033473745
0.007419436 0.0416929 0.015257442 -0.0013689008 -0.027025362 0.016311917 0.017960412 -0.07176529
-0.08799456 -0.044547707 -0.10486155 -0.032670394 -0.10167559 0.04271586 -0.03717332 -0.006894633
-0.023399455 0.017518502 0.030500066 0.031606168 -0.06620689 -0.115937285 -0.019981092 -0.02188881
0.0018109191 -0.015790118 0.024093138 -0.005095818 -0.041258425 -0.06052549 0.013141962 0.07469048
0.07393124 -0.19746876 -0.101213925 -0.11520351 0.001326834 0.003640709 0.04252374 -0.0076517724

net.0.bias f4 [128]
00000000: 6de1 e93c 5640 073d 7cd8 d53b 145a 99ba
00000010: 0b9d 053d f5e9 603c 3ff6 22ba eac2 023d
00000020: 8ec5 09bd 6155 e1ba af35 1e3d fd48 5aba
00000030: 6859 f03a 12c7 ccba 7450 3fbc 3f45 bbbb
00000040: 120b b13b 692a 3f3d 78d3 023d c92d 03bc
00000050: 6845 103c 8ec9 c9bb 8ed1 ed3c 3066 bd3c
00000060: cac7 a33c 5b7f ba3b 1ea2 533a 5e5d 663c
00000070: d14a 14bc 14cd 023d 8507 74ba 0000 0000
00000080: fe2b e53b 70da 8bba de7b 1b3c f0a9 423d
00000090: 3705 cc3c 6166 3d3d 531c b3ba 76e4 aaba
000000a0: 9922 22bb 1219 f83c 1b27 c3ba 72c1 e13b
000000b0: 07d8 9fbb f6be 0b3d 4d35 02ba 412a 773b
000000c0: 651e a4ba 3b4a 95ba f196 e93c 1285 36bb
000000d0: f592 09bd 418f 4abb ff5f 613b 2d49 f73b
000000e0: 02bb f63c d64a 88bb f9ff b5bb b888 223d
000000f0: f820 5d3d f2c0 1d3d 000e cf3c f9aa a33c
00000100: 1ebc 013d fc47 8e3c 95d2 10bb f5de 13bd
00000110: c141 2c3c 8ebd 5e3c 813d f23c 6a3d b5ba
00000120: e2be f33c 18df a23c 739d 173d c2a7 ae3b
00000130: 4e8b 143d 7f0e fc3c 80d6 403c 147a 563d
00000140: 5d72 493d 0613 2a3d 4fa5 213d a955 0e3d
00000150: fac6 f23c fec0 9dbb 169c 01bc d01f efba
00000160: a62f 0cbb 65ef 133d 972b c13c 0633 dfba
00000170: b80b fbba f74b 363d 0a51 30bb 1ae7 71ba
00000180: 824b 193d 1f0c 6fba 8572 203d 1864 f83c
00000190: f791 f03c 94f4 243d 0458 66bc c1d3 083d
000001a0: bf9f 203d 4235 32bd 10b4 61ba a730 053d
000001b0: ea9b 163d 0b4e c53b bb45 7cba f3d5 2b3d
000001c0: ca46 03ba 85eb 4ebb e557 803c 3917 cf3c
000001d0: e12d a23c 8636 ebba b848 663c 9d26 05bb
000001e0: 7c2f eb3c 0000 0000 273b ac3b c555 ed3c
000001f0: 52d8 17bb a90d e1bb 5e7c e2ba d5a8 2e3c
0.028549874 0.03302034 0.006526051 -0.0011699819 0.03262047 0.013727655 -0.0006216503 0.031924166
-0.03363567 -0.0017191583 0.038625415 -0.0008326916 0.0018337192 -0.0015623292 -0.011676896 -0.005715042
0.005402931 0.046671305 0.031939954 -0.0080065215 0.00880561 -0.0061580604 0.029030588 0.023120016
0.019992728 0.0056914515 0.00080731686 0.014060346 -0.009051041 0.03193386 -0.0009308982 0.0
0.0069937697 -0.0010669958 0.009489981 0.047525346 0.02490483 0.046240214 -0.0013665057 -0.0013038057
-0.002473986 0.030285392 -0.0014888974 0.0068895156 -0.0048780474 0.03411766 -0.0004967049 0.0037714394
-0.0012521265 -0.001138992 0.028514357 -0.0027850312 -0.033587415 -0.003090814 0.0034389494 0.007546565
0.03011847 -0.0041593118 -0.005554196 0.039681166 0.05398652 0.038514085 0.02527523 0.019978987
0.031673543 0.01736831 -0.0022098173 -0.0361013 0.010513724 0.013594998 0.029570343 -0.0013827507
0.029754106 0.01988177 0.03701539 0.005330057 0.036265664 0.030768631 0.011769891 0.052362517
0.04918133 0.04152205 0.03946429 0.03474966 0.029635895 -0.004814266 -0.007910749 -0.0018243734
-0.0021390705 0.036116976 0.023580356 -0.0017028756 -0.0019153273 0.04450604 -0.0026903772 -0.0009227857
0.037425525 -0.00091189326 0.039171714 0.030321166 0.029366476 0.04027231 -0.0140590705 0.03340507
0.039214846 -0.04350782 -0.00086099 0.0325171 0.036769785 0.0060212663 -0.0009623428 0.041952085
-0.0005007802 -0.0031573486 0.015666911 0.025279628 0.019797267 -0.0017945326 0.014055423 -0.0020317205
0.028709166 0.0 0.005256075 0.028971562 -0.0023169708 -0.0068680835 -0.0017279496 0.01066037

net.2.weight f4 [128, 128]
00000000: 2505 9cba 94c8 bd3c 3c18 44bd ba19 e638
00000010: 61b6 0dbc 7de2 71bc aeba d139 d673 433b
00000020: 0743 d8be 06d7 b9b9 4448 6c3c e17d 1a3b
00000030: 4999 42be 8b72 b4ba 35f1 47bc 021a 08b9
00000040: dc10 06bd fc58 aabc 5dff ca3b de27 c53b
00000050: e740 ebbc 038c eabc 73d6 cf3c 18e5 debd
00000060: 4c7e 343c d58c d43c 4fe5 9abd a835 f9bb
00000070: 5ff6 b73c 3f56 54bb 2fbb 28ba e1b6 7238
00000080: f8eb a4bd 0b9a 9639 3a8f e6bb 3932 2b3d
00000090: 8aec 283c 0145 aabb 4485 0ebe f1ec 78ba
000000a0: 6a93 a3ba f1f6 05be 5d65 9fb9 fe5b 90bb
000000b0: eff9 0cbe b8e5 153d d914 343a 1057 5dbc
000000c0: aa7d 5a3a 00c4 53ba 8979 613d 5b7a 463a
000000d0: feb5 5cbe c6ed c8ba 9205 883d f081 633b
000000e0: 47bf 1c3c ae4c 06ba 9f36 bb3b 5120 88bc
000000f0: 34e9 dc3b 6bb5 3f3c 9a71 5bbc dcf1 93bb
00000100: aa20 49bc 6005 02bc c1ce 963a 60a3 063d
00000110: a576 30bd 3f52 463b 055c e1bb b7bf 8dba
00000120: 6dbc 55bd 8281 773d 90df cb3c 3c1c a8bd
00000130: 871e bc3d f229 03bc 5eea 86bd 7ef8 d63c
00000140: c275 193b 525b 053d 8af0 b33c c76d fd3c
00000150: 9847 743c 543b 0c3d 6fb8 31bc 64ab a6b8
00000160: 9b58 b83a cb06 c0bc d895 a53b e10a 7839
00000170: c540 053b 4323 9c3c 88ad c13a e82c a3b8
00000180: d774 bb3d 5b77 4ebd 77ca b83d 432e 993b
00000190: a7a2 c6bd f415 ad3c b0fe edbd 71ad 30bc
000001a0: 0804 08bd 9bad bcbe 8c93 79ba f0bb c83c
000001b0: 6cff 7bbc cfbf 17be 830a 6bb7 d4f5 18bc
000001c0: b822 dabd 423f 10bb 0f42 a03d e1d4 cdbd
000001d0: c239 91bc ef71 c03a 6ef6 6abc c329 723a
000001e0: 1038 73bc 3309 ee39 1906 6cbc b8ae 0cbc
000001f0: 1b5b c5b5 cc12 9fbc 300c efba 01e5 bb3d
00000200: be1b 6dba 2415 4b3a d3df 27ba 4c4d 8c3a
00000210: c4f0 f8ba 3506 8139 b478 1dba f469 b9ba
00000220: 0259 00b9 f501 1ab9 1018 1f39 83dd da38
00000230: 438a 8f3a 7630 ad3a d14f a13a bb62 84b9
00000240: 0bb9 e538 0f5f a5b8 ede8 49b9 a760 b6ba
00000250: 4a3f 5eba 51cd 7bba e1f6 7b39 676c 3e39
00000260: ac5e 4eba 9178 09ba 482a 543a 5e12 58b8
00000270: 2ba2 a4ba 6ff5 d7b9 4dfc 29ba f4ad 42b9
00000280: c36d 433a c997 c8ba 315b fbb9 36f5 82ba
00000290: 7f7d 8cba 0ea2 a7b7 9cdc 3d3a 19be 9fb8
000002a0: dd92 b839 2d1f 95ba d903 08b7 9c2b aa3a
000002b0: 43dd 52ba 58ea 1eba e160 e438 8268 033a
000002c0: 3050 5cba dd8d 3b38 3997 a8ba b458 64ba
000002d0: a187 043a bd84 a5b9 bb9c 8a3a b43d c03a
000002e0: 7d75 7ab7 02bd 78ba 33e4 9fba 081e 6339
000002f0: 9f1f 92ba 9f0d f138 936d 0bbb 2fbe bdba
00000300: 8c9a 66b9 be48 8bba 3dcf 03bb 719b 78ba
00000310: f9d3 dcb7 528d d739 b2f2 7839 f13d 2fba
00000320: d8c7 9fba f202 69ba dbdb b8ba 7a1e 6b3a
00000330: 30c7 d4ba f98d 37b9 d365 40b9 f5ff 183a
00000340: 7b23 f639 a65f 81ba 6929 a7b9 df52 3938
00000350: 6425 dcba 78cf 763a d6bc 7aba 9740 0e3a
00000360: 8f2a 243a a7a0 f6b9 2ef1 393a 9490 7b3a
00000370: 9e6e 74b9 8022 5eba f053 ed39 f198 43b9
00000380: 0b85 fdb9 fa2b 193b c063 00ba a411 7dba
00000390: 785c 67ba 9369 2e39 0e5c 053a f34c 3d3a
000003a0: cdae 4739 1ee2 73b9 0242 1b3a d1a2 98b9
000003b0: 3291 efba 19f4 9e39 69f0 45b6 c2b8 013a
000003c0: d1d9 1dbb 1d52 db39 3022 6eba a733 bdba
000003d0: e801 013a e577 ce39 1ef2 9239 152f 3db9
000003e0: c90a b1ba 0162 e93a c16a a3ba 4a74 80ba
000003f0: 562c 97ba 047e 6a3a 860e 8aba 08e0 c03a
-0.0011903389 0.023166932 -0.047874674 0.000109720466 -0.00864944 -0.014763472 0.00040002674 0.0029823682
-0.42238638 -0.00035446155 0.014421526 0.0023573565 -0.19003786 -0.0013767047 -0.012203504 -0.0001297966
-0.032730922 -0.020794384 0.0061949925 0.0060167154 -0.028717471 -0.028631216 0.025370812 -0.1088354
0.01101644 0.02594606 -0.075632684 -0.0076052733 0.022456346 -0.003240004 -0.0006436584 5.7867615e-05
-0.0805282 0.00028725 -0.007036117 0.041795943 0.010310302 -0.005196214 -0.13918024 -0.0009495756
-0.0012479846 -0.13082482 -0.00030402365 -0.0044054976 -0.13767217 0.03659603 0.00068695616 -0.013509527
0.00083347654 -0.00080782175 0.055047546 0.0007571333 -0.215538 -0.0015329651 0.066416875 0.00347149
0.009567088 -0.00051231205 0.0057132985 -0.016616972 0.006741667 0.011700968 -0.013393784 -0.004514916
-0.012275854 -0.007935852 0.0011505709 0.03287065 -0.0430819 0.0030261425 -0.0068774247 -0.0010814582
-0.05218165 0.060426243 0.024886876 -0.0820851 0.0918551 -0.008005606 -0.06587671 0.026241537
0.0023416136 0.032557793 0.021965284 0.030936135 0.014909647 0.034236267 -0.010847195 -7.947421e-05
0.0014064492 -0.02344074 0.005053263 0.00023655176 0.0020332795 0.019059783 0.0014776448 -7.78081e-05
0.09153145 -0.050406795 0.09022992 0.0046747043 -0.09698992 0.021128632 -0.116208434 -0.010783539
-0.03320697 -0.368512 -0.00095205824 0.024503678 -0.015380722 -0.14819263 -1.4009539e-05 -0.009335954
-0.10651153 -0.002201036 0.078251 -0.10050369 -0.017727736 0.0014682392 -0.01434098 0.00092377904
-0.014844909 0.0004540175 -0.014405751 -0.008586578 -1.4704159e-06 -0.019418143 -0.0018237885 0.091745384
-0.00090449664 0.00077469856 -0.0006403897 0.0010704189 -0.0018992652 0.00024609422 -0.0006007061 -0.0014145956
-0.00012240189 -0.00014687314 0.00015172386 0.0001043631 0.0010951239 0.0013213295 0.0012307112 -0.00025250562
0.00010954038 -7.885519e-05 -0.00019255625 -0.0013914303 -0.0008478059 -0.00096054847 0.00024029195 0.00018160195
-0.00078723836 -0.0005244101 0.00080934586 -5.151552e-05 -0.0012560537 -0.00041190858 -0.0006484434 -0.00018566084
0.00074550154 -0.0015304025 -0.00047942394 -0.0009991291 -0.0010718553 -1.9983414e-05 0.0007242651 -7.617119e-05
0.00035204637 -0.0011377089 -8.1071275e-06 0.0012982967 -0.0008043835 -0.00060621416 0.00010889932 0.00050128263
-0.0008404283 4.4716395e-05 -0.0012862451 -0.00087107276 0.00050556107 -0.0003157015 0.0010575274 0.0014666826
-1.4928516e-05 -0.00094886136 -0.0012198746 0.00021659594 -0.001114834 0.00011494313 -0.0021275028 -0.0014476235
-0.00021992082 -0.0010626537 -0.0020112537 -0.0009483612 -2.6324751e-05 0.00041113287 0.00023741534 -0.000668495
-0.0012190295 -0.00088886835 -0.0014103608 0.000896908 -0.0016233679 -0.00017505129 -0.0001834848 0.00058364804
0.0004694721 -0.0009870424 -0.00031883575 4.4184617e-05 -0.0016795811 0.00094150705 -0.0009564882 0.0005426495
0.0006262445 -0.00047040472 0.00070931285 0.0009596434 -0.00023310861 -0.0008473769 0.000452667 -0.00018653624
-0.00048355045 0.002337216 -0.00048976764 -0.0009653813 -0.00088257296 0.00016633263 0.00050872646 0.0007221244
0.00019043237 -0.00023258521 0.00059226167 -0.00029113007 -0.0018277525 0.00030317975 -2.9495225e-06 0.00049484905
-0.0024086128 0.00041832114 -0.0009084074 -0.0014434949 0.00049212435 0.0003938071 0.0002802768 -0.00018041984
-0.0013507243 0.0017805697 -0.0012467728 -0.0009800282 -0.0011533599 0.00089451694 -0.0010532893 0.0014715204

net.2.bias f4 [128]
00000000: f8d8 493d fada 4cbb 68ff 8e3c 3147 2bbb
00000010: a8bb 5e3c fe29 423d 0a00 6dbb 4cf9 633c
00000020: df48 f2ba 264a 1dba 428d 673b bc0a 1dba
00000030: e34f 5a3c 35f1 55bb 4b5d 673c 4d77 6a3c
00000040: 8cc9 333d ca18 6b3c c890 823c 9c2d 38bb
00000050: 9091 523c d68c 853c f041 22bb c30e 703c
00000060: c8aa 3d3d 9a1c ea3c b669 1bba 047a 28bb
00000070: 9fe4 1cba 5a76 023d 1e59 1cba a3a7 ab3c
00000080: 8824 3b3d 2602 1dba aaf3 97bb 968c e93c
00000090: c344 61bc 3440 4cbb 1e33 2dbb 2020 853c
000000a0: d4ab 773c 18e1 93bd d14c 3bbb 855a 5dbb
000000b0: ce27 cc3c 7477 2e3c cf9b 71bb 4cc2 43bb
000000c0: 2795 2fbb 5cdd 663d 8386 bfbb 631c 723c
000000d0: ffe2 4d3e 2fab 1e3d b839 1bba 63f9 493b
000000e0: d8d5 79bb 167c 5bbb 48ba 17bc 37d5 e63c
000000f0: d500 0fbb b94a f8ba a843 723c 7679 433d
00000100: 3149 02bb 6973 5dbb 9e07 1dba c43e 4c3d
00000110: 3776 d33b 2a0e 483d d492 4a3d 3c20 40bb
00000120: 8410 683c 0a98 7f3c 5d94 3fbb 94ba 433d
00000130: 2c7e 503d d3b7 1bba f64a 1dba b9c3 583d
00000140: d42f 50bb c261 1cba 6652 3d3d 5759 1cba
00000150: 00b2 80bb 1ade 80bb 5dfd 1abb a5ac 6e3c
00000160: e7ba c9ba 0cbc 92ba 9c8e 693c 3d77 b13c
00000170: 2f5b 24bb 3f9f 0a3d 086c 663c ac9b bcba
00000180: c97a 61bb 97b3 92ba 8efa de3c 78fc 58bb
00000190: e8e3 c13c de3c 6dbb c7a5 01ba f5c4 63bb
000001a0: d1f9 433d eb48 fe3c 25e7 51bb 5031 59bb
000001b0: 4d9a 683c eba7 9bba 803a 10ba 5e97 1cba
000001c0: 5a11 1dba fb8a 1cba 7745 a63c e74f 46bb
000001d0: 4635 47bb 0c6f 403d 91ce 013d e35e ff3c
000001e0: e95c 893d b51f 1dba 847c 433d 2ffd 1cba
000001f0: a563 923c 641d 1fbb d6fd 533c cacc 953c
0.049279183 -0.003125845 0.017455772 -0.0026134963 0.013594545 0.047403328 -0.0036163353 0.0139144175
-0.0018484852 -0.00060001237 0.0035332 -0.0005990674 0.013324711 -0.0032644991 0.014121364 0.01431067
0.043893382 0.014349172 0.015938178 -0.0028103357 0.012852088 0.016302507 -0.002475854 0.014651957
0.046305448 0.028578091 -0.0005928533 -0.0025707493 -0.0005984995 0.03185115 -0.0005964207 0.020953959
0.045689136 -0.0005989395 -0.0046372013 0.02850942 -0.013749304 -0.0031166198 -0.0026428173 0.01625067
0.015116651 -0.072206676 -0.0028579722 -0.0033775878 0.024921324 0.010648597 -0.003686655 -0.0029870449
-0.0026791783 0.05636345 -0.0058448925 0.014777276 0.20106123 0.038737472 -0.00059213815 0.0030818812
-0.0038121846 -0.003349071 -0.0092607215 0.02817784 -0.0021820564 -0.0018943168 0.014786638 0.047723256
-0.0019880051 -0.0033790714 -0.000599021 0.049864545 0.0064533013 0.048841633 0.049456432 -0.0029316088
0.014164094 0.015600214 -0.0029232719 0.047785357 0.050901577 -0.00059401727 -0.0006000245 0.05292103
-0.003176679 -0.0005965495 0.04622116 -0.00059642404 -0.0039274693 -0.0039327266 -0.0023649551 0.014567529
-0.0015390784 -0.0011194958 0.014255192 0.021663303 -0.0025078764 0.033843275 0.014063843 -0.0014389656
-0.003440546 -0.0011192438 0.027219083 -0.0033109467 0.023668244 -0.003619961 -0.0004945662 -0.0034754847
0.047845665 0.03104063 -0.0032028642 -0.0033140965 0.014196944 -0.0011875605 -0.0005501881 -0.0005973483
-0.00059916603 -0.00059716374 0.020296795 -0.0030260028 -0.0030396744 0.046980903 0.031691138 0.031173175
0.06707174 -0.00059937994 0.04772617 -0.0005988655 0.01786978 -0.0024278993 0.012938937 0.018286128

net.4.weight f4 [64, 128]
00000000: bb37 983b af9c 0b3a f2f8 c9be 88a6 d938
00000010: f20c dcbe b3b2 61bc fbf9 01ba 853a 0dbc
00000020: 090d a8b9 0dba 163a aa12 eebe 95d9 ce39
00000030: 522f 3bbd 1cf5 62ba dc7f 4bbc 4c6e e2bb
00000040: 1f32 73bd ffa8 6cbc 5405 ecbe f0e2 2d3a
00000050: b766 2abd 34c2 3cbd 4920 3dba 8d8b fbbe
00000060: 8066 94bc 6881 e8be 1cd4 eaba f1d9 403a
00000070: ff83 bab9 9d06 b7be 3f56 8d39 20e1 603d
00000080: 8789 61bd d4f3 65b9 5f37 273a 8999 bbbe
00000090: c216 59bd 7214 55bb 958a a33a e9ea 5cbd
000000a0: 394f e7be 5db9 b9bc 3a2a d836 34aa 7c3b
000000b0: 3a96 cdbe b291 ccbd dd50 f9b9 a7eb d0b9
000000c0: b50e fc37 7f01 a13c 288a d739 8877 25bc
000000d0: 8aea a3bc 1d33 aabd e055 8db9 40f9 4bbe
000000e0: 9909 92b9 899a cbba 9a3f 38be 51a5 c6be
000000f0: 8e7d 043b b147 16b9 77f9 12bc 978e 01bc
00000100: 3064 ae3a 72bb 0fba ecc1 98ba 2e40 7abe
00000110: cf3a f6be c753 5a3c 1c0f 7b3c 9cd9 273a
00000120: 0ba6 14bc f854 42bd 2711 1e3b 5fd6 54be
00000130: 59e1 bb3c 6737 0a3a f2ac a03a cb24 1d3d
00000140: 1bf0 08ba 9057 3ab9 35a1 88bc 6f39 9d38
00000150: b8c0 b6ba cf54 863b 64b9 a3ba fd49 00bf
00000160: 7388 95ba 2417 4db8 5e8b cfbe 94d9 c3be
00000170: 1781 003a a49d b8be b22b fcbb eca9 edba
00000180: f8ea 7e3b cfa4 fbb8 f606 f1be a10d 8839
00000190: 4244 f0be cf13 bfba 7549 0fb9 6f65 e738
000001a0: bd84 1abc de27 7cbe d5de 323a 89f3 383a
000001b0: 7576 893b 565e 513a 50c5 6739 dc52 e5b9
000001c0: e7b1 cd39 55a1 27ba f69e 673d 1909 1dbb
000001d0: f9aa f538 1e58 e3bb 6e39 7ebe 44ee 74be
000001e0: 4ba1 19be d4f4 1c3a e88c e83b 9ae4 9aba
000001f0: b53f fabe f34b 003a 1315 1ebd 963b a9bd
00000200: 0d63 c9bd d2fa 8739 f8ec 12bf 30e7 d1b9
00000210: 7527 5dbf 9d10 d8bd 0b4d c339 0cb1 9cbd
00000220: 56fb 063a 1407 7dba e895 69bf 51fc 04ba
00000230: 89f1 4cbe c886 06bb 2812 9fbd 09b2 94bd
00000240: 9bc7 f5bd c390 a3bd f853 18bf 0714 c9ba
00000250: fe8e 38be 41bd 50be 4a2c 103b 1d2b 50bf
00000260: 4c23 d9bd 4d7d 26bf 880b 2a3a 97dc d23a
00000270: cdb1 c23a 3852 c0be 05b7 a8ba 3574 58bd
00000280: 1228 f8bd 9bdf 1a39 9ee4 d7ba cc5f 80be
00000290: 79ce 45be 2fb6 0fbb d331 143b f31d 8abe
000002a0: 11e3 48bf 0528 62be dc1a ef39 8c15 313b
000002b0: e224 81be 77cc a2be b49b 1a3a 409e 413a
000002c0: f73b 853a a961 dcbd 8f33 9aba 51ab 95bd
000002d0: 2e21 dc3d 273e 0abe f2a4 1c3a abf6 45be
000002e0: 4898 ea39 2912 b53a ae5b bfbe e554 a1be
000002f0: 6570 0cbb e173 4337 8ae0 97bd 6d83 d8bd
00000300: cd6b 7f39 26df 7eb9 f5d9 f339 e423 92be
00000310: 9e14 36bf d48d c7bd 5b1f c0bd ca35 7b3a
00000320: 49e6 92bd 6570 4ebe 06a0 c13a 8864 a4be
00000330: 2f89 bcbd ec49 103a 202a b8ba e755 b2bd
00000340: 34fa 16b9 ca2c 6dba a8d0 dbbd 2d90 1bba
00000350: ec65 a1b7 dec0 df3a c468 2f3a 0241 4ebf
00000360: 054d a73a 4aed 2b3a c95e 1cbf 2fe2 00bf
00000370: 68f5 a9ba 9a2c d1be 7c90 98bd 582d a7ba
00000380: acfa 063b 1b31 c338 a925 a3be a0a7 af39
00000390: dd62 18bf 0c2d 34ba 5255 34bb 611a e739
000003a0: d67f d7bd b78f a5be ffe8 783a 38c0 e83a
000003b0: f163 8cbd 9e0f 2eba 3a97 eab9 c9bd 0c3a
000003c0: d7a0 003a f407 ad3a ca45 4ebd 4d10 3abb
000003d0: b9ce 2a3a 0e92 d0bd 5bb4 99be f35c a0be
000003e0: a93f 7bbe c4ee 803a 7021 ccbd bffc 723a
000003f0: 155f 4fbf aae6 9539 994a 37be 44fe 72be
0.0046453155 0.0005325777 -0.39447743 0.00010378385 -0.42978626 -0.013775515 -0.00049582095 -0.008619909
-0.0003205317 0.00057497696 -0.46498615 0.00039453493 -0.045699425 -0.000865774 -0.012420621 -0.006910121
-0.05937397 -0.014444589 -0.46097815 0.00066332426 -0.041601863 -0.046083644 -0.00072145887 -0.49129906
-0.018115282 -0.4541123 -0.0017915997 0.00073566946 -0.0003557503 -0.35747233 0.00026957874 0.054902196
-0.055062797 -0.00021929975 0.00063787954 -0.36640576 -0.05300022 -0.0032513407 0.0012477214 -0.053934965
-0.4517763 -0.022671396 6.4422175e-06 0.0038553597 -0.40153676 -0.09988727 -0.0004755323 -0.00039848426
3.004759e-05 0.019654034 0.0004111093 -0.010099299 -0.020009298 -0.0831053 -0.00026957598 -0.199193
-0.0002785444 -0.0015533726 -0.17993012 -0.38798 0.0020216438 -0.00014331822 -0.00897061 -0.007907531
0.0013305005 -0.00054829486 -0.0011654473 -0.24438545 -0.48091742 0.013325638 0.015323427 0.0006402971
-0.009072791 -0.047444314 0.002411911 -0.20784901 0.022934603 0.0005272538 0.0012258573 0.038365167
-0.0005223767 -0.00017770962 -0.016678432 7.497041e-05 -0.0013942933 0.0040994654 -0.0012491164 -0.501129
-0.0011408463 -4.889736e-05 -0.40536016 -0.38251936 0.00049020484 -0.3605777 -0.0076956386 -0.0018132306
0.0038897377 -0.00011999311 -0.47075623 0.00025950096 -0.46927077 -0.0014578047 -0.00013664908 0.00011033832
-0.009431061 -0.24624583 0.00068233657 0.00070553325 0.0041950294 0.00079867744 0.00022103381 -0.0004374002
0.00039233195 -0.0006394585 0.05654808 -0.0023961721 0.000117143565 -0.0069379946 -0.24826595 -0.23919016
-0.15002935 0.000598741 0.0070968755 -0.0011817396 -0.4887673 0.000489413 -0.038594317 -0.08263318
-0.098333456 0.00025936082 -0.57392836 -0.00040035835 -0.8638833 -0.10550044 0.000372507 -0.076509565
0.00051491463 -0.0009652239 -0.91244364 -0.00050729985 -0.20014013 -0.0020527113 -0.07767135 -0.0726052
-0.12000962 -0.079865955 -0.59503126 -0.0015341052 -0.18023297 -0.20384695 0.0021999055 -0.81315786
-0.106024355 -0.65034944 0.00064867036 0.0016087469 0.0014854014 -0.37562728 -0.0012871927 -0.0528452
-0.12117018 0.00014769884 -0.0016471331 -0.25073087 -0.19317044 -0.0021928658 0.0022612705 -0.26975974
-0.78471476 -0.22085579 0.00045605644 0.00270209 -0.25223452 -0.3179662 0.00058978354 0.0007385947
0.0010164966 -0.10760815 -0.0011764633 -0.07308067 0.10748516 -0.13500272 0.00059755065 -0.19332378
0.00044745416 0.0013814616 -0.37374634 -0.31510082 -0.0021429297 1.1649886e-05 -0.07415874 -0.105719425
0.00024358854 -0.00024306457 0.00046510962 -0.28543007 -0.7112521 -0.097438484 -0.093809806 0.00095829053
-0.0717283 -0.20160063 0.0014772422 -0.3210795 -0.09205853 0.0005504179 -0.001405064 -0.08707791
-0.00014398323 -0.00090475066 -0.107331574 -0.00059342646 -1.9240157e-05 0.0017071029 0.00066913315 -0.80567944
0.0012764042 0.0006558491 -0.6108213 -0.5034513 -0.0012966814 -0.4085434 -0.07449433 -0.0012754602
0.002059619 9.307471e-05 -0.3186467 0.0003350349 -0.59525853 -0.00068731676 -0.0027516675 0.00044079407
-0.1052243 -0.32336208 0.00094951683 0.0017757481 -0.06855 -0.00066399004 -0.0004474463 0.00053688564
0.00049067795 0.0013201223 -0.050359525 -0.0028391064 0.00065157894 -0.10184108 -0.30020413 -0.31320915
-0.24536003 0.0009836783 -0.09967315 0.00092692295 -0.8100446 0.00028591353 -0.1789955 -0.23729807

net.4.bias f4 [64]
00000000: 22d8 d6bc bcab ea3d a1c0 1d3e 0268 d7bd
00000010: ce6f a1bb d395 aabd d040 ff3c 2005 51bc
00000020: 58d0 44be 291c 9d3d 9ed4 d53d 4b05 b7bd
00000030: a728 7cbd f6a3 aebd f912 833d f915 043e
00000040: 75ac 22be dfed f53c 9499 49bc 662d 33bd
00000050: 291e e63b 515b bd3c 7c37 e03d 9f03 42bd
00000060: 4610 fdbb d58d 583d 30df a3bc cd09 0b3e
00000070: fd69 883d ad61 c9bd b5b8 f63d 74b9 82bd
00000080: 0365 f2bc 66dd ab3d fde6 4c3d 2344 813e
00000090: 5439 e43d a2b3 19bd 43b2 6cbb 8875 0fbe
000000a0: ddc8 aabd bea2 ff3c 871c 91bc 4337 ef3c
000000b0: 1b99 61bd 296f 3abd 726d 003e ae4d f13c
000000c0: fab3 683e 2024 07bd 3327 09bc a18d 093e
000000d0: f0f0 763d c495 8d3d 916d 31be 3ec9 813d
000000e0: d309 a0bd 8f4d 8bbb d6b8 553c 8035 6e3d
000000f0: 6356 273e 5d64 05be f084 9cbd eb6e bcbd
-0.026226107 0.11458537 0.15405513 -0.10517885 -0.0049266582 -0.08329358 0.031158835 -0.01275757
-0.19220102 0.07671387 0.10440944 -0.089365564 -0.061562207 -0.08527367 0.06400103 0.12899007
-0.158861 0.030020652 -0.012304682 -0.043744467 0.0070226383 0.023114832 0.10948083 -0.047366735
-0.007722887 0.052869637 -0.020003885 0.13577957 0.06660841 -0.09833083 0.12046949 -0.063830286
-0.029589182 0.08391838 0.050024975 0.25247297 0.11143747 -0.037524827 -0.0036116994 -0.14009678
-0.08339093 0.031205531 -0.017713798 0.029201156 -0.055077653 -0.045516167 0.1254175 0.029455986
0.22724906 -0.032993436 -0.008371162 0.13432933 0.06028837 0.06913331 -0.17326953 0.06337212
-0.07814374 -0.004251189 0.013044557 0.05815649 0.16341548 -0.13026567 -0.07642543 -0.092008434

mean_head.weight f4 [1, 64]
00000000: 1c16 fd3d 40d7 083f ec9b f33b 4f66 01bf
00000010: 953d 223e 83ef d1be 8942 713e 9351 143e
00000020: 52c6 13bd a67b 7abd 5146 013f 4da3 dfbe
00000030: 52c2 a6be 2c0b d9be 777c 98bd 0f67 0a3f
00000040: 1610 34bc 66b0 6b3e 8421 43be 6d4f 89be
00000050: 202b 393e 1621 5b3e a6fe 053f cb4f 90be
00000060: 4634 3bbe c8fd b3bd e89e 54be 6db7 e8bb
00000070: 45a1 af3e 8db3 243d ed9e 0a3f 06f9 aabe
00000080: 1a44 f33d 2722 d63e 576b 943e 60d0 a63d
00000090: fb59 dfbc ef7a 80be fa7c 243e d241 243b
000000a0: 00cf d2be d1c4 eebd 56bf 4fbe 8ff5 6a3e
000000b0: f6c2 ae3d c575 8cbe 0623 81bc 5ea5 f2bd
000000c0: db76 7e3d 4321 ea3d 82b2 3bbe abaf 04bc
000000d0: 650e a43e 84a9 8cbd d4c1 b5bc 9e0b 9bbd
000000e0: d52b 703d 9b43 35be 21ee 453e 47ec a6bd
000000f0: 33b2 6f3c dc90 0abf 0e81 c6be a4fb 393d
0.12357733 0.53453445 0.007434359 -0.50546736 0.15843804 -0.41003045 0.23560537 0.14484243
-0.036077805 -0.061153077 0.5049792 -0.43679276 -0.3257013 -0.42391336 -0.07445615 0.54063505
-0.010990163 0.2301651 -0.19055754 -0.2681841 0.18082857 0.2139934 0.5234169 -0.28185877
-0.1828166 -0.08788639 -0.20763743 -0.007101944 0.34302726 0.040210295 0.5414875 -0.33393115
0.11878224 0.4182293 0.28988144 0.08145213 -0.027264586 -0.2509379 0.160633 0.0025063646
-0.41173553 -0.116586335 -0.20287833 0.22945236 0.085332796 -0.274336 -0.01576377 -0.118479475
0.06212507 0.114321254 -0.18329814 -0.008098523 0.32042232 -0.0686827 -0.022187151 -0.07570575
0.05863555 -0.1770157 0.1932912 -0.08150535 0.014629888 -0.5412729 -0.38770336 0.045406

log_std_head.weight f4 [1, 64]
00000000: 1f4d b13d f78b 90bd 54c5 23be 55dd 793d
00000010: 1817 8a3d 6420 f43c 1cad 003d d2bb 993d
00000020: 60fc 2d3e f1c4 03be a5fa 67bd 1040 183d
00000030: f0f6 423b c295 ff3c 20cb f1bd 4cb6 bdbd
00000040: feb2 253e 7018 013d 39ce 48bd 33ac 90bc
00000050: 206b 5e3d 2849 223d 9e4f 85bd f982 5abc
00000060: 2a15 65bd 5bbb e1bd 4542 2ebd ece8 1ebe
00000070: 6196 09bc c82c 103e 72a2 a2bd cc7d 953b
00000080: f665 ba3d 956d f6bc e3ee 363c 4e2c 40be
00000090: e035 15be bb2a c4bc 7f36 853d 6b97 203e
000000a0: e53a fd3c fc34 bbbd 69f3 34bd f0d6 073d
000000b0: 63a2 e63d fcdf 82bc 037d 1dbe fc56 b8bd
000000c0: aa15 38be c4a0 be3d c709 65bd 8dc4 1dbe
000000d0: e1ac 16bb de7b fcbd 7344 293e ca84 f2bd
000000e0: 3c1a 033e 9da5 70bd 544b 473d 9cd1 ebbd
000000f0: c824 26be 1293 be3d e561 ba3c 55c4 0c3e
0.08657288 -0.07057946 -0.15993243 0.061002094 0.06742686 0.029800601 0.03141509 0.07506527
0.16990805 -0.12868096 -0.056635518 0.03717047 0.0029749237 0.03119934 -0.11806321 -0.09263286
0.16181561 0.031517446 -0.049024794 -0.017660236 0.05430138 0.03962055 -0.065093264 -0.01333689
-0.055928387 -0.11022063 -0.04254367 -0.1551854 -0.0083976695 0.14079583 -0.0794114 0.0045621153
0.09101479 -0.03008155 0.0111653535 -0.18766901 -0.14571333 -0.023946157 0.06504535 0.15682761
0.030911872 -0.09140965 -0.044177447 0.033163965 0.112614416 -0.015975945 -0.1537972 -0.09000966
-0.17977014 0.09308007 -0.055917528 -0.1540701 -0.0022991227 -0.12328313 0.16530018 -0.11841734
0.12802976 -0.05875169 0.048655823 -0.11514589 -0.16224968 0.09305395 0.022751758 0.1374677

q1.0.weight f4 [128, 14]
00000000: 0276 a9bd 22ee e2bd 85f9 d3be 17e7 963e
00000010: 1faf e13d 5d6e 85be 4ec4 353d d675 8f3e
00000020: 435a a83e c6ad adbe bbd2 14bd 41f2 583d
00000030: 0ff8 573e 0931 d43c 69a2 3b3e 3f40 5bbe
00000040: eadb 873e f3f7 f53e 5b6e b03e fd28 6ebd
00000050: f8de 2cbd b546 9f3e bbf3 84be d808 43be
00000060: 6221 81be 39a1 ed3e 38ca 913e 078e 1bbe
00000070: 5ec2 65be 5b45 02be 54be c33e 17d6 0d3f
00000080: e1cd 53bf d811 bbbe ce34 0abd 0088 12be
00000090: 9120 d3bd 1b97 83be c550 32bc 26d5 8d3e
000000a0: 7e44 2abe 9d5e 33bc 7044 e4bd b4b3 3ebd
000000b0: 8590 2abf 6230 b23e be07 21be 816e 8a3e
000000c0: 9537 4cbd f34f b53e bda2 163d f61f d0bd
000000d0: 0552 833e f167 413c 174d 36be ef9c 9abd
000000e0: e393 a53d 91a6 18be e0cb 8c3d ddc0 dd3c
000000f0: 58bb 343d 546c 56be b69e 55be a319 543d
00000100: 1a17 623d 5fc3 b6bd 2d76 47be 2b9c b4bd
00000110: 95d1 5c3d c5f3 063d de42 30bd 8253 16bd
00000120: 6245 6d3e 83ca 4f3e 850f 093f 640c 58be
00000130: 0665 de3d b36b 4cbe 3ef9 cd3d 9416 c2bb
00000140: ecab c1be fd0b 9cbe 6ebb 5fbe ac71 3abd
00000150: 9fd6 83be 424c ca3d d2fa fcbd 9354 2d3e
00000160: b696 b9be 2344 35be edf9 d53b f272 d8bf
00000170: d979 343e 69a6 31be f285 83bc 8096 4d3e
00000180: 2bae 87be 9e1f 91bb cf76 693e 01c1 70bc
00000190: ab39 57be 21c4 c53b 39ff d3bd d507 003e
000001a0: fac1 f5bd 86ae 403e 0080 9f3e 87ad eebc
000001b0: 78df 403d 28e6 8fbe c7c7 cc3d 060d c7bd
000001c0: 9187 9abe 0d20 02be 2153 b3be fe5b 293e
000001d0: 160f ba3e 58f2 e93d caa2 85be 0d69 cabd
000001e0: 5f4f 0a3e d27b 25be 4ea8 873e 47bb 8bbd
000001f0: aace b2be 4768 3dbc e7d2 02be bbcf 0bbc
00000200: 0b95 9d3e 5f53 d23e e713 b6be 2c12 c13e
00000210: b9de 9b3e e04b 4bbe ad47 c23d cd38 13be
00000220: c012 cdbd 91ce 1b3e 4cf9 d7bd 7723 303e
00000230: c9cc 5b3d 03bc 883d 9b5c 233d bb43 243d
00000240: f527 2d3e 76a4 9ebc 783c 4b3c ffc9 c0bd
00000250: cf33 2ebe 04d0 f8bd 7771 423e 5065 7fbd
00000260: 349a 923d 4bf4 913d a29c ce3d 5191 e83d
00000270: 92a1 903e b66e 9d3d 9fa9 f23d 33b0 35bd
00000280: 2a4e f63d 2930 a9be b02a 563e 6f01 3abd
00000290: ad23 c3bd df5f 1ebe d0c3 403e d0b6 e3bd
000002a0: 7766 4fbe 1970 b03d cc31 e83b ab65 b1be
000002b0: c42e 55bf e388 7a3e 5f3a 84bc 739b 33be
000002c0: 13a9 f7bd 7478 2abe d08a b6be 0738 23be
000002d0: eae0 6dbd 238a c83c ef85 b1bc ac4d a13d
000002e0: 6c76 b0be 4173 173e 2509 60be 1503 2ebf
000002f0: f16a a9bd 82d8 013f c5ce b83c 6586 263e
00000300: a8b0 f4be dc56 f93d a94e 3f3e a839 313b
00000310: 448d dd3d ece7 80bd 10b2 18be a044 2f3c
00000320: 53ab 4bbe c8cf 833e 4818 333d 9981 94be
00000330: b177 553e 76b1 8fbe c6a4 07be a2b5 b33d
00000340: 3c32 283e 57e9 ddbd b503 cdbd 7207 3c3e
00000350: b407 33be 0731 8bbd 05d3 363d c35b 69be
00000360: 7852 01bd 203a 1c3c b022 3a3e a9d4 d2bd
00000370: 8594 3f3e 09ec a83d 17f9 943a dd60 dbbc
00000380: cd1e 553e 9714 0b3e db02 68bf c917 3bbd
00000390: c75d d3bd 7ede c73d 32f7 083d 9193 33bd
000003a0: 80c6 623d ee6c d43c 67d6 49bd 45e8 463e
000003b0: 70aa cb3d af85 d13c 039a 16bd d04c 31be
000003c0: 7103 9d3e b14c dbbd aade 873d 9a2d c33d
000003d0: 9036 26be 32f3 433c c276 6dbe 850d d53d
000003e0: 7b4c dcbe a0b6 4abc 8ed5 713e fff8 0c3e
000003f0: 9ac1 b5bd 4bd9 0ebd d5df b03b ee60 203e
-0.08274461 -0.110805765 -0.41401306 0.29473183 0.1101973 -0.26060763 0.044376664 0.2801959
0.32881364 -0.3392164 -0.03633378 0.052965406 0.2109072 0.025902288 0.18323673 -0.21411227
0.2653497 0.48040733 0.34459195 -0.05814456 -0.042204827 0.31108633 -0.25967202 -0.19046342
-0.25220782 0.46412066 0.28474593 -0.15190898 -0.22437426 -0.1272177 0.38231146 0.554048
-0.8273602 -0.3653705 -0.033741765 -0.14309692 -0.10308946 -0.25701222 -0.010883515 0.27701682
-0.1662769 -0.0109478505 -0.11145866 -0.046558097 -0.6662677 0.34802538 -0.1572561 0.27037433
-0.049857695 0.3541256 0.036776293 -0.10162346 0.25648513 0.011804567 -0.17802845 -0.07549464
0.08084848 -0.1490729 0.068748236 0.027069503 0.044123977 -0.20939761 -0.20861325 0.05178226
0.055197813 -0.08923983 -0.19478674 -0.08818849 0.05391081 0.03294732 -0.04303252 -0.036700733
0.23170999 0.20292096 0.53539306 -0.21098477 0.108591124 -0.19962959 0.10057305 -0.0059231017
-0.37826478 -0.30477896 -0.21848843 -0.045518562 -0.2574968 0.09877826 -0.12352528 0.16926794
-0.36247796 -0.17701773 0.0065300376 -1.6910079 0.17624606 -0.17348637 -0.016055081 0.20076942
-0.26500067 -0.004428818 0.22799228 -0.014694453 -0.21018092 0.0060353433 -0.10351414 0.12502988
-0.11999889 0.18816575 0.31152344 -0.029135479 0.047088116 -0.28105283 0.09999042 -0.09719281
-0.30181554 -0.12707539 -0.3502436 0.16538998 0.36339635 0.114231765 -0.2610076 -0.09883318
0.1350684 -0.16160515 0.26495594 -0.0682283 -0.34923297 -0.011560506 -0.12775765 -0.0085334135
0.30777773 0.41079232 -0.3556206 0.37709177 0.3044336 -0.19853163 0.09486327 -0.14377137
-0.10013342 0.15215518 -0.105455965 0.17201029 0.053662095 0.066764854 0.039883237 0.040103655
0.16909774 -0.01936553 0.012404554 -0.09413528 -0.17011951 -0.12149051 0.18988596 -0.06235248
0.07158318 0.07126673 0.10088469 0.11355842 0.28248268 0.07687132 0.11848759 -0.04435749
0.12026627 -0.33044556 0.20914721 -0.045411523 -0.09528289 -0.1546626 0.18824697 -0.11118853
-0.20253931 0.08615131 0.0070860144 -0.3464788 -0.83274484 0.2446628 -0.016141115 -0.17539768
-0.12092795 -0.16647512 -0.3565278 -0.15939341 -0.058075823 0.024479931 -0.02167031 0.07876143
-0.3446535 0.1479006 -0.21878488 -0.6797345 -0.082723506 0.5072099 0.022559533 0.16262205
-0.47791028 0.1217477 0.1868235 0.0027042422 0.1081796 -0.062942356 -0.14911675 0.010697514
-0.19889574 0.25744462 0.04372433 -0.29005125 0.2084644 -0.2806508 -0.1324645 0.08774878
0.16425413 -0.10835522 -0.10010473 0.18362215 -0.17483407 -0.067964606 0.044634838 -0.2278891
-0.03157279 0.009535342 0.18177295 -0.10294468 0.18709 0.08248145 0.0011365738 -0.026779586
0.20812531 0.13582073 -0.9062936 -0.04567698 -0.10320621 0.09759234 0.03343887 -0.043841902
0.055365086 0.025930848 -0.049276736 0.19424541 0.09944618 0.02557644 -0.03676797 -0.17314458
0.30666688 -0.10707987 0.06634267 0.09530182 -0.16231751 0.011959838 -0.23189834 0.10402969
-0.430271 -0.012372643 0.23616621 0.1376686 -0.08874817 -0.034875195 0.0053977766 0.15661976

q1.0.bias f4 [128]
00000000: 64f6 11be 2ae5 273e 1122 223e 755f 6cbe
00000010: ded3 b83e c102 a43e c4eb 9ebc c8fc 9ebe
00000020: 0fa0 563e 49e4 1a3e bb8a 38be 9c40 823e
00000030: 0f50 373e 9c5b a0bd 9106 a63e 6aee ae3e
00000040: 0fa2 5abe a614 a9bc 51ff a6be f53d cd3e
00000050: abfb 703e ff53 c83d 22d1 1ebe 02b5 973e
00000060: 4c89 a83e 16d6 9abe b38d ad3c 80e1 b83e
00000070: 4aef ca3d 1c39 00be a667 683d 808e 75bc
00000080: b947 1abe b7b6 1abd c952 d63e 4d45 9e3e
00000090: 5cdc 9e3e 7c6d a23e f53f 823e 96b7 83be
000000a0: 9bf6 09be 541e 0fbe 36a5 54be aaa3 ee3d
000000b0: 2065 5b3c 5208 e7bc a0e9 9abd 897c 8a3d
000000c0: 8225 2d3d 616a 04be 726b 56be dd4c 083e
000000d0: 9ef6 b53d b561 883e 4310 423e ea0b 753e
000000e0: a38a 843d 4b7b 953e 7019 1ebe 657c a8bd
000000f0: f3ae 7abc 0ba5 e0bd cb1b 70be 0695 643d
00000100: 2650 563d 56b8 8cbe 58a4 ab3d 73f7 2cbb
00000110: 9ce2 b63d 0490 82bd ce02 893e 714a fa3c
00000120: a12d 66bc 62f4 5c3c 1bf5 c9bd 0081 b5be
00000130: d85f 9e3d 80c8 af3d 834d 12be f994 8bbb
00000140: 6474 813e 0513 2a3e bfbd 89be 608e 053e
00000150: b3ab 6fbe 5449 023e 48b0 f43d 7631 70be
00000160: faf4 123e cadb b13a 9126 c33d 9521 643e
00000170: 8fcc 033e ef08 783e f82e 643e 8339 513d
00000180: 2acd 93bd bcf9 b63e 9dfd 193e 4bec 5cbe
00000190: f6ff 7ebe 8106 7dbe f7a7 853e 9ad2 70be
000001a0: 9873 49be 3fe8 0abd 7c69 abbd 0c62 0f3e
000001b0: 1735 493e 7636 88be b642 863e 57db ea38
000001c0: 9d70 503e 4417 c8bd 4927 003e ad9e 3ebd
000001d0: 39f4 023e 00ad 633d d050 4fbc 626e 4fbe
000001e0: 14d8 24be 75f0 123e 62cf 4cbe 38c1 893e
000001f0: ad0e 29be 621f a33e d2dd 46be 24da 5e3e
-0.14254147 0.16396013 0.15833308 -0.23083289 0.36099142 0.3203335 -0.019399531 -0.31052232
0.20959495 0.15126146 -0.18021671 0.25439918 0.17901634 -0.07829973 0.32426885 0.3416627
-0.21350883 -0.020639729 -0.32616666 0.40086332 0.23533504 0.09781646 -0.15509465 0.29630286
0.3291725 -0.3024146 0.021185732 0.36109543 0.09908922 -0.12521785 0.05673947 -0.014987588
-0.15066423 -0.037771907 0.41860035 0.30912247 0.31027496 0.31724155 0.2543942 -0.25726002
-0.13472979 -0.13976413 -0.20766148 0.1165231 0.013390809 -0.02820221 -0.07564092 0.067620344
0.0422721 -0.12931205 -0.20939425 0.13310571 0.08884929 0.26637045 0.18951516 0.23930326
0.06471755 0.29195628 -0.15439391 -0.082268514 -0.0153005 -0.109689794 -0.23448102 0.055806182
0.05232253 -0.27484387 0.083809555 -0.0026392608 0.08929941 -0.06375125 0.26759952 0.030553075
-0.014048965 0.013486 -0.09861203 -0.35449982 0.077331245 0.08583164 -0.14287381 -0.0042597023
0.25284111 0.16608818 -0.26902577 0.13042593 -0.23405342 0.12723285 0.119476855 -0.23456368
0.14351264 0.001356953 0.0952884 0.22278436 0.12871002 0.24222158 0.22283542 0.051080238
-0.07216866 0.35737407 0.15038152 -0.21574514 -0.24902329 -0.24709512 0.2610471 -0.23517838
-0.19673002 -0.033912893 -0.08369729 0.14002246 0.19649158 -0.2660405 0.2622277 0.00011198845
0.20355459 -0.097700626 0.12514986 -0.046538044 0.12788476 0.055584908 -0.012653545 -0.20256951
-0.16098052 0.1434954 -0.20000985 0.26905227 -0.16509505 0.3185988 -0.19420555 0.21762902

q1.2.weight f4 [128, 128]
00000000: f8a6 62bd 8ac5 ae3d d075 fb3d 4de2 c6bd
00000010: cd38 953b 55a4 62bd fd50 a63e e6c3 28bd
00000020: 387e bd3d 8c51 a93d 69bc 173d 7fc6 9c3d
00000030: d5cb 403e eed5 cc3b fb8c 003e eacd c03d
00000040: ae62 bf3d 5aad 963d 542f 27bd 7415 2c3e
00000050: 8864 433d e40f 1c3e cd08 ea3d f1df 293d
00000060: 0f51 c03d a1aa 4a3e ab66 a6bd 37d8 bc3d
00000070: 7f9b 623d dc16 a03d 4de2 2d3d 8491 c4bd
00000080: 8fce 0abe 8ff5 0fbe f32d 033e e797 803c
00000090: a71c e5bc 7159 1d3e c2cb 9abc e65a 063d
000000a0: 232d 45bd 00fa e63c 3740 42be 49f3 12bd
000000b0: 8d1b 033e 68a5 0b3e 7978 a039 54e2 54bc
000000c0: e072 37bd 094d ad3e a630 0e3d b4d5 0e3e
000000d0: fb13 093e b53f 333d 39b0 aabc 3616 9d3d
000000e0: 50e5 aabc e7c1 ae3c 5065 6ebc 2d58 323e
000000f0: e098 d33c 25a0 1c3d a72d 0cbd 215d 5a3d
00000100: cd43 68bc a28d 52bd 7f2c 6b3d 1bae 1f3e
00000110: 6ad8 813c e930 9dbd fdb9 d8bd 4621 853c
00000120: 1d82 67be 3ef4 6d3d db2c 98bd 1dd6 56be
00000130: 88e4 453d 30dc ba3c 9df2 debd 8c04 b43d
00000140: 60ed 683c 8372 883d ceab 80bd 25e3 a53d
00000150: 35dc 363d 4172 3ebd df48 a33d 1bf0 913d
00000160: 5eb9 153b 2008 4a3e 6011 203e d4a4 463d
00000170: 1124 eabc 48ae 9d3c 139e 003c 0093 653d
00000180: 25b1 763d 008d eb3d 2f6d 15bd b290 d4bb
00000190: a0da b6bd 08cd f9bd 7d59 423d 68f5 543d
000001a0: 117a c03c 9506 013d 5939 07be 7bb9 9a3d
000001b0: 5275 513d c503 06be a29e b33d 69a9 9aba
000001c0: ce60 943d ee43 d13c 8198 a73c 3fca 6f3d
000001d0: 9a00 043e 8451 8a3d 8f9b 053c b722 9cbd
000001e0: 3e74 463d fc81 d03d 4fb2 47bd 34a0 dd3d
000001f0: a548 323d 63ed f83b c5e0 f3bc 2e40 82bd
00000200: a910 acbd f912 a73d f841 9dbe 4748 87be
00000210: fef3 a53d 66b2 0f3e 0f17 883e 16b1 99bd
00000220: 8a1c b8bd 814b 303e c576 7cbd 127d 48ba
00000230: 9059 1bbe a394 fc3d ed6b 353d 74c2 6cbd
00000240: 932f a4bf 1042 0b3e d88d bebe 218a 61be
00000250: bc33 e43d 0644 3cbe 0340 1e3e 94a6 6d3d
00000260: 0f3e 273e e3f2 10be 2039 db3d 61fb f23d
00000270: e4b1 ec3c a733 68be 0c2d ad3d a6de 47bd
00000280: 0a5c 93bd ae05 87bd 47f7 3d3e 24db 053c
00000290: b623 b63b 001c bcbc 0953 a53d 146b a3bc
000002a0: 38e2 89be 03dc 53bf caf0 303c 4715 04bf
000002b0: c2ac 2bbe 26b7 0c3e 3fc8 1abf b9f1 81bd
000002c0: 17f2 f3bd 5865 703c 1ab8 a9bd b0fc 953d
000002d0: 0621 21be f552 4f3e f6d7 38bc 5a87 8a3d
000002e0: 5b77 24bd bb58 a83d effc 87bd 60b6 b53d
000002f0: a777 c2be af5d 1fbf f9ed 193e 6015 9b3d
00000300: 29c2 71be f80b eabe cba5 5fbe 6f84 553e
00000310: 0843 e73d 2861 3cbe 8fc4 fcbe 9eae 1a3c
00000320: ab33 c9be 0778 573e 8efe 903e 7b7f b8be
00000330: 8354 ad3d d307 a3b9 15a8 ad3e 90c9 f4bd
00000340: 496a cebe b91f 103e 476b 0c3d 33ec 743d
00000350: 3952 133c 66c2 853c 6159 25bd 7ab4 433d
00000360: c4dc a53d 2bb7 8cbd 6784 7f3e 3fb0 03bf
00000370: dc55 ca3e b2e2 f2be 9ef3 4e3e eb1e 583d
00000380: 2c71 68be af2c 0ebd 6a19 83bd 1699 f43b
00000390: 6b74 02bd c274 663e efe4 803b 144f acbe
000003a0: 0aa3 b9bd c7f7 0ebd 60c9 71be e2ca a63d
000003b0: 72bf 2d3d b6a7 11bf 9527 12bd 26ab b63e
000003c0: 1b96 553e 896f 8e3e a490 cbbc 11c7 7fbd
000003d0: a469 dc3e bb5b 223d 94e2 8f3d bc03 7f3e
000003e0: 06cb 693e c27f 213e 757b 8bbe 41c1 5bbc
000003f0: fc3f 95bd 393c a2be 88ba e73c 7c81 17be
-0.055335015 0.08533771 0.1227833 -0.09711132 0.0045538903 -0.0553325 0.32483664 -0.04120245
0.0925259 0.08267507 0.037044916 0.076550476 0.18827756 0.0062510883 0.1255378 0.09414275
0.093449935 0.07357283 -0.04081662 0.16805059 0.047703296 0.15240437 0.1142746 0.041473333
0.09390461 0.19791652 -0.08125051 0.09220927 0.055324074 0.0781686 0.042452145 -0.095980674
-0.13555358 -0.14058517 0.12810497 0.015697433 -0.027967764 0.1536615 -0.018895987 0.03280153
-0.04813875 0.028195381 -0.18969809 -0.035876546 0.12803479 0.13637316 0.00030607337 -0.012993414
-0.044787288 0.33847836 0.034714364 0.13948709 0.13386528 0.043761928 -0.020835983 0.07670252
-0.020861298 0.021332694 -0.014550522 0.17416449 0.025829732 0.038238663 -0.034223225 0.05331147
-0.014176321 -0.051404603 0.05741548 0.1559376 0.015850265 -0.076753445 -0.105823494 0.016251218
-0.22608228 0.058094256 -0.074304305 -0.20980115 0.048313648 0.022810072 -0.108861186 0.0878993
0.014216751 0.066624664 -0.06282769 0.08099965 0.0446436 -0.04649568 0.079728834 0.071258746
0.0022846083 0.19729662 0.15631628 0.048497036 -0.02858165 0.019248143 0.007850188 0.056048393
0.060227532 0.11501503 -0.03648108 -0.0064869756 -0.08928418 -0.1219731 0.047448624 0.05199185
0.023495706 0.031500418 -0.1320547 0.07554909 0.051137276 -0.13087375 0.08770491 -0.0011799756
0.072450265 0.025545087 0.020458462 0.058542486 0.12890854 0.06753829 0.008154764 -0.07623809
0.0484507 0.101810426 -0.048754033 0.10821572 0.04352631 0.007596658 -0.029770264 -0.063598976
-0.08401615 0.081579156 -0.30714393 -0.2642233 0.081031784 0.14032897 0.26580092 -0.075044796
-0.089898184 0.17216302 -0.061636705 -0.00076480315 -0.15170884 0.12333038 0.04429238 -0.057802632
-1.2827018 0.1359942 -0.37217593 -0.22025348 0.1114268 -0.18385324 0.15454106 0.05802019
0.16332267 -0.14155154 0.10704255 0.11864353 0.028893419 -0.22675954 0.08455858 -0.04879632
-0.071952894 -0.0659288 0.1855136 0.008169923 0.0055584563 -0.02296257 0.08072478 -0.01994852
-0.26930404 -0.82757586 0.010799596 -0.51594967 -0.1676512 0.1374174 -0.604618 -0.06344933
-0.11911409 0.0146726 -0.08287068 0.07323587 -0.15735254 0.2024649 -0.011281958 0.067640975
-0.04015289 0.08220049 -0.0664004 0.08872676 -0.37981912 -0.62252325 0.15032186 0.07572436
-0.23609222 -0.45712256 -0.21840589 0.208513 0.11292082 -0.18396437 -0.49368712 0.009441046
-0.39297232 0.2104188 0.2831921 -0.3603476 0.08463385 -0.00031095612 0.339173 -0.119525075
-0.40315464 0.14074601 0.034281995 0.05979557 0.008991771 0.016328048 -0.04036844 0.047779538
0.08098748 -0.06870874 0.24952851 -0.51440805 0.3951863 -0.4743858 0.2021012 0.05276386
-0.22699422 -0.034710582 -0.06401332 0.0074645383 -0.031849306 0.22505477 0.003933541 -0.33654082
-0.090643 -0.034904268 -0.23611975 0.081441656 0.042418905 -0.5689653 -0.03568228 0.3567745
0.20858042 0.2781947 -0.024849243 -0.062445704 0.43049347 0.039638262 0.07025638 0.24903768
0.22831354 0.15771392 -0.27242628 -0.013412775 -0.07287595 -0.3168657 0.028287187 -0.14795488

q1.2.bias f4 [128]
00000000: 8e82 203e 6561 a53d d6e6 8b3d d948 353e
00000010: c6fd 103e dd9e da3b 0e45 8fbd e2c5 653c
00000020: c9a7 9e3c 2702 0f3e a184 a03d eb1b 1dbe
00000030: e424 9abc b9bc 723d 98d9 f4bc be71 583e
00000040: 68b9 393e 383a 463d 41cd 363e cc9c 463e
00000050: 97e2 9e3c f7cc 1bbd cdd9 363e f4f4 093d
00000060: ad9d 5d3d 85a5 ea3d a440 fabc 8e80 07be
00000070: 8b8f b23d 9408 0b3d 419e 37bc e56a 823d
00000080: 98a4 273e f95c 753c ad6f 823c 5047 753d
00000090: 1eb7 3f3e e06b 953d 6315 99bd 2b76 843e
000000a0: 9950 8c3e bb34 4b3e 44eb 873b d992 dd3d
000000b0: 2980 833e 49ea 483e 3bae 16bd 177e 2d3d
000000c0: f531 833d c6fc 853c bbb0 4abd 6445 3f3e
000000d0: 6f23 92bd 60a5 283e 8996 1c3d 70fd a8bd
000000e0: a765 9b3d 352f c23d ca7f c03d ac3f cf3d
000000f0: c279 42ba 3648 fdbc 56af af3c f3d2 313d
00000100: fb0b 7a3d 7c90 7d3d c467 3c3d 1ce8 983d
00000110: aea2 e63d 01ae a43e 8d8c d6bd 512f 4e3e
00000120: ea5c eebc f28f 9ebc e106 85bc 633c c43d
00000130: 3021 89bc d3ad 563d 1b93 79bd f4c2 c23d
00000140: 4a4d 953c 3a94 043d 88c0 fdbd 3518 75bd
00000150: fdc9 07bd 51c3 0d3d 9ed5 9b3d 7adf 8c3d
00000160: 3b1e 303e c7d9 25bc a74c c33c 1ddd fdbc
00000170: 659e ee3d 4b92 7c3d 2d9e 393e 4d44 023e
00000180: 3a03 f03d e938 7cbd 37c8 a9bd 3118 233d
00000190: e762 363e 9ccc 063e 4008 d23c f829 8f3e
000001a0: 1ae2 7b3d 6776 1b3e 9e47 a8bd 4c1a 613d
000001b0: 45c8 593e b5a7 403e 7069 5f3e 77d3 b03a
000001c0: af5d 573e ed6c 2d3e 6b88 ec3d 24b2 64bd
000001d0: 893c 253d fee3 b3bd 7fd4 a63d 0c23 f8bc
000001e0: 534f f83d ecf5 5abd 0e39 243c 43d2 b8bd
000001f0: 823e b03d 2905 e63c 72c7 9a3d c947 b3bc
0.15674803 0.08075217 0.06831138 0.1770357 0.14159307 0.00667177 -0.06995593 0.01402423
0.019367116 0.13965665 0.07837797 -0.15342681 -0.018816419 0.05926201 -0.029888913 0.21137139
0.18137133 0.048395365 0.17851736 0.19395751 0.019395156 -0.038037267 0.17856522 0.03368087
0.05410545 0.114573516 -0.030548401 -0.13232633 0.08718785 0.033943728 -0.011207164 0.06368045
0.16371381 0.01497578 0.015922392 0.059882462 0.18722197 0.07295966 -0.07474782 0.25871405
0.2740524 0.19844334 0.004147919 0.108190246 0.25683716 0.19620623 -0.036787253 0.042356577
0.06406013 0.016355883 -0.04948495 0.18678814 -0.07135665 0.16469336 0.0382295 -0.08251464
0.07587748 0.0948166 0.09399374 0.10119566 -0.0007418656 -0.030918222 0.021445911 0.043414067
0.06104658 0.06190537 0.045997396 0.07466146 0.112614974 0.32164004 -0.10476027 0.20135237
-0.02909704 -0.019355748 -0.016238632 0.0958183 -0.016739458 0.052411865 -0.060931306 0.095098406
0.01822533 0.032367922 -0.12390238 -0.05983754 -0.033151615 0.034610096 0.076091036 0.06878562
0.17199032 -0.010122723 0.023840262 -0.030989224 0.11651305 0.061662953 0.18126746 0.12721367
0.117193654 -0.06157771 -0.08290141 0.039817993 0.17811166 0.1316399 0.0256387 0.27961707
0.061494924 0.15181886 -0.08216785 0.05495672 0.21267803 0.18813975 0.21817565 0.0013490756
0.21031831 0.16936083 0.11549457 -0.05583395 0.040340934 -0.087837204 0.08145999 -0.03029015
0.12124505 -0.053457186 0.0100233685 -0.09024479 0.086056724 0.028078632 0.075575724 -0.021884816
